trading_model_demo.pth (torch, 567541 bytes, 26 tensors)

nikkei_encoder.weight_ih_l0 f4 [256, 3]
0	0x3be40600	0.006958723
1	0x3cfc1b88	0.030774847
2	0x3dadf5ba	0.08494134
3	0xbdca2866	-0.09870987
4	0xbd6755c0	-0.056478262
5	0x3db0f5d8	0.08640641
6	0x3dc0575a	0.09391661
7	0xbc249f30	-0.010047719
8	0x3d833d04	0.06408122
9	0x3d9822be	0.074285015
10	0x3dae0968	0.08497888
11	0x3dc61144	0.09671262
12	0x3da7f1e0	0.08200431
13	0xbc03d270	-0.008045778
14	0xbdecf224	-0.11569622
15	0x3dc6d332	0.09708251
16	0x3df3806c	0.11889729
17	0xbb2b2b00	-0.002611816
18	0xbdccc2b8	-0.09998077
19	0x3d84a88c	0.0647746
20	0x3db91a40	0.0903821
21	0xbca53820	-0.020168364
22	0xbd62d9e0	-0.055383563
23	0x3debc824	0.11512783
24	0x3b5bf640	0.0033563524
25	0xbd14acf8	-0.03629777
26	0x3c6d38a0	0.0144788325
27	0xbcb94dc8	-0.022620097
28	0x3d6cef90	0.057845652
29	0xbdaaafe4	-0.0833433
30	0x3dc0734e	0.093969926
31	0xbd0ea080	-0.034821033
32	0x3dfb47b6	0.12269537
33	0xbdde7bc4	-0.1086345
34	0x3de78668	0.11304933
35	0x3db6d9a8	0.089282334
36	0xbca24cb8	-0.019811973
37	0xbd8904f6	-0.06690399
38	0x3df8d472	0.12149896
39	0x3d597064	0.0530857
40	0xbd843598	-0.06455535
41	0x3d375830	0.044761837
42	0xbddb5ae2	-0.10710694
43	0x3d82fc84	0.0639582
44	0x3da5553e	0.08072899
45	0xbdd43aa0	-0.10362744
46	0x3da1e62e	0.079052314
47	0x3d549bd8	0.051906437
48	0x3c2e9b10	0.010657087
49	0xbc233e30	-0.009963557
50	0x3c8cdf80	0.017196417
51	0x3c626e90	0.0138203055
52	0x3c8a7178	0.01689981
53	0x3dd2727a	0.10275741
54	0xbc31f6e0	-0.010862082
55	0xbcaff330	-0.021478266
56	0xbd2d4648	-0.042303354
57	0xbba45940	-0.0050155222
58	0x3dcbe1b4	0.09955159
59	0xbd71a32c	-0.058993503
60	0xbde3f8f2	-0.11131467
61	0x3cde5458	0.027139828
62	0xbdbc5400	-0.09195709
63	0xbd767dec	-0.060178682
64	0x3dd9b920	0.10631013
65	0xbceda8b8	-0.029011115
66	0xbd019dac	-0.03164451
67	0xbdc18174	-0.09448519
68	0xbb9c2060	-0.0047646016
69	0xbda0ca68	-0.07851106
70	0xbd310354	-0.043216065
71	0xbd31b0a8	-0.043381363
72	0x3dd1a51a	0.10236569
73	0x3d901aea	0.070363835
74	0x3d8c581e	0.068527445
75	0x3d71a1a4	0.058992043
76	0xbd199d88	-0.03750375
77	0xbcb4f298	-0.022088334
78	0xbd95814e	-0.073000535
79	0xbda2d800	-0.07951355
80	0x3db94b36	0.090475485
81	0xbdd44ca8	-0.103661835
82	0x3d84b134	0.06479111
83	0xbcfdd958	-0.030987427
84	0xbd391274	-0.045183614
85	0xbda39580	-0.07987499
86	0x3d338608	0.043828994
87	0xbc952cf8	-0.01820992
88	0x3dd88032	0.10571326
89	0xbde81a78	-0.113331735
90	0x39508800	0.0001988709
91	0x3daedb86	0.085379645
92	0x3df74662	0.12073971
93	0x3cc39618	0.023875281
94	0x3dc496ce	0.09599076
95	0x3d1feb88	0.03904298
96	0x3bcf09c0	0.006318301
97	0x3c030ef0	0.007999167
98	0x3dc8bc34	0.09801522
99	0xbcf65530	-0.030069917
100	0x3c58a060	0.01322183
101	0x3cac4468	0.021028712
102	0x3df23c74	0.11827937
103	0xbcde80c0	-0.027161002
104	0x3cb5bbb0	0.022184223
105	0xbdbefa64	-0.09325102
106	0xbd142cf0	-0.03617567
107	0xba974980	-0.001154229
108	0x3c652b30	0.0139873475
109	0xbd40ee04	-0.04710199
110	0x3d88fefe	0.06689261
111	0x3c647210	0.01394321
112	0xbd042f9c	-0.032271966
113	0x3ba51ec0	0.005039066
114	0xbca2a0e0	-0.019852102
115	0xbd008408	-0.031375915
116	0x3d1c8d50	0.038220704
117	0x3c0fbe70	0.008773431
118	0x3d92965a	0.071575835
119	0xbbecacc0	-0.007222742
120	0xbdecc6ec	-0.11561379
121	0xbde865ca	-0.1134754
122	0xbd06c45c	-0.032902107
123	0x3db98894	0.09059253
124	0x3dcc177e	0.09965418
125	0xbd70b598	-0.05876693
126	0x3dee464a	0.116345
127	0xbc0b37e0	-0.008497208
128	0x3de113dc	0.10990116
129	0x3de3a898	0.11116141
130	0x3ca9e7c8	0.020740405
131	0xbcc012c0	-0.02344644
132	0xbd46e008	-0.048553497
133	0xbd9590de	-0.07303022
134	0x3c5d97d0	0.013524964
135	0xbdafd718	-0.08585948
136	0xbca82048	-0.020523205
137	0xbd8e1650	-0.069378495
138	0xbde0ed6a	-0.10982783
139	0x3d807dbc	0.06273982
140	0x3c0c84a0	0.008576542
141	0xbc9605b8	-0.018313274
142	0xbdd07b66	-0.101797864
143	0xbdc4da24	-0.096119195
144	0xbd86b272	-0.065770045
145	0xbbe2cc80	-0.006921351
146	0x3da9c656	0.08289783
147	0xbdf0937e	-0.11746882
148	0x3dcbfefe	0.09960745
149	0x3dc6efb4	0.097136885
150	0x3da301cc	0.07959327
151	0xbd91dcce	-0.07122193
152	0x3d13b2ac	0.036059067
153	0xbcb56780	-0.02214408
154	0x3d8fa256	0.07013385
155	0x3df11b2a	0.11772759
156	0xbdc03450	-0.09384978
157	0x3da3f2a8	0.080052674
158	0xbd9df270	-0.07712257
159	0x3ddacd84	0.1068373
160	0x3d4bec0c	0.04978566
161	0xbccfbb28	-0.025357798
162	0x3d8cf13e	0.06881951
163	0xbd97e748	-0.0741716
164	0x3cf84770	0.030307502
165	0xbd8f3a8a	-0.06993587
166	0x3afc4300	0.0019246042
167	0xbdee6424	-0.11640194
168	0x3d063e88	0.03277448
169	0x3dfdac40	0.1238637
170	0x3deb9912	0.11503805
171	0x3d114ae0	0.035471797
172	0x3b805e80	0.0039175153
173	0xbd9712c6	-0.073766276
174	0x3d8aa116	0.06769006
175	0x3c4ff160	0.012691826
176	0xbdb581e6	-0.08862667
177	0x3dafab32	0.08577575
178	0x3d5409bc	0.051767096
179	0xbd81f632	-0.06345786
180	0xbdf138bc	-0.11778399
181	0x3c55ae20	0.013042003
182	0xbddfad9e	-0.10921787
183	0xbd7bd75c	-0.06148468
184	0x3d7d3f2c	0.061827824
185	0x3cc0ccf8	0.023535237
186	0xbdbff542	-0.09372951
187	0x3d391998	0.045190424
188	0xbdc6059a	-0.09669037
189	0x3dc16368	0.09442788
190	0xbd9718f0	-0.07377803
191	0xbd0492d8	-0.032366604
192	0xbd95e188	-0.07318407
193	0x3de4267e	0.11140154
194	0xbdee5600	-0.11637497
195	0x3aa0b880	0.0012262017
196	0xbc529600	-0.012853146
197	0xbdf5073e	-0.11964272
198	0xbdbfccda	-0.09365244
199	0xbc81dc20	-0.015852034
200	0xbddbd6e2	-0.10734345
201	0xbbd345a0	-0.006447509
202	0xbdb5fde6	-0.08886318
203	0x3df73042	0.12069751
204	0x3d35770c	0.044302985
205	0xbdf1f498	-0.11814231
206	0xbd9df92e	-0.07713543
207	0xbc9aa658	-0.018878147
208	0xbd901574	-0.07035342
209	0x3d0c20b0	0.03421086
210	0x3dc6928e	0.09695922
211	0x3d800dc8	0.062526286
212	0x3d39b274	0.0453362
213	0x3dd295c2	0.1028247
214	0x3d23ffec	0.040038988
215	0xbde94ab0	-0.11391199
216	0x3b9a8940	0.0047160685
217	0xbd38fd98	-0.04516372
218	0x3ccf2eb0	0.025290817
219	0xbbd73920	-0.006568089
220	0x3dd5d380	0.10440731
221	0x3d5c1428	0.05373016
222	0x3d49d5e4	0.049276248
223	0xbd85597a	-0.06511207
224	0xbaeb4e80	-0.0017952472
225	0xbca815c0	-0.020518184
226	0xb71d0000	-9.357929e-06
227	0xbd8cf9da	-0.06883593
228	0x3bccff40	0.006256014
229	0xbc0bea60	-0.008539766
230	0x3ddde692	0.108349934
231	0xbc90c768	-0.01767321
232	0x3ce1e750	0.027576119
233	0xbd3b9f88	-0.045806438
234	0xbd7f7fd0	-0.06237775
235	0x3cf12828	0.029438093
236	0xbd91406e	-0.07092367
237	0xbc81fd90	-0.015867978
238	0xbd6955b0	-0.056966484
239	0xbd008cb8	-0.0313842
240	0xbcd81c00	-0.026380539
241	0xbddaa6be	-0.10676335
242	0x3d0cc444	0.03436686
243	0x3d285750	0.041098893
244	0xbd9e6f16	-0.07736032
245	0xbdd590ba	-0.10427995
246	0xbca9cda8	-0.020727947
247	0xbd0a9f80	-0.033843517
248	0xbd9f6b76	-0.077841684
249	0x3d4406dc	0.047858104
250	0xbd3e7efc	-0.04650782
251	0x3dbbfcc2	0.09179069
252	0xbcf84d88	-0.030310407
253	0x3d877654	0.06614366
254	0xbd8feb1c	-0.070272654
255	0x3cc7a6a0	0.024371445

nikkei_encoder.weight_hh_l0 f4 [256, 64]
0	0x3c5df900	0.013548136
1	0xbdd97570	-0.106181026
2	0xbd5306c8	-0.05152014
3	0x3d4bced0	0.04975778
4	0xbdb2418e	-0.0870391
5	0xbd7e3f88	-0.062072307
6	0x3dd8e952	0.10591377
7	0x3dfacf8a	0.12246616
8	0xbd19ad84	-0.037518993
9	0xbd4cc82c	-0.049995586
10	0xbdbf66ea	-0.09345801
11	0x3dd7d5bc	0.105388135
12	0xbdf885b4	-0.12134877
13	0x3dccf424	0.10007504
14	0x3dd29906	0.10283093
15	0xbd30d3c4	-0.043170705
16	0xbdf376d0	-0.11887896
17	0x3dda2c6a	0.106530026
18	0x3d4b4264	0.049623862
19	0xbddaead4	-0.10689321
20	0xbd4a8dcc	-0.049451634
21	0xbc135930	-0.008993432
22	0xbdc7f8ac	-0.09764227
23	0x3b8ccd60	0.0042969435
24	0xbd51bb5c	-0.05120407
25	0x3dea392a	0.114366844
26	0x3d1a2cd8	0.037640423
27	0x3de95d0a	0.11394699
28	0x3dc8cc54	0.098045975
29	0xbdcedb86	-0.101004645
30	0xbd555ee4	-0.052092448
31	0xbd9f74b6	-0.07785933
32	0x3d8f61f4	0.07001105
33	0x3cdf04b0	0.027223915
34	0xbcee24c0	-0.029070258
35	0x3d94fbfc	0.07274625
36	0xbdf2364e	-0.11826764
37	0xbd0ce7ac	-0.034400627
38	0x3bfbf6e0	0.007689342
39	0x3ae5d300	0.0017534196
40	0xbdcfbbce	-0.10143243
41	0xbc935858	-0.017986462
42	0xbd3bcb30	-0.04584807
43	0x3c397a80	0.01132071
44	0x3ce7e828	0.028308943
45	0xbcc64338	-0.024201974
46	0x3da0e21e	0.078556284
47	0xbd6cc9d4	-0.057809666
48	0x3d8690ae	0.06570564
49	0x3d912b28	0.070883095
50	0x3dec0368	0.11524087
51	0x3d527c24	0.05138792
52	0xbd2548a0	-0.040352464
53	0xbd3389bc	-0.043832526
54	0x3d8456ec	0.064618915
55	0x3d2221d0	0.039583027
56	0x3dd56e4e	0.104214296
57	0x3d9cec7a	0.07662292
58	0xbdefa98a	-0.11702259
59	0xbddd301c	-0.10800192
60	0x3d7f0478	0.06226012
61	0xbd595bbc	-0.053066
62	0xbdbefa4e	-0.093250856
63	0xbdfb0ca8	-0.12258273
64	0xbdc03cc6	-0.093865916
65	0xbda983ca	-0.0827709
66	0xbdf91c06	-0.12163548
67	0x3d2c6a0c	0.04209332
68	0xbdcd8172	-0.10034455
69	0x3cf3b240	0.029748082
70	0xb983f800	-0.00025171041
71	0xbda1323a	-0.07870908
72	0x3d54220c	0.051790282
73	0x3cc8acf0	0.024496526
74	0xbcaab4c8	-0.020838156
75	0x3d867802	0.065658584
76	0xbdd35b22	-0.103201166
77	0xbd4275d4	-0.04747565
78	0xbde6917c	-0.11258218
79	0xbd89a89e	-0.06721614
80	0xbb7981c0	-0.0038071722
81	0x3da04bba	0.07826944
82	0x3dc9b922	0.098497644
83	0xbca098c0	-0.019604087
84	0x3d96eb82	0.07369138
85	0xbcdb8e50	-0.026801258
86	0x3dd837b4	0.105574995
87	0xbd67128c	-0.056414172
88	0xbdbe1e3a	-0.09283109
89	0x3d149844	0.036278024
90	0x3ddb127e	0.106968865
91	0xbd002d00	-0.031292915
92	0x3c1a90f0	0.00943397
93	0xbd9dd89a	-0.07707329
94	0x3d28a7b0	0.041175544
95	0x3cec5690	0.02884987
96	0xbc0d78e0	-0.008634776
97	0xbd9135e6	-0.070903584
98	0x3d8c6eda	0.06857081
99	0xbda1d61e	-0.07902168
100	0xbdd54e20	-0.10415292
101	0x3d01e1dc	0.031709537
102	0x3d4d01c8	0.050050527
103	0xbd986874	-0.07441798
104	0xbdbe5c3a	-0.092949346
105	0xbd89f884	-0.06736854
106	0xbddbeeda	-0.10738917
107	0x3da0eed4	0.07858053
108	0xbc12ca50	-0.008959368
109	0x3d412d64	0.04716243
110	0x3dcdd1da	0.10049792
111	0x3bbb6fe0	0.0057201236
112	0xbd65f5f8	-0.056142777
113	0xbdeb2886	-0.114823386
114	0x3da8f2cc	0.08249435
115	0x3da77536	0.08176653
116	0x3daffc68	0.085930645
117	0xbd8b6000	-0.0680542
118	0xbd7cc2f4	-0.06170936
119	0xbd8b7b70	-0.06810653
120	0xbd8b04b0	-0.067880034
121	0x3d8665ba	0.065623716
122	0xbdcce1bc	-0.10003993
123	0x3d030640	0.031988382
124	0xbbbcb840	-0.005759269
125	0xbda4485c	-0.08021614
126	0xbdd1cf38	-0.10244602
127	0x3d4d8aa8	0.05018106
128	0xbdb6b7be	-0.08921765
129	0xbddd2db4	-0.10799733
130	0x3dc3ec16	0.09566514
131	0xbdda014a	-0.10644777
132	0xbb4ef4c0	-0.0031578988
133	0x3d9b499c	0.07582399
134	0x3d2acbfc	0.04169844
135	0x3de0803c	0.10961959
136	0x3d04f900	0.032464027
137	0xba1fc100	-0.0006094128
138	0xbdb26bf4	-0.08711997
139	0x3d5a9e44	0.05337359
140	0x3db1a464	0.08673933
141	0xbd8f967a	-0.07011123
142	0xbd9fcaac	-0.078023285
143	0x3d51e474	0.05124326
144	0xbd2be70c	-0.04196839
145	0xbd474814	-0.048652723
146	0xbdc9c77a	-0.098525
147	0xbd3a7308	-0.04551986
148	0x3d4bbf4c	0.04974298
149	0x3da5dfbc	0.080993146
150	0xbd774d38	-0.060376376
151	0x3db80f52	0.08987297
152	0x3d3b0904	0.045662895
153	0x3d9dc46c	0.0770348
154	0x3cba8ec8	0.022773162
155	0x3c925fb8	0.017867908
156	0x3c8cbb38	0.017179117
157	0xbd76039c	-0.060062036
158	0xbd8a5fee	-0.067565784
159	0x3dd20eea	0.10256751
160	0xbdc66ffe	-0.096893296
161	0x3ca38d78	0.019964918
162	0x3d2a58b4	0.0415885
163	0xbd607918	-0.054802984
164	0x3db12e94	0.08651462
165	0xbb64f740	-0.0034937412
166	0x3dc41258	0.09573811
167	0xbd9669ce	-0.073443994
168	0xba7edb00	-0.00097219646
169	0xbcf10410	-0.029420882
170	0xbdb02240	-0.08600283
171	0xbcf15b08	-0.029462352
172	0x3dfe3452	0.12412323
173	0x3d873e9c	0.06603739
174	0x3dc8c8de	0.098039374
175	0x3db5325a	0.088474944
176	0xbd0fc7b4	-0.03510256
177	0x3b846860	0.004040763
178	0x3dafd7e2	0.08586098
179	0xbdc37bb0	-0.09545076
180	0x3da86cbc	0.082238644
181	0xbdbcf2b4	-0.092259794
182	0x3c8b29c0	0.016987681
183	0x3d31c254	0.043398216
184	0xbd3c9d2c	-0.04604833
185	0xbd97f82c	-0.07420382
186	0xbd7db964	-0.06194438
187	0x3d91ffb4	0.071288496
188	0x3d2cc5a4	0.042180672
189	0xbdebe092	-0.11517443
190	0x3dcd589a	0.10026665
191	0xbcb0eed8	-0.021598265
192	0x3ca8dd78	0.020613417
193	0x3dad9c3a	0.084770635
194	0xbdab9800	-0.08378601
195	0x3d0b166c	0.03395693
196	0x3d1f7370	0.03892845
197	0x3cfaa960	0.030598342
198	0x3d9a954c	0.07548007
199	0x3d6fc17c	0.05853413
200	0x3d56dd4c	0.05245714
201	0xbd35cb44	-0.044383302
202	0x3d98e120	0.07464814
203	0xbc9fb6c0	-0.019496322
204	0x3d965510	0.07340443
205	0x3de09ba4	0.10967186
206	0x3d3a43c0	0.045474768
207	0xbd42a2b4	-0.047518447
208	0x3bd70760	0.0065621585
209	0x3c3ab020	0.011394531
210	0xbde04b50	-0.10951865
211	0xbcbbd0b8	-0.022926673
212	0x3cc12510	0.023577243
213	0xbd5438cc	-0.05181198
214	0xbd53dbdc	-0.051723346
215	0x3d5b54c0	0.05354762
216	0xbd95c716	-0.07313363
217	0x3ddd0ac0	0.10793066
218	0xbc819a60	-0.015820682
219	0x3d9f24e8	0.07770711
220	0xbdffb80a	-0.124862745
221	0x3dbb733a	0.09152837
222	0x3dd5625c	0.10419151
223	0x3d6863c8	0.056735784
224	0xbd18b52c	-0.037282154
225	0xbdfc3ad6	-0.123159096
226	0x3d3e7dec	0.046506807
227	0x3dd68a7a	0.10475631
228	0xbd8568a4	-0.06514099
229	0x3d30c318	0.043154806
230	0x3c03c350	0.008042172
231	0x3d9b2706	0.075758025
232	0x3d61e22c	0.055147335
233	0xbd741f60	-0.059600234
234	0xbd932622	-0.07185008
235	0x3d6f20d4	0.058380917
236	0xbdf1657a	-0.11786933
237	0xbd648d3c	-0.055798754
238	0x3d51f918	0.051262945
239	0x3d9e72f0	0.07736766
240	0x3d2716e0	0.0407933
241	0x3c9ce090	0.019150048
242	0xbc5ed910	-0.013601556
243	0x3d379028	0.044815212
244	0x3cdef7c0	0.027217746
245	0xbdef2e68	-0.11678773
246	0x3d086b2c	0.033305332
247	0x3c5c2160	0.013435692
248	0x3dc6e1b2	0.09711017
249	0x3dc0ed72	0.09420289
250	0xbdb12a54	-0.086506516
251	0xbdc01414	-0.093788296
252	0x3dde5b52	0.10857262
253	0xbdf0f9c8	-0.11766392
254	0xbdf96170	-0.12176788
255	0x3d5af204	0.05345346

nikkei_encoder.bias_ih_l0 f4 [256]
0	0x3d362a94	0.0444742
1	0xbd799804	-0.06093599
2	0x3c354b90	0.011065379
3	0xbc6ee590	-0.014581099
4	0x3c110500	0.00885129
5	0xbd874e6e	-0.06606756
6	0xbda91a90	-0.082570195
7	0xbda64d3c	-0.081202
8	0xbdc96c28	-0.09835082
9	0x3dc56ddc	0.09640095
10	0xbd0641fc	-0.03277777
11	0xbcf7c500	-0.030245304
12	0xbdd43636	-0.103619024
13	0xbcc09558	-0.023508713
14	0xbde3b478	-0.11118406
15	0xbc1e8850	-0.009676054
16	0x3a410500	0.0007363111
17	0x3dc54342	0.09631969
18	0x3d4505cc	0.04810123
19	0xbc980d70	-0.018561095
20	0xbd1673cc	-0.036731526
21	0xbd8ad27e	-0.067784294
22	0x3d964ef4	0.07339278
23	0xbce36fc0	-0.027763247
24	0xbd8e4482	-0.069466606
25	0x3d2ea260	0.04263532
26	0xbc5eb5b0	-0.013593122
27	0x3d0c7490	0.03429085
28	0xbd45c1c8	-0.048280507
29	0xbd22d008	-0.039749175
30	0x3dc2e434	0.095161825
31	0xbd4c0b04	-0.049815193
32	0x3d5e9a14	0.05434616
33	0xbd049a6c	-0.03237383
34	0xbd87d4a2	-0.06632353
35	0xbde1d0a8	-0.11026126
36	0x3d383b80	0.04497862
37	0x3de2f0e4	0.110811025
38	0xbcac8920	-0.02106148
39	0xb9faa400	-0.00047805905
40	0x3d667cb4	0.05627127
41	0xbd7e0098	-0.062012285
42	0xbd6afdb4	-0.057370856
43	0x3dd28050	0.1027838
44	0xbdb0f580	-0.086405754
45	0xbdaaa53c	-0.08332297
46	0xba2d2700	-0.0006605238
47	0x3c84b6e8	0.016200498
48	0x3d2b429c	0.04181157
49	0x3de911a8	0.11380321
50	0x3d090c00	0.03345871
51	0xbceeaf48	-0.029136315
52	0x3cc2a398	0.023759648
53	0xbc8f4a78	-0.017491564
54	0x3da817e2	0.0820768
55	0x3db68520	0.0891211
56	0xbdfdc58c	-0.12391195
57	0x3d55c35c	0.052188262
58	0xbdb0ec6a	-0.086388424
59	0x3dd5d39c	0.10440752
60	0xbdc6b2da	-0.09702082
61	0xbde5560e	-0.11198054
62	0x3dd23890	0.10264695
63	0x3d92a64e	0.07160626
64	0x3c59ab20	0.013285428
65	0x3cf303b8	0.02966486
66	0xbd3389e4	-0.043832675
67	0x3c62c1d0	0.013840154
68	0xbcaea2d0	-0.02131787
69	0x3d7335a4	0.059377328
70	0x3dd22f3a	0.10262914
71	0xbd25a6ac	-0.040442154
72	0x3dbd10a6	0.09231691
73	0xbde8740a	-0.11350258
74	0xbce286f8	-0.027652249
75	0xbc300480	-0.01074326
76	0x3ddaec68	0.10689622
77	0x3d270a14	0.040781096
78	0xbdbed73a	-0.09318395
79	0xbdc0832e	-0.094000205
80	0xbdfb0cf8	-0.12258333
81	0xbd22c9a0	-0.039743066
82	0x3de444fc	0.1114597
83	0xbda9cbb2	-0.08290805
84	0xbcad8838	-0.021183118
85	0xb91b3c00	-0.00014804304
86	0x3dd87182	0.10568525
87	0xbdf55d4a	-0.11980684
88	0xbdd1cb0c	-0.10243806
89	0xbd260bc8	-0.04053858
90	0xbc7c9f90	-0.015418902
91	0xbbbe03a0	-0.005798772
92	0xbdb4e122	-0.08832003
93	0x3d060d64	0.032727614
94	0xbde1935c	-0.11014435
95	0x3a3fbe00	0.0007314384
96	0x3db5e5ea	0.08881743
97	0x3d340904	0.04395391
98	0x3de50a52	0.11183609
99	0x3c424eb0	0.011859581
100	0xbd0b8968	-0.034066588
101	0x3dfd142e	0.123573646
102	0xbdc4f55e	-0.096171126
103	0xbc767bd0	-0.015044168
104	0xbd93da94	-0.07219425
105	0xbc32b700	-0.010907888
106	0x3d61a374	0.05508752
107	0xbdf66c40	-0.12032366
108	0x3dee1a60	0.116261244
109	0x3ce824d0	0.028337866
110	0x3ca664d8	0.020311758
111	0xbcac0820	-0.020999968
112	0xbdf00c58	-0.117211044
113	0x3c93ced8	0.018042967
114	0xbd586dd8	-0.05283913
115	0xbc89ffd0	-0.016845614
116	0x3dbf376a	0.09336741
117	0xbdb670da	-0.089082435
118	0x3d90a06c	0.07061848
119	0x3d305f7c	0.04305981
120	0xbda22ff6	-0.07919304
121	0x3d559d5c	0.052152023
122	0x3c992b78	0.018697485
123	0x3d8daca6	0.06917696
124	0x3d6ae814	0.057350233
125	0x3c148430	0.009064719
126	0x3c233c70	0.00996314
127	0x3d1b6818	0.03794107
128	0x3d49a8ec	0.049233362
129	0xbcf79ab0	-0.030225128
130	0x3db8a03a	0.09014936
131	0x3d8e2f38	0.069426
132	0x3d9a18ce	0.07524262
133	0xbdf0dc86	-0.117608115
134	0xbc481570	-0.012212142
135	0xbd3d6dcc	-0.04624729
136	0xbdbffb08	-0.09374052
137	0x3ba19360	0.0049308985
138	0xbd197b9c	-0.0374714
139	0xbc2f10e0	-0.010685176
140	0x3bb2ad40	0.005452782
141	0xbde17364	-0.11008337
142	0xbdc25fae	-0.09490906
143	0x3db611cc	0.08890113
144	0x3ddb8e8e	0.107205495
145	0x3d03f4c4	0.03221585
146	0x3cc109e0	0.02356428
147	0xbd3a7a04	-0.04552652
148	0xbdf75c2a	-0.12078126
149	0xbd819d06	-0.06328778
150	0x3d0e06cc	0.03467445
151	0x3dc1f562	0.09470631
152	0x3de96842	0.11396839
153	0x3d021dc0	0.031766653
154	0x3df143e8	0.1178053
155	0x3dc5aa9c	0.09651682
156	0xbdf35090	-0.118806005
157	0x3d82c648	0.063854754
158	0x3dba72f4	0.09103957
159	0x3dffbd2a	0.12487252
160	0xbd28c2bc	-0.04120134
161	0xbdaca816	-0.08430497
162	0xbde16c28	-0.11006957
163	0xbd8b0b2a	-0.06789239
164	0x3dd1411a	0.10217495
165	0x3d4faffc	0.05070494
166	0x3d65e128	0.05612293
167	0xbde8903e	-0.11355637
168	0xbb82cbe0	-0.003991589
169	0xbdebf716	-0.11521737
170	0x3d81469c	0.06312296
171	0xbd844858	-0.06459111
172	0xbd9d7426	-0.07688169
173	0x3d50c464	0.050968543
174	0x3cd43dd0	0.02590838
175	0x3d74e444	0.059788004
176	0x3ddf762a	0.1091121
177	0xbd184214	-0.037172392
178	0xbd03793c	-0.03209804
179	0xbcd7b968	-0.026333526
180	0x3c618300	0.013764143
181	0xbdc41be0	-0.09575629
182	0xbddeccc8	-0.10878903
183	0xbd227320	-0.039660573
184	0xbc63c620	-0.013902217
185	0x3da3a91e	0.07991241
186	0xbddb771c	-0.10716078
187	0x3af31c80	0.0018547922
188	0xb8e65800	-0.00010983646
189	0x3d291d2c	0.041287586
190	0x3de78306	0.113042876
191	0x3d5c567c	0.053793415
192	0xbd8ce0d2	-0.068788186
193	0xbd9c3708	-0.07627684
194	0xbda19bb4	-0.07891026
195	0x3c5f5ff0	0.013633713
196	0xbdf62808	-0.12019354
197	0x3ca08360	0.019593894
198	0x3c3b7fa0	0.011444002
199	0xbd9d698a	-0.076861456
200	0x3d3fe338	0.046847552
201	0x3cb9f0c0	0.022697806
202	0x3dfc63d6	0.1232373
203	0x3dcd753e	0.10032128
204	0xbdc47968	-0.09593469
205	0x3d209948	0.03920868
206	0x3d9d204e	0.07672177
207	0xbd09e758	-0.033667892
208	0x3c8fabe8	0.017538026
209	0xbce3ab40	-0.02779162
210	0x3dc9b4e8	0.09848958
211	0xbdf1ae9e	-0.11800884
212	0xbdaacc1c	-0.08339712
213	0xbd57d318	-0.05269155
214	0xbdce1a58	-0.100636184
215	0x3d4ad508	0.04951957
216	0x3dceb388	0.100928366
217	0x3d7a0a5c	0.061045036
218	0xbd0a3e18	-0.033750623
219	0xbd07e068	-0.033172995
220	0x3d4a9738	0.04946062
221	0xbc499b60	-0.012305111
222	0x3d5e5128	0.054276615
223	0xbc64a140	-0.013954461
224	0xbdd316b2	-0.10307063
225	0xbd860e22	-0.06545664
226	0x3c82fa88	0.015988603
227	0xbc8afae8	-0.016965345
228	0x3d8ce2b8	0.06879181
229	0xbd8999b2	-0.06718768
230	0xbd655e94	-0.0559984
231	0xbd82d5de	-0.06388448
232	0xbdddf952	-0.1083857
233	0x3dff0e26	0.124538705
234	0x3c81d148	0.015846863
235	0x3ddcb7a4	0.10777214
236	0x3d0f4998	0.034982294
237	0xbd11745c	-0.03551136
238	0x3bba0cc0	0.0056777894
239	0xbd5123f8	-0.051059693
240	0xbdea52d2	-0.11441578
241	0xbde0f3fe	-0.10984038
242	0xbdaa56d0	-0.083173394
243	0xbd13d3e8	-0.03609076
244	0xbc03c640	-0.008042872
245	0x3c4377a0	0.011930376
246	0x3ddfbada	0.10924311
247	0x3dd9dffe	0.10638426
248	0x3d4b2804	0.04959871
249	0x3da3a6ac	0.079907745
250	0xbdae2748	-0.08503586
251	0xbd7fe398	-0.06247291
252	0x3dca3bfc	0.09874722
253	0x3d20c3cc	0.039249226
254	0xbd3d3104	-0.046189323
255	0x3a2b1900	0.00065268576

nikkei_encoder.bias_hh_l0 f4 [256]
0	0xbdbb03e6	-0.09131603
1	0xbd1d3aa0	-0.038385987
2	0xbdfba2c4	-0.122869045
3	0x3dc3d038	0.09561199
4	0xbd8ae69a	-0.06782265
5	0xbdb404ac	-0.087899536
6	0xbdb8b260	-0.09018397
7	0xbd37d468	-0.0448803
8	0xbddc5b60	-0.10759616
9	0xbb240580	-0.0025027692
10	0xbd8506fe	-0.06495474
11	0x3cb09b10	0.021558315
12	0x3d9b761a	0.075908855
13	0x3d1d3bb8	0.03838703
14	0x3dd3918a	0.10330494
15	0x3d676394	0.05649145
16	0xbda64782	-0.08119108
17	0xbd9e33d4	-0.07724729
18	0xbd2a5db8	-0.041593283
19	0xbda2999a	-0.079394534
20	0x3d9925b6	0.07477896
21	0xbd468e24	-0.0484754
22	0x3d9523a6	0.0728219
23	0xbbe3da20	-0.0069534928
24	0xbdb72488	-0.08942515
25	0xbdad88f6	-0.08473389
26	0xbd0265bc	-0.031835303
27	0xbda0f928	-0.07860023
28	0x3daf782a	0.08567841
29	0xbd22907c	-0.039688572
30	0xbde92166	-0.11383323
31	0x3d1627e8	0.03665915
32	0x3de23a34	0.110462576
33	0xbd84716c	-0.06466946
34	0xbaa34c00	-0.0012458563
35	0x3c2bd6d0	0.010488227
36	0x3a8f3b00	0.0010927618
37	0xbda382de	-0.07983945
38	0x3cb71fe0	0.022354066
39	0x3d81f83c	0.06346175
40	0x3d5165bc	0.051122412
41	0x3dcebcd0	0.10094607
42	0x3cde7e30	0.02715978
43	0xbd562b08	-0.05228713
44	0x3dfd34a2	0.123635545
45	0xbd996c22	-0.07491328
46	0xbd1864ec	-0.03720562
47	0xbdc40570	-0.095713496
48	0xbda8ce86	-0.08242516
49	0xbd540348	-0.05176094
50	0xbd90cd18	-0.070703685
51	0xbdb6778c	-0.089095205
52	0xbb288ec0	-0.0025719851
53	0x3d9f15d2	0.07767834
54	0x3dca49e6	0.09877376
55	0x3d805cb6	0.06267683
56	0xbd4456bc	-0.04793428
57	0xbda4e7e2	-0.08052041
58	0xbd774778	-0.060370892
59	0xbd897764	-0.06712225
60	0x3bc1fc00	0.0059199333
61	0x3c0a7690	0.008451119
62	0x3d496cb4	0.049175933
63	0xbdb830da	-0.08993693
64	0x3df2b776	0.11851399
65	0x3d86b996	0.065783665
66	0xbde95302	-0.113927856
67	0xbd172414	-0.03689964
68	0xbcd8c520	-0.026461184
69	0xbdd94998	-0.1060974
70	0x3d15bc80	0.03655672
71	0x3d6d05a0	0.057866693
72	0x3d886aa4	0.06660965
73	0x3c9a0450	0.018800884
74	0xbd539f54	-0.05166562
75	0x3d6357a8	0.055503517
76	0x3d7aa5f4	0.06119342
77	0xbd5bbe7c	-0.053648457
78	0x3d2d4d3c	0.042309985
79	0xbdbd9482	-0.09256841
80	0x3df51b8e	0.11968146
81	0xbda83cc8	-0.08214718
82	0x3d753214	0.05986221
83	0x3d1ef20c	0.038805053
84	0xbdae2c16	-0.085045025
85	0xbd4f9804	-0.050682083
86	0xbd8d104c	-0.06887874
87	0x3d5a9130	0.053361118
88	0x3d31ff90	0.043456614
89	0x3cea0f18	0.02857165
90	0x3dbd8ba2	0.092551485
91	0xbded6ad4	-0.115926415
92	0xbbd5d100	-0.006525159
93	0xbdfd0276	-0.12353985
94	0xbc53fa20	-0.012938052
95	0x3c227230	0.00991492
96	0xbd34d810	-0.044151366
97	0xbc3a3a50	-0.011366442
98	0xbd2e385c	-0.042534217
99	0x3dbb872c	0.09156641
100	0x3d98c114	0.07458702
101	0xbdeb0438	-0.11475414
102	0x3d88d284	0.06680778
103	0x3d1f5f9c	0.03890954
104	0xbdfad570	-0.12247741
105	0xbcf3b1a8	-0.029747799
106	0xbdac8a26	-0.08424787
107	0xbd6ef744	-0.05834128
108	0xbde6f180	-0.11276531
109	0xbce556f8	-0.027995571
110	0xbdbec856	-0.09315555
111	0x3d664aa0	0.05622351
112	0xbdf642d6	-0.12024467
113	0x3d0771e8	0.033067614
114	0xbdc69742	-0.09696819
115	0xbda101b6	-0.078616545
116	0x3d221a64	0.03957595
117	0xbd8680f8	-0.065675676
118	0xbdf6e704	-0.120557815
119	0xbd571eac	-0.052519485
120	0xbc18ef70	-0.00933443
121	0x3d41f350	0.04735118
122	0x3db63068	0.088959515
123	0x3df066ae	0.117383346
124	0x3c81ca30	0.01584348
125	0xbdc0ac18	-0.09407824
126	0x3d971c64	0.07378462
127	0x3dbe5bf6	0.09294884
128	0xbdacb9f6	-0.08433907
129	0x3dfa651a	0.12226315
130	0xbd8f4512	-0.06995596
131	0xbda786e4	-0.08180025
132	0xbdd05232	-0.101719275
133	0xbde63d6e	-0.112421855
134	0x3cb641e0	0.022248209
135	0x3ddcfe8a	0.10790737
136	0xbcc27d78	-0.023741469
137	0x3d6a1484	0.05714847
138	0xbdc802bc	-0.097661465
139	0xbdea679c	-0.11445543
140	0xbc551100	-0.013004541
141	0x3db48476	0.088143274
142	0xbda19ada	-0.07890864
143	0x3c1bd3c0	0.009510934
144	0x3d693690	0.0569368
145	0xbdb18076	-0.0866708
146	0x3d5a4370	0.05328697
147	0xbddb94a4	-0.1072171
148	0x3d3f3644	0.04668261
149	0xbded6bce	-0.11592828
150	0x3dc5034a	0.09619768
151	0xbdbbc356	-0.09168117
152	0x3dd59462	0.104286924
153	0xbd83d9bc	-0.06438014
154	0x3cfcf858	0.030880138
155	0xbd13906c	-0.036026403
156	0xbdbae1b8	-0.09125084
157	0x3d0b5050	0.03401214
158	0xbd7fb558	-0.062428802
159	0x3df11d42	0.117731586
160	0xbc6559a0	-0.013998419
161	0x3cfc4430	0.030794233
162	0xbd1b6ac0	-0.0379436
163	0xbd67d4b0	-0.05659932
164	0xbce16088	-0.02751185
165	0x3dbef0d4	0.09323278
166	0x3d93ca7a	0.07216354
167	0xbdbc2f6e	-0.09188734
168	0xbdcda438	-0.10041088
169	0xbcdd77a8	-0.027034596
170	0x3d8b130a	0.06790741
171	0xbbd66f80	-0.0065440536
172	0xbc792a80	-0.015207887
173	0xbd298e48	-0.041395456
174	0x3dc80968	0.09767419
175	0xbd388b34	-0.04505463
176	0xbddecca8	-0.10878879
177	0x3de6733e	0.112524495
178	0x3dacd8ec	0.08439812
179	0x3da9d8a2	0.082932726
180	0xbdfab094	-0.12240711
181	0xbbd0d9e0	-0.006373629
182	0x3d8f2ba6	0.06990747
183	0xbd84c45a	-0.064827636
184	0x3dcf3804	0.10118106
185	0xbdd23bda	-0.10265322
186	0xbd9717a4	-0.07377556
187	0x3d8da5de	0.06916402
188	0xbdf7feea	-0.12109168
189	0x3db482d6	0.088140175
190	0x3da15f54	0.078795105
191	0xbd883a6c	-0.06651768
192	0xbcf6ced0	-0.030127913
193	0x3d8b5d42	0.06804897
194	0xbdd6a8a6	-0.10481386
195	0x3d3e78f4	0.04650207
196	0xbdf0a9f2	-0.117511645
197	0xbdc40210	-0.09570706
198	0xbda33306	-0.07968716
199	0x3c3e45d0	0.011613324
200	0x3dd3be9a	0.10339089
201	0x3d73e694	0.05954607
202	0x3debc038	0.11511272
203	0x3df73748	0.12071091
204	0x3d33961c	0.043844327
205	0x3d2101fc	0.039308533
206	0x3d2c952c	0.04213445
207	0x3cf940b8	0.030426368
208	0xbd9a3f64	-0.07531622
209	0xbd3f8300	-0.04675579
210	0xbcb79760	-0.022411048
211	0xbd5bdac0	-0.053675413
212	0x3d2df9bc	0.042474493
213	0xbdb2eaf8	-0.08736223
214	0xbde01e78	-0.109433115
215	0x3d04c50c	0.03241448
216	0xbd733d30	-0.059384525
217	0xbdfa0064	-0.12207106
218	0x3de6c34a	0.11267717
219	0xbd430ad4	-0.04761775
220	0x3c0d9f50	0.00864394
221	0xbda877ec	-0.08225998
222	0x3d1e9200	0.038713455
223	0x3dc5339c	0.09628984
224	0xbd97fd66	-0.07421379
225	0xbdb794c2	-0.0896392
226	0xbd72c278	-0.05926749
227	0xbcd277a0	-0.025691807
228	0xbc957248	-0.01824297
229	0xbdf6d2b2	-0.12051906
230	0x3d077430	0.03306979
231	0x3dfef972	0.12449922
232	0x3dfe5f5e	0.124205336
233	0x3ddc3cf0	0.107538104
234	0x3dbf12ba	0.09329744
235	0x3cb85da8	0.022505596
236	0xbba02f80	-0.004888475
237	0xbdf6a314	-0.120428234
238	0x3ce7ecb8	0.028311118
239	0x3c8a7c00	0.016904831
240	0xbdeed130	-0.11660993
241	0x3cb39bb8	0.021924838
242	0xbd0141b0	-0.031556785
243	0xbc89b1e8	-0.016808465
244	0xbd387b10	-0.045039237
245	0x3dae7b0a	0.085195616
246	0x3df4568e	0.119305715
247	0x3cf73608	0.030177131
248	0xbd6f3f38	-0.0584099
249	0x3c829d90	0.015944272
250	0xbcfeb500	-0.031092167
251	0xbde3378c	-0.11094579
252	0xbd416ce8	-0.047223
253	0x3d05849c	0.03259717
254	0xbd945e7c	-0.07244584
255	0x3cf72c80	0.030172586

nikkei_encoder.weight_ih_l1 f4 [256, 64]
0	0xbd3df01c	-0.046371564
1	0xbdaa0848	-0.08302361
2	0x3c640f50	0.013919666
3	0x3ce3cd30	0.027807802
4	0xbd4c8cfc	-0.04993914
5	0xbceb8ea8	-0.028754547
6	0xbcad1608	-0.02112867
7	0x3d3032e0	0.04301727
8	0x3da1725e	0.07883142
9	0x3dccf98c	0.10008535
10	0xbdd3fd20	-0.10351014
11	0x3dc23c10	0.09484112
12	0x3dc536fa	0.096296266
13	0xbd5af1ec	-0.05345337
14	0xbc8192c0	-0.015817046
15	0x3decda24	0.115650445
16	0x3bb2ef00	0.00546062
17	0xbd07b938	-0.033135623
18	0xbd0d640c	-0.03451924
19	0x3d1ea880	0.038734913
20	0x3dcd20e0	0.10016036
21	0x3d72ff1c	0.059325323
22	0x3c9db7e0	0.019252717
23	0x3d716244	0.058931604
24	0xbc585420	-0.013203651
25	0xbdc5ea40	-0.0966382
26	0x3d99458e	0.0748397
27	0x3d31114c	0.043229386
28	0xbd209a78	-0.039209813
29	0x3d33f7c0	0.043937445
30	0x3d434d64	0.047681227
31	0x3dced8a4	0.10099915
32	0xbd08c76c	-0.03339331
33	0xbd99960a	-0.07499321
34	0xbda57036	-0.08078043
35	0xbdc61c1a	-0.09673329
36	0xbc9068d0	-0.017628103
37	0x3d1da2f8	0.038485497
38	0x3dd7ecb2	0.10543193
39	0x3db434fa	0.08799167
40	0x3de3e76c	0.111281246
41	0xbdcf6d46	-0.10128264
42	0xbce6a1d8	-0.028153345
43	0xbdb01d92	-0.0859939
44	0xbd770d84	-0.060315624
45	0x3dd0eddc	0.10201618
46	0xbc87bcd8	-0.01656954
47	0x3d8ae1da	0.06781359
48	0x3cd2b340	0.025720239
49	0xbd88f8c4	-0.06688073
50	0xbc9f48d0	-0.0194439
51	0x3dac46f2	0.08411969
52	0x3d8c8a44	0.068623096
53	0x3ce3b630	0.027796835
54	0x3c896d20	0.016775668
55	0x3d277d48	0.040890962
56	0xbd27087c	-0.040779576
57	0x3dc85ae4	0.09782961
58	0xbd7a7500	-0.061146736
59	0x3c30c7d0	0.0107898265
60	0xbd1defe4	-0.038558856
61	0xbb7ed280	-0.0038882792
62	0xbdfcf2dc	-0.12351009
63	0xbc89dc48	-0.016828671
64	0xbdea2c54	-0.11434236
65	0x3dc3753e	0.095438465
66	0xbdd87646	-0.10569434
67	0xbd1dcf64	-0.03852786
68	0xbd84e1f6	-0.06488411
69	0xbd43d568	-0.047810942
70	0x3def53ae	0.116858825
71	0xbda911ea	-0.0825537
72	0xbdb13c3e	-0.086540684
73	0x3ce2e078	0.027694926
74	0xbd0e6be4	-0.03477086
75	0x3d61bd18	0.055111974
76	0xbd36dbf8	-0.044643372
77	0xbd8a1bf8	-0.06743616
78	0xbd8c1694	-0.06840244
79	0x3b943e60	0.0045240372
80	0xbd9358a0	-0.07194638
81	0x3de71ee6	0.1128519
82	0x3d33297c	0.043740734
83	0xbc845018	-0.016151473
84	0x3dcd364e	0.100201234
85	0x3dae4760	0.085097075
86	0xbdfd9190	-0.123812795
87	0x3c597770	0.013273105
88	0xbdc53728	-0.09629661
89	0xbde3249c	-0.11090967
90	0x3dcad264	0.0990341
91	0x3cb19e78	0.02168201
92	0xbd66ff88	-0.056396037
93	0xbd8b9c84	-0.06816962
94	0xbd3144d0	-0.043278515
95	0x3d9ccdf6	0.076564714
96	0xbcb03b98	-0.021512792
97	0xbdf42518	-0.119211376
98	0xbd0183ec	-0.03161995
99	0x3df6f5d6	0.12058608
100	0xbbfe1220	-0.0077536255
101	0x3de04cc8	0.10952145
102	0x3cc14a30	0.023594946
103	0xbce05df8	-0.027388558
104	0xbd3780c0	-0.04480052
105	0x3dad5dac	0.08465132
106	0xbdcf694c	-0.10127506
107	0xbc6cc8b0	-0.0144521445
108	0xbaac0880	-0.0013125092
109	0x3df8d934	0.12150803
110	0xbd388c04	-0.045055404
111	0x3db19528	0.086710274
112	0x3b7a7680	0.0038217604
113	0x3d33c2f8	0.04388711
114	0x3de17eac	0.11010489
115	0x3d6b6674	0.057470754
116	0x3d8f402e	0.06994663
117	0xbd3d22ac	-0.046175644
118	0x3d183c5c	0.03716694
119	0xbd7efa84	-0.06225063
120	0x3d4371d4	0.047715977
121	0x3d5412c8	0.051775724
122	0xbded406c	-0.11584553
123	0xbcaf79f8	-0.021420464
124	0xbdddedf4	-0.108364016
125	0x3dac8a66	0.08424835
126	0x3c8a0920	0.016850054
127	0x3df75ec0	0.12078619
128	0xbbb93720	-0.0056523234
129	0xbd761250	-0.060076058
130	0xbd7b0d78	-0.06129214
131	0x3ba3afe0	0.004995331
132	0x3d97afa8	0.07406551
133	0xbdf666fa	-0.1203136
134	0xbd191114	-0.037369803
135	0xbd6f69a4	-0.058450356
136	0xbd7acc0c	-0.06122975
137	0xbd72b558	-0.059254974
138	0xbc9a8358	-0.018861458
139	0x3cf49b10	0.029859096
140	0xbdcbd5b0	-0.09952867
141	0x3df5c1e4	0.11999872
142	0xbbc8c0a0	-0.0061264783
143	0x3d47ebf0	0.048808992
144	0xbdb928fa	-0.09041019
145	0xbcc11f98	-0.023574635
146	0x3d0a86c4	0.03381993
147	0xbd8b3fec	-0.067993015
148	0x3deed1a0	0.116610765
149	0xbdfbb7c0	-0.12290907
150	0xbd5561e4	-0.05209531
151	0x3cb03b90	0.021512777
152	0x3d446018	0.047943205
153	0x3c54bc00	0.012984276
154	0xbdd179e0	-0.10228324
155	0xbc3ccbe0	-0.011523217
156	0xbdb8356c	-0.089945644
157	0xbd4b6098	-0.049652666
158	0x3d15bd88	0.036557704
159	0xbbbf59c0	-0.0058395565
160	0xbdbb80fe	-0.09155463
161	0x3d789eb0	0.06069821
162	0xbb6afac0	-0.0035855025
163	0xbddfcd60	-0.10927844
164	0x3d34ee9c	0.044172868
165	0xbd40a99c	-0.047036752
166	0xbdddd6fe	-0.10832022
167	0x3d865396	0.065589115
168	0x3d05ad28	0.032635838
169	0x3de4dd04	0.11174968
170	0x3ddcc66e	0.10780035
171	0x3de15b02	0.110036865
172	0xbd59a950	-0.053139985
173	0xbc28cdb0	-0.010302946
174	0xbdbf9f90	-0.09356606
175	0x3da8ac22	0.08235957
176	0x3db91a86	0.09038262
177	0xbc9b9668	-0.018992618
178	0x3ce81d40	0.02833426
179	0x3d4a89c0	0.049447775
180	0xbc0eb560	-0.008710235
181	0xbd6cb3d0	-0.05778867
182	0x3dab38fc	0.08360478
183	0x3daad444	0.08341268
184	0x3ba36200	0.0049860477
185	0x3c21ef90	0.009883776
186	0xbdc4ee12	-0.09615721
187	0xbd13c390	-0.036075175
188	0x3cd7f1b0	0.026360363
189	0xbddd4d70	-0.10805786
190	0xbdbc6c72	-0.09200372
191	0xbdce8fda	-0.10086031
192	0x3ce5cc40	0.028051496
193	0xbded0f3a	-0.1157517
194	0x3de3ed2a	0.1112922
195	0x3d82ec82	0.063927665
196	0xbd63099c	-0.055429086
197	0x3db96e62	0.09054257
198	0xbded320c	-0.11581811
199	0xbdb7a8da	-0.08967753
200	0x3da3c23e	0.07996033
201	0xbd482398	-0.04886207
202	0xbd7434fc	-0.059620842
203	0xbdcd7e28	-0.10033828
204	0xbd9a86d2	-0.07545246
205	0xbb6928c0	-0.0035577267
206	0x3cec6688	0.028857484
207	0x3dff9908	0.1248036
208	0x3d21e020	0.039520383
209	0x3db15dd8	0.086604774
210	0xbbed8d20	-0.0072494894
211	0x3d3fec40	0.046856165
212	0x3dad3074	0.08456507
213	0xbdc821f2	-0.097720996
214	0xbddc2c9a	-0.107506946
215	0x3ca57a80	0.020200014
216	0x3dd713ca	0.10501821
217	0xbd6016a0	-0.054709077
218	0x3d7af5e4	0.061269656
219	0xbdfdb7a8	-0.12388545
220	0x3dcc9030	0.09988439
221	0x3df174a0	0.117898226
222	0xbcbcfe80	-0.023070574
223	0xbc137950	-0.009001091
224	0xbdfe3d4e	-0.12414037
225	0x3d3c1620	0.045919538
226	0x3c881aa0	0.016614258
227	0xbc512870	-0.012765989
228	0x3d89a014	0.067199856
229	0xbbdbeac0	-0.006711334
230	0xbd4289e0	-0.04749477
231	0xbdcee99a	-0.1010315
232	0xbd27be94	-0.040953234
233	0xbbc44040	-0.0059891045
234	0x3be47c60	0.0069728345
235	0x3db04662	0.086071745
236	0x3cd4c948	0.025974885
237	0x3dbbb632	0.091656104
238	0x3d894d3e	0.06704186
239	0xbcb69818	-0.02228932
240	0xbde49e66	-0.111630246
241	0xbd468890	-0.04847008
242	0x3d0db160	0.034592986
243	0xbbc9a380	-0.006153524
244	0xbd235964	-0.03988017
245	0xbcbc91b0	-0.023018688
246	0x3d4f67a4	0.05063595
247	0x3dccafc6	0.099944636
248	0xbda02392	-0.078192845
249	0x3d8c33dc	0.06845829
250	0xbcd28480	-0.025697947
251	0x3dbeb372	0.0931157
252	0xbd93ebf6	-0.0722274
253	0x3d4b11bc	0.04957746
254	0x3db455de	0.0880544
255	0x3d47abb0	0.04874772

nikkei_encoder.weight_hh_l1 f4 [256, 64]
0	0x3d7c6338	0.06161806
1	0x3b6e0880	0.0036320984
2	0x3dca7adc	0.09886715
3	0xbd3aaf04	-0.045577064
4	0xbd8db18e	-0.069186315
5	0x3da07712	0.07835211
6	0xbc392ec0	-0.01130265
7	0x3d1d7d08	0.038449317
8	0xbd4f846c	-0.050663397
9	0xbca5d0c0	-0.020241141
10	0x3db8d1b0	0.0902437
11	0x3cd18458	0.025575802
12	0x3d16c97c	0.036813244
13	0xbdd1d206	-0.10245137
14	0xbd86b29e	-0.06577037
15	0x3d98b174	0.074557215
16	0xbd28d52c	-0.04121892
17	0x3d5a6af0	0.05332464
18	0x3d7ca004	0.06167604
19	0x3dfd371c	0.12364027
20	0xbd8005ce	-0.06251107
21	0xbd494e8c	-0.049147174
22	0xbddb41ae	-0.10705887
23	0xbdfed8ae	-0.12443672
24	0x3dd1f164	0.1025112
25	0x3d438a1c	0.047739133
26	0xbd4beda0	-0.049787164
27	0xbd91809e	-0.0710461
28	0xbdf2fb10	-0.118642926
29	0xbdc58f48	-0.09646469
30	0xbd290ff4	-0.04127498
31	0x3d5a02cc	0.053225324
32	0x3aff0000	0.0019454956
33	0x3dff5048	0.12466484
34	0x3cd35ef0	0.025802106
35	0xbd3e5804	-0.046470657
36	0x3ca73c80	0.02041459
37	0x3d583318	0.0527831
38	0xbd8275e8	-0.06370145
39	0x3dd68868	0.10475236
40	0xbd189174	-0.03724809
41	0xbd5b5938	-0.053551883
42	0xbd23cca0	-0.039990067
43	0xbc106a20	-0.008814365
44	0xbde95b52	-0.11394371
45	0x3df30cca	0.11867674
46	0xbdac0d8c	-0.08401021
47	0x3da00e5a	0.07815237
48	0xb9a31800	-0.00031107664
49	0x3d392fec	0.045211717
50	0xbd415cdc	-0.0472077
51	0xbdb3bb76	-0.0877599
52	0xbdc7478c	-0.09730443
53	0xbdfdf71a	-0.124006465
54	0x3dda7266	0.10666351
55	0xbdf7cc7e	-0.12099551
56	0x3d6e5158	0.058183044
57	0x3dfcf1e8	0.123508275
58	0xbb9e7800	-0.0048360825
59	0x3d84cab2	0.064839736
60	0x3def479c	0.1168358
61	0x3deff85c	0.11717293
62	0xbd9dc6a4	-0.07703903
63	0x3dfe0e4c	0.12405071
64	0xbdda7a20	-0.10667825
65	0xbde193e6	-0.110145375
66	0x3dc5c0d0	0.09655917
67	0xbcde7bf8	-0.027158722
68	0xbd5fc9e4	-0.054635897
69	0x3d1bf160	0.03807199
70	0xbde6598e	-0.1124755
71	0x3db34a7e	0.08754443
72	0x3d5c9b3c	0.05385898
73	0xbcf30df8	-0.029669747
74	0xbd7e6ea8	-0.06211725
75	0x3d289ee8	0.04116717
76	0xbdf977d8	-0.121810615
77	0x3cecb3a0	0.028894246
78	0xbd29ba58	-0.041437477
79	0xbdb71e50	-0.089413285
80	0xbc70bf40	-0.014694035
81	0xbd5104d8	-0.05103001
82	0xbd061724	-0.032736912
83	0xbd4d3108	-0.050095588
84	0xbdb02eae	-0.086026534
85	0x3b8f2a20	0.0043690354
86	0xbdf3544e	-0.11881314
87	0xbd2e4990	-0.042550623
88	0x3dde36e4	0.10850313
89	0xbdf2f984	-0.118639976
90	0xbdf2514a	-0.11831911
91	0xbb332600	-0.0027335882
92	0x3db3aa46	0.087727115
93	0x3dc2e238	0.09515804
94	0xbda32904	-0.079668075
95	0x3d64c38c	0.05585055
96	0x3df51fea	0.11968978
97	0x3ca8a218	0.020585105
98	0xbb308580	-0.002693504
99	0xbdf813f0	-0.12113178
100	0x3dc402e8	0.09570867
101	0xbdd1e000	-0.10247803
102	0x3d843c68	0.06456834
103	0x3de4a0b2	0.11163463
104	0xbd4587ec	-0.04822533
105	0xbdef0bbc	-0.1167216
106	0xbcf620c0	-0.030044913
107	0x3d9032d2	0.07040943
108	0xbb1c9d00	-0.002389729
109	0x3c0b8580	0.008515716
110	0xbdc33540	-0.09531641
111	0x3d38a4e8	0.04507914
112	0xbdcee93e	-0.10103081
113	0xbc5a20e0	-0.013313502
114	0xbce1af38	-0.027549371
115	0xbd301ae8	-0.04299441
116	0xbdd04e84	-0.10171226
117	0xbde91d18	-0.11382502
118	0xbd878ae6	-0.0661829
119	0x3df80e40	0.12112093
120	0xbd5be85c	-0.053688392
121	0x3dbbc36c	0.09168133
122	0xbde687a2	-0.11256339
123	0x3cd58b08	0.026067272
124	0x3d1f6c00	0.038921356
125	0xbb195680	-0.0023397505
126	0xbdb66796	-0.08906476
127	0xbdebb064	-0.11508253
128	0xbd7e4468	-0.062076956
129	0xbdf21080	-0.118195534
130	0x3c465f30	0.012107655
131	0x3d1cbaf8	0.038264245
132	0x3da39c06	0.079887435
133	0xbdfa58b4	-0.1222395
134	0x3d65f8a8	0.05614534
135	0x3cf6fb50	0.030149132
136	0x3daab636	0.08335535
137	0x3d179a7c	0.037012562
138	0xbcb80fe0	-0.022468507
139	0xbb9efc60	-0.004851863
140	0xbd6853cc	-0.05672054
141	0x3d668b04	0.05628492
142	0x3d622dc4	0.055219427
143	0xbd6bb8f0	-0.057549417
144	0x3d457640	0.048208475
145	0xbd92a8c4	-0.07161096
146	0x3d6fceac	0.058546707
147	0x3c2ab5b0	0.010419294
148	0x3d9c561e	0.07633613
149	0x3d2a25bc	0.041539893
150	0x3d9d2b8a	0.0767432
151	0x3bac8c20	0.0052657276
152	0x3d16551c	0.03670226
153	0xbdee54bc	-0.116372555
154	0x3db272c6	0.087132975
155	0x3d1fda1c	0.039026365
156	0x3c9fd6a8	0.019511536
157	0x3befc760	0.0073174685
158	0x3d90a4c6	0.07062678
159	0xbcc1fe08	-0.023680702
160	0x3d5e3010	0.054245055
161	0xbbf4aca0	-0.0074668676
162	0x3ced28d0	0.028950125
163	0xbddbb044	-0.107269794
164	0x3de2c87a	0.11073394
165	0xbd1b3c54	-0.03789933
166	0x3dfe490e	0.12416278
167	0xbcc398e8	-0.023876622
168	0xbc5aab50	-0.013346508
169	0xbdcb4c76	-0.09926693
170	0xbdf6c000	-0.1204834
171	0x3dfd4228	0.12366134
172	0x3abe9480	0.0014540106
173	0xbd37002c	-0.0446779
174	0x3c9b9650	0.018992573
175	0xbdb70fbc	-0.08938548
176	0xbd51e118	-0.051240057
177	0xbccaa308	-0.024735942
178	0x3cafe548	0.021471635
179	0xbd2fe938	-0.042947024
180	0x3dc4a79e	0.09602283
181	0x3d662f48	0.056197435
182	0x3dad4fe0	0.084625006
183	0x3da30e64	0.07961729
184	0xbdd7eadc	-0.10542843
185	0x3de2a566	0.110667035
186	0x3d86e898	0.065873325
187	0x3dfcafc6	0.123382136
188	0x3cceaf90	0.0252302
189	0xbb9e1aa0	-0.0048249513
190	0xbce87c38	-0.028379545
191	0xbd8e985c	-0.06962654
192	0xbc8bde10	-0.017073661
193	0xbdf5aad8	-0.119954765
194	0x3c8abb18	0.016934916
195	0xbc1831c0	-0.009289205
196	0xbd2c0084	-0.04199268
197	0x3d10e94c	0.03537874
198	0x3d2f92a0	0.042864442
199	0xbcb21238	-0.021737203
200	0xbdf77e2a	-0.12084611
201	0xbd18786c	-0.03722422
202	0xbdea381e	-0.11436485
203	0xbdd54f4c	-0.10415515
204	0xbd03f7e8	-0.032218844
205	0xbd9a8d4a	-0.0754648
206	0x3def25f0	0.11677158
207	0x3dce85b8	0.100840986
208	0x3dbb0f6c	0.09133801
209	0x3dffbf70	0.12487686
210	0x3d8c88bc	0.068620175
211	0x3ccd55c8	0.025065318
212	0xbb59a6c0	-0.0033210963
213	0x3dbc19da	0.09184618
214	0xbdd27286	-0.1027575
215	0x3d5d508c	0.054031894
216	0xbca123c0	-0.019670367
217	0x3c4f4000	0.012649536
218	0x3d9c9d94	0.07647243
219	0x3d126ca4	0.03574814
220	0xbd3aac34	-0.045574382
221	0xbd613cc0	-0.054989576
222	0x3d769860	0.06020391
223	0xbd94d3b6	-0.07266943
224	0x3b0458c0	0.00201945
225	0xbdb15bf0	-0.08660114
226	0xbdc4c222	-0.096073404
227	0x3d11f198	0.035630792
228	0xbdab7d68	-0.08373529
229	0x3c080800	0.008302689
230	0xbddd9cac	-0.108208984
231	0xbde212ce	-0.11038743
232	0x3d9fe48c	0.07807264
233	0xbdfca2de	-0.12335752
234	0xbc4eba60	-0.012617677
235	0xbd83000a	-0.06396492
236	0xbb735380	-0.0037128627
237	0x3d3139b8	0.043267936
238	0x3d51c4bc	0.05121301
239	0x3ddf733a	0.109106496
240	0x3dba94b6	0.091103956
241	0x3db8c7dc	0.09022495
242	0x3d060120	0.032715917
243	0x3d64b540	0.055836916
244	0x3dc49d80	0.09600353
245	0x3dccc2ce	0.099980935
246	0x3cab3fd8	0.020904467
247	0x3d46f3a8	0.048572212
248	0xbde4e478	-0.111763895
249	0x3d92efbc	0.07174632
250	0xbd27cfb8	-0.04096958
251	0x3db3413e	0.08752678
252	0x3d8afa78	0.067860544
253	0x3dab546c	0.083657116
254	0xbcb0b280	-0.02156949
255	0xbdbc4232	-0.09192313

nikkei_encoder.bias_ih_l1 f4 [256]
0	0x3d8607ae	0.065444335
1	0xbcc39800	-0.02387619
2	0x3d9e9bda	0.0774457
3	0xbd91d0c4	-0.07119897
4	0xbd6b395c	-0.05742775
5	0xbc3c21e0	-0.011482686
6	0x3d339648	0.04384449
7	0xbcc12918	-0.023579165
8	0xbdaa8698	-0.08326453
9	0x3d98ab28	0.074545205
10	0xbda9e5e4	-0.08295801
11	0xbd9e3a84	-0.07726005
12	0x3da7accc	0.08187255
13	0x3ddf1184	0.10892013
14	0xbd106b60	-0.03525865
15	0x3da61936	0.08110277
16	0xbdc40e24	-0.095730096
17	0x3ceae2d8	0.02867262
18	0x3d43065c	0.047613487
19	0x3da20462	0.07910992
20	0x3da24b96	0.07924573
21	0xbb46aa00	-0.003031373
22	0x3d8bf71e	0.06834243
23	0xb8463000	-4.7251582e-05
24	0xbddb2b44	-0.10701612
25	0x3dfa7768	0.12229806
26	0xbd12dfb0	-0.035857856
27	0x3def5bf8	0.116874635
28	0x3ddddcd8	0.10833138
29	0xbd49564c	-0.049154565
30	0x3d442e34	0.047895625
31	0xba81fa80	-0.0009916574
32	0xbd60181c	-0.054710492
33	0x3d542dbc	0.05180143
34	0x3d0ed380	0.03486967
35	0x3de92a4a	0.11385019
36	0xbdc0e440	-0.09418535
37	0xbdfd8752	-0.12379326
38	0xbde05a56	-0.1095473
39	0x3ddb6adc	0.10713741
40	0xbc7bf270	-0.015377626
41	0x3dfd4a88	0.12367731
42	0xbdd7d442	-0.10538532
43	0xbda0bcb4	-0.07848492
44	0x3dd4313c	0.10360953
45	0xbddb41ba	-0.10705896
46	0x3d669ee0	0.05630386
47	0x3d90a722	0.07063128
48	0xbdd344d6	-0.10315864
49	0x3ddabf42	0.10681011
50	0x3cc45838	0.023967847
51	0x3d9f0268	0.07764131
52	0xbd971c7c	-0.0737848
53	0xbda8999e	-0.08232425
54	0x3d742d04	0.059613243
55	0xbd77cd88	-0.060498744
56	0xbdabb32a	-0.08383782
57	0x3ce2b0e8	0.027672246
58	0x3c837ef8	0.016051754
59	0xbdf8f3d2	-0.1215588
60	0xbb606dc0	-0.0034245104
61	0x3df06a46	0.1173902
62	0xbd2c9b20	-0.042140126
63	0xbde2ee8e	-0.11080657
64	0x3bffaaa0	0.0078023225
65	0x3bf34d40	0.0074249804
66	0x3dd131a8	0.10214549
67	0x3d7dafac	0.061935112
68	0x3d61e4f0	0.055149972
69	0xbdf8b076	-0.12143032
70	0x3d92218a	0.07135303
71	0x3d783424	0.0605966
72	0xbd865102	-0.0655842
73	0xbd71b2f4	-0.059008554
74	0xbd92c1d8	-0.07165879
75	0x3d702b10	0.058634818
76	0x3c00eda0	0.007869154
77	0x3d343548	0.043996125
78	0x3d1abf98	0.037780374
79	0x3df88bd8	0.12136048
80	0x3dc382fc	0.09546468
81	0x3d1e9c04	0.038723007
82	0xbdf6c3aa	-0.12049039
83	0xbc014890	-0.007890835
84	0xbd87a67a	-0.0662355
85	0xbcdfb928	-0.027309969
86	0xbde5abd6	-0.11214416
87	0x3d3fff1c	0.04687415
88	0x3d29a7d4	0.04141982
89	0x3bef7780	0.0073079467
90	0x3de744e0	0.11292434
91	0x3d39cb58	0.04535994
92	0xbc65d900	-0.014028788
93	0xbd27f2ac	-0.041002914
94	0xbcc56830	-0.024097532
95	0x3dccf312	0.100072995
96	0xbdd786a4	-0.105237275
97	0x3d266da4	0.040631905
98	0xbdec4824	-0.11537197
99	0xbdf9edb6	-0.12203543
100	0x3cb21d98	0.021742627
101	0xbddc0216	-0.10742585
102	0x3ceeab98	0.029134557
103	0x3df765e6	0.120799825
104	0xbdf34b68	-0.11879617
105	0xbb29a240	-0.0025884062
106	0xbcb74b20	-0.02237469
107	0x3c510ff0	0.012760147
108	0x3c81eff0	0.015861481
109	0xbdade314	-0.08490577
110	0xbd01a5b0	-0.031652153
111	0x3cc82728	0.024432734
112	0x3c67fca0	0.014159352
113	0x3d7f9948	0.06240204
114	0x3cb81ba0	0.02247411
115	0x3ca344f8	0.019930348
116	0x3d74e6ac	0.0597903
117	0xbdbb3d3c	-0.09142539
118	0xbdb3c06e	-0.087769374
119	0xbd27e030	-0.040985286
120	0x3d9161c2	0.07098724
121	0xbd2d4d64	-0.042310134
122	0x3ddfc932	0.10927047
123	0x3d7948d0	0.060860455
124	0xbd68eb48	-0.056865007
125	0x3d3236d0	0.043509305
126	0xba44f300	-0.00075130165
127	0x3d984b24	0.07436207
128	0xbc2eebc0	-0.010676324
129	0xbc57aba0	-0.013163477
130	0x3c597f70	0.013275012
131	0x3d11c4bc	0.03558801
132	0xbd725148	-0.059159547
133	0x3d7ea20c	0.06216626
134	0x3d04be48	0.03240803
135	0xbd8e7368	-0.06955606
136	0x3dce3f48	0.10070664
137	0x3d9e0c7a	0.077172235
138	0xbd31925c	-0.04335247
139	0x3d726ba4	0.059184685
140	0x3deb53d2	0.11490597
141	0x3db50664	0.088391095
142	0xbbbdac00	-0.0057883263
143	0xbda08df8	-0.078395784
144	0xbbdcd420	-0.0067391545
145	0x3df4600e	0.119323835
146	0x3c11e210	0.008903995
147	0xbd03c5e4	-0.032171145
148	0x3cc1cb78	0.023656592
149	0xbda2a1e8	-0.079410374
150	0xbd942196	-0.072329685
151	0x3df8d38e	0.12149726
152	0x3c5ec720	0.01359728
153	0xbdf52e06	-0.11971669
154	0xbdd683a4	-0.10474327
155	0x3d6f965c	0.058493003
156	0xbde235de	-0.110454306
157	0xb990ea00	-0.00027640164
158	0xbc81c3d0	-0.015840441
159	0xbcbb5cb8	-0.02287136
160	0x3d389c98	0.045071214
161	0x3dc84986	0.097796485
162	0x3d923fec	0.071410984
163	0xbd0169e8	-0.03159514
164	0x3cbd0770	0.023074836
165	0xbd0b389c	-0.033989534
166	0xbddd3018	-0.10800189
167	0x3ddb46ec	0.10706887
168	0xbd8bcd2c	-0.06826243
169	0x3d5680e0	0.052369
170	0xbd4544b4	-0.048161224
171	0x3cc7efd8	0.024406359
172	0x3d543b74	0.05181451
173	0xbcc5aa38	-0.024129018
174	0x3d871a70	0.065968394
175	0x3d7cb874	0.061699346
176	0xbde0935a	-0.10965605
177	0xbadbfb80	-0.0016783327
178	0xbc7549e0	-0.014971226
179	0xbd133598	-0.035939783
180	0x3c8a2dd0	0.016867548
181	0x3dc54c5c	0.09633705
182	0xbd5c3f8c	-0.05377154
183	0x3c4258e0	0.01186201
184	0x3d6a359c	0.057180032
185	0xbdbc0b40	-0.09181833
186	0xbd682e28	-0.056684643
187	0xbc3729c0	-0.011179388
188	0xbb7ca8c0	-0.0038552731
189	0xbdf1a190	-0.11798394
190	0x3daa56c2	0.08317329
191	0xbd33db9c	-0.043910608
192	0x3d7a90ac	0.061173126
193	0xbd935952	-0.07194771
194	0x3d670458	0.056400627
195	0x3d1d1b6c	0.03835623
196	0x3c189430	0.009312674
197	0x3dc8fb52	0.098135605
198	0xbde9f13c	-0.11422965
199	0x3d0d57e4	0.034507647
200	0x3d005b58	0.031337112
201	0x3dab9bc0	0.08379316
202	0xbcb5cf60	-0.02219361
203	0x3c9b6738	0.018970117
204	0x3d3890b0	0.04505986
205	0xbda0b718	-0.07847422
206	0xbc92bae8	-0.01791139
207	0xbcd34640	-0.025790334
208	0xbd102bb8	-0.035197943
209	0xbda8d73e	-0.08244179
210	0xbdb2d50a	-0.0873204
211	0xbcc207a0	-0.023685277
212	0x3ddb26de	0.10700773
213	0xbdceb86a	-0.10093768
214	0xbdaaab4c	-0.083334535
215	0xbdeb42a4	-0.1148732
216	0x3b5c8440	0.0033648163
217	0xbdbaf404	-0.091285735
218	0xbd82609e	-0.063660845
219	0x3d194374	0.037417844
220	0x3dbd185c	0.09233162
221	0xbcfaac80	-0.030599833
222	0xbd8c85d0	-0.0686146
223	0x3dc60220	0.09668374
224	0xbdc47bc0	-0.09593916
225	0xbdc6faf8	-0.09715837
226	0xbde76742	-0.11298992
227	0x3db32576	0.087473795
228	0xbc2c1080	-0.010501981
229	0x3d384228	0.044984967
230	0x3d7cb3cc	0.061694905
231	0x3dadc236	0.084843084
232	0x3d6ff9b8	0.05858776
233	0x3c2b8c90	0.010470524
234	0x3c949b68	0.01814051
235	0x3c29d5d0	0.010365918
236	0x3dcac2ba	0.099004224
237	0xbd3bec84	-0.045879856
238	0x3c92f518	0.017939135
239	0xbd357f58	-0.044310898
240	0xbded5ad2	-0.11589588
241	0x3c9772a8	0.01848729
242	0xbc8fbd78	-0.0175464
243	0xbd1a233c	-0.03763126
244	0xbdeb3a78	-0.114857614
245	0xbda55546	-0.08072905
246	0x3d83d670	0.06437385
247	0x3d8dceae	0.06924187
248	0xbdc9f7f4	-0.098617464
249	0x3ce420d0	0.027847677
250	0x3bd05e00	0.006358862
251	0x3dfc8778	0.12330526
252	0x3d6ed2d4	0.05830653
253	0xbdc2c6d0	-0.09510577
254	0xbd85f394	-0.065405995
255	0xbdba9f2e	-0.09112392
