train/models/best_risk_model.pth (torch, 6197 bytes, 5 tensors)

layer1.weight f4 [32, 6]
0	0x3dba242c	0.090889305
1	0xbdf8c971	-0.12147797
2	0xbd3a2f0a	-0.045455016
3	0xbe7b289f	-0.24527214
4	0xbd9649e8	-0.07338315
5	0x3e11443e	0.14186189
6	0x3eb633a0	0.35586262
7	0x3ccce289	0.025010364
8	0x3df1dafb	0.11809345
9	0xbe9a308f	-0.30115172
10	0x3e901d00	0.28147125
11	0xbea1b464	-0.3158294
12	0xbe1f6267	-0.15564881
13	0x3eb4bd71	0.35300782
14	0x3e9c71d7	0.30555603
15	0xbd076d50	-0.033063233
16	0x3ec151ec	0.37757814
17	0x3d604c95	0.054760534
18	0xbe0bf669	-0.13668217
19	0x3df6bca3	0.12047698
20	0x3d3c854c	0.04602556
21	0x3bf8ecce	0.0075965887
22	0xbeb180bb	-0.34668526
23	0x3ea9e592	0.3318296
24	0xbe9adc89	-0.3024638
25	0xbe931920	-0.28730106
26	0x3e1b8552	0.15187576
27	0x3e0c463c	0.13698667
28	0x3df2868e	0.118420705
29	0xbe34df41	-0.1766329
30	0x3d1c0f8f	0.038100775
31	0x3e88524e	0.26625293
32	0x3e95f914	0.29291594
33	0x3e9e9292	0.309712
34	0x3e2cbcbb	0.1686887
35	0x3f0c2171	0.5473853
36	0x3d4564ed	0.048191953
37	0xbe3a409f	-0.18188713
38	0x3d3f44e5	0.046696562
39	0xbe2a12c7	-0.16608725
40	0xbc92b32b	-0.0179077
41	0x3d2b76a7	0.041861203
42	0xbeb60088	-0.3554728
43	0xbe8641f2	-0.26222187
44	0xbec91aaa	-0.39278156
45	0xbd823ed7	-0.06359642
46	0xbdbbb772	-0.09165849
47	0x3ecb3381	0.39687732
48	0x3e775ce6	0.24156532
49	0xbe90df24	-0.28295243
50	0x3bd0ec34	0.006375814
51	0xbecce1af	-0.40015933
52	0x3ddc6017	0.10760515
53	0xbe9d0d19	-0.30674055
54	0xbe604627	-0.21901761
55	0x3e5a2273	0.21302204
56	0xbeb0e23b	-0.345476
57	0xbe3909a3	-0.18070082
58	0x3e24cebd	0.1609449
59	0xbe2e0826	-0.16995296
60	0xbeb3d1d9	-0.3512104
61	0xbddcfbcf	-0.10790216
62	0xbc9494cd	-0.01813736
63	0xbe52bada	-0.2057909
64	0x3e59dc38	0.21275413
65	0x3d1cf2ba	0.03831742
66	0xbe5fd754	-0.21859485
67	0xbeb177cb	-0.34661707
68	0x3ddd3df9	0.10802836
69	0xbe7a0e96	-0.24419627
70	0x3ebf8ab6	0.37410516
71	0xbecfbc91	-0.40573552
72	0x3f00d64c	0.5032699
73	0x3e52d019	0.20587195
74	0x3e9fc269	0.3120301
75	0x3f10ad0b	0.5651404
76	0xbd769040	-0.06019616
77	0xbe59281d	-0.21206708
78	0x3f03b991	0.51455027
79	0xbd7f6c48	-0.062359124
80	0x3eee94cb	0.46597895
81	0x3e4a234f	0.19740032
82	0xbe50d8f8	-0.20395267
83	0x3ec14377	0.37746784
84	0xbe2e1c14	-0.17002898
85	0x3dc6ea45	0.09712652
86	0x3e5bc1d5	0.2146066
87	0x3eef469a	0.46733552
88	0xbe59d368	-0.21272051
89	0xbea40b8a	-0.32040054
90	0x3f0f7e05	0.56051666
91	0x3f00e2ca	0.5034605
92	0x3ed93bda	0.42428476
93	0x3e699b30	0.22813106
94	0x3ccbdc1a	0.024885226
95	0xbe5d7818	-0.21627843
96	0xbe207055	-0.15667851
97	0x3ec92857	0.3928859
98	0xbe291956	-0.16513571
99	0xbe9ff10a	-0.31238586
100	0xbdb6d5bf	-0.089274876
101	0xbe92604c	-0.28589094
102	0xbe7f4556	-0.24928793
103	0x3efce2e9	0.4939187
104	0x3ee973bc	0.4559611
105	0x3efaae66	0.4896118
106	0xbe87e2dc	-0.26540267
107	0x3ed620a2	0.41821772
108	0xbe925217	-0.28578255
109	0x3ea70ccb	0.32626948
110	0x3e96e9ec	0.29475343
111	0xbe5fb387	-0.21845828
112	0xbec012ed	-0.3751444
113	0x3eaa8111	0.33301595
114	0xbce1b609	-0.027552621
115	0x3e08f556	0.13374838
116	0x3d8951fb	0.0670509
117	0xbe7da47b	-0.24769776
118	0xbdfa8b4e	-0.122336015
119	0x3c58006b	0.013183693
120	0xbe3aa9a8	-0.18228781
121	0xbdbbf89d	-0.091782786
122	0x3e979fdb	0.29614148
123	0xbd84ef24	-0.06490925
124	0x3e0648a6	0.1311365
125	0xbec50879	-0.38483027
126	0x3ea6d8a2	0.32587153
127	0x3f0cead8	0.55045843
128	0x3eedf70a	0.46477538
129	0xbdd9b3ee	-0.10630022
130	0xbe0f2360	-0.13978338
131	0x3eb121fa	0.34596235
132	0x3da15e0f	0.078792684
133	0xbe6aae6c	-0.22918099
134	0xbe4fd43f	-0.20295809
135	0xbe1221d5	-0.14270718
136	0x3e9f4381	0.3110619
137	0xbe10ab34	-0.14127809
138	0xbdd60586	-0.10450272
139	0xbe2a8836	-0.16653523
140	0xbe85a38d	-0.26101342
141	0x3e983be6	0.297332
142	0x3eb61d83	0.3556939
143	0x3de8be5c	0.11364433
144	0x3e9c22a5	0.30495182
145	0xbd15bb29	-0.036555443
146	0xbdfbd3b5	-0.12296239
147	0x3cb8f403	0.022577291
148	0xbebb84db	-0.36624798
149	0x3e0928d7	0.13394485
150	0xbe149e58	-0.14513528
151	0xbde9dce0	-0.11419082
152	0x3dc995ac	0.09843001
153	0xbead5778	-0.33855796
154	0xbeb5b21f	-0.35487458
155	0xbe24edef	-0.1610639
156	0x3ec42df2	0.38316303
157	0x3cce7949	0.025204318
158	0x3ea31d86	0.31858462
159	0x3e1b4da5	0.15166338
160	0x3e8c7dff	0.27439877
161	0x3da02def	0.07821261
162	0x3d5d04e5	0.053959746
163	0x3ec5b0be	0.38611406
164	0x3ef9adb0	0.48765326
165	0xbe5e32ab	-0.21699016
166	0x3ea43c29	0.3207715
167	0x3eecb7ce	0.46233982
168	0xbe76cd24	-0.24101692
169	0x3dda19bd	0.106494404
170	0x3e08c66a	0.13356939
171	0xbe9f65f5	-0.31132475
172	0xbec19328	-0.37807584
173	0xbcdab87e	-0.0266993
174	0x3f0ab327	0.54179615
175	0xbd3796cd	-0.04482155
176	0x3f102cc6	0.5631832
177	0x3ee8632c	0.45388162
178	0xbe6bf3de	-0.23042247
179	0x3d816e88	0.0631991
180	0xbe773efc	-0.2414512
181	0x3e8878ea	0.2665475
182	0x3e33df4c	0.1756565
183	0xbeb38994	-0.350659
184	0x3dd095ae	0.10184799
185	0xbe582f16	-0.21111712
186	0x3e6a27f4	0.22866803
187	0x3e61c751	0.2204869
188	0x3ee3a092	0.44458443
189	0xbdfc55f4	-0.12321082
190	0xbe2f1ca2	-0.17100766
191	0xbd477e36	-0.04870435

layer1.bias f4 [32]
0	0xbe783cc3	-0.24241929
1	0x3e691232	0.22760847
2	0xbec48aa7	-0.38387033
3	0x3e784f48	0.24248993
4	0xbe7399de	-0.23789164
5	0xbcba2738	-0.02272378
6	0xbe08de38	-0.1336602
7	0xbe8c400b	-0.2739261
8	0xbeb45ca1	-0.3522692
9	0xbec7e2dd	-0.3904027
10	0xbe8031f5	-0.25038114
11	0xbe098273	-0.13428669
12	0x3e2cce5a	0.16875592
13	0x3ca3a9bf	0.019978402
14	0x3eedc5f2	0.46440083
15	0x3ad51e92	0.0016259721
16	0xbdd89209	-0.10574729
17	0x3d929778	0.071577966
18	0xbebda208	-0.37037683
19	0xbe830d5b	-0.25596127
20	0xbe71d862	-0.236177
21	0x3daf0ca8	0.08547336
22	0xbec32071	-0.38110688
23	0xbe65e0d7	-0.22449051
24	0x3efb9665	0.4913818
25	0xbe1a6ef2	-0.15081385
26	0x3ed7ef9d	0.42174998
27	0x3ec015c1	0.37516597
28	0xbd1adf11	-0.03781039
29	0xbd7730b8	-0.060349196
30	0xbe8619f7	-0.26191685
31	0x3ee4ca09	0.4468539

layer2.weight f4 [16, 32]
0	0x3cad4973	0.021153187
1	0x3d508e31	0.050916854
2	0x3dbf4ec4	0.09341195
3	0xbc7533de	-0.014965979
4	0xbdfab689	-0.12241847
5	0x3e4c22ed	0.19935198
6	0x3c82b292	0.01595429
7	0xbdbe230e	-0.0928403
8	0x3db65865	0.08903579
9	0x3dce6f86	0.10079865
10	0xbd634df6	-0.05549427
11	0x3bf5c7f4	0.007500643
12	0x3e4449eb	0.19168822
13	0x3e7f7f52	0.24950913
14	0x3e8caccb	0.2747558
15	0x3ec2a3b3	0.38015518
16	0x3df044d2	0.117318764
17	0x3e6d3d46	0.23167905
18	0xbdcffa8e	-0.101552114
19	0x3c8a247d	0.016863102
20	0x3e0fef37	0.14056097
21	0x3e933981	0.2875481
22	0xbdc7816a	-0.09741481
23	0x3c3cdea3	0.01152769
24	0x3d8c89c3	0.068622135
25	0x3d663231	0.05620021
26	0x3e5600a0	0.20898676
27	0x3db7e25a	0.0897872
28	0xbe172046	-0.14758405
29	0x3e222146	0.15833005
30	0xbc31791d	-0.010832098
31	0x3e366870	0.17813277
32	0x3e20c4dd	0.15700097
33	0xbd126491	-0.03574044
34	0xbe34827a	-0.17627898
35	0x3daac9ea	0.08339293
36	0x3dfeebc2	0.12447311
37	0x3c9c4a83	0.019078499
38	0x3deb0b02	0.11476709
39	0xbde01bb1	-0.10942782
40	0xbe29b9b0	-0.1657474
41	0x3dd35fd8	0.10321015
42	0x3d628387	0.055301215
43	0xbe2eb28f	-0.17060302
44	0xba8fac38	-0.0010961359
45	0x3cb7e60f	0.022448568
46	0x3bff74d4	0.0077959094
47	0xbd59338b	-0.05302767
48	0xbd4bc20d	-0.049745608
49	0xbdd3d131	-0.103426345
50	0xbd8ce370	-0.06879318
51	0xbe172774	-0.14761144
52	0xbe0f1dc7	-0.13976203
53	0x3e0fd472	0.14045885
54	0x3e1a8ddc	0.15093178
55	0xbde1d93d	-0.11027763
56	0xbd31a666	-0.04337158
57	0x3d57ba0e	0.05266767
58	0x3d03ad66	0.032147788
59	0xbe0a9556	-0.1353353
60	0xbbae427b	-0.0053179837
61	0x3d62365d	0.055227626
62	0x3d647c3a	0.055782534
63	0xbe2be4e8	-0.1678654
64	0xbcefd25e	-0.029275116
65	0xbd82dae6	-0.06389408
66	0x3cbf12af	0.023324339
67	0x3d9a03f4	0.07520285
68	0x3d9b1e00	0.075740814
69	0x3e4b47c6	0.19851598
70	0xbde1b19e	-0.11020206
71	0xbc8197c5	-0.01581944
72	0xbd40caa3	-0.04706825
73	0x3ac0fef7	0.0014724423
74	0x3c76f63d	0.015073356
75	0xbcdfd2ce	-0.0273222
76	0x3e9468f2	0.28986317
77	0x3e2687b1	0.162627
78	0x3cc61eee	0.02418467
79	0x3e46d408	0.19416821
80	0xbcea9a61	-0.028638067
81	0x3e91b688	0.28459573
82	0xbe001518	-0.12508047
83	0xbe03d9bf	-0.12876032
84	0xbd331589	-0.04372171
85	0x3e92c29d	0.28664103
86	0xbc842594	-0.0161312
87	0x3e2ce6a4	0.16884857
88	0x3e5f2157	0.21790062
89	0x3e33d39d	0.17561193
90	0x3dd3dbb0	0.103446364
91	0x3df12028	0.117737114
92	0xbd9d7049	-0.07687432
93	0x3e1f70d2	0.15570381
94	0x3deea42e	0.116524085
95	0x3df4a042	0.11944629
96	0xbd1e672e	-0.03867262
97	0x3d9ec37b	0.07752129
98	0x3cb0f422	0.021600787
99	0xbbffe0e4	-0.0078087915
100	0xbd773241	-0.06035066
101	0xbe068cb3	-0.1313961
102	0x3bb53919	0.005530488
103	0x3dfa6143	0.122255825
104	0x3c4fc547	0.012681312
105	0x3dee770f	0.116438024
106	0xbd96f21a	-0.07370396
107	0x3c03c378	0.008042209
108	0xbe2dab04	-0.16959769
109	0xbd0ae99b	-0.03391419
110	0x3cdf33d4	0.027246393
111	0x3cdc2464	0.026872821
112	0xbe0364c8	-0.12831414
113	0x3c5da44e	0.013527943
114	0x3bd22f4a	0.0064143287
115	0xbc80ded1	-0.015731247
116	0x3d06997f	0.03286123
117	0x3d90badf	0.07066893
118	0xbcb2a548	-0.021807328
119	0x3dab637d	0.08368585
120	0x3b339040	0.0027399212
121	0x3d891f7d	0.06695459
122	0x3d74628f	0.059664305
123	0xbe72b2ff	-0.23701094
124	0xbdc54442	-0.0963216
125	0x3bdb7e1f	0.0066983844
126	0xbcefe806	-0.029285442
127	0xbd50ee82	-0.05100871
128	0xbd94823c	-0.07251403
129	0x3e311181	0.17291833
130	0x3b40d48a	0.0029423558
131	0x3cb1431c	0.021638446
132	0xbcf04cb3	-0.029333448
133	0x3e818b58	0.25301623
134	0x3e0a407d	0.13501163
135	0xbdf7bbe0	-0.12096381
136	0xbe182f9e	-0.14861915
137	0xbd3e89a4	-0.046517983
138	0x3db0ea1f	0.08638405
139	0x3d7d73ad	0.061877895
140	0x3c280f1e	0.0102575105
141	0x3e604ef1	0.21905114
142	0x3e39938d	0.18122692
143	0x3ebd7c58	0.3700893
144	0xbd8bcac9	-0.068257876
145	0x3e518e72	0.20464495
146	0x3bf2e2e7	0.007412303
147	0x3db20ac7	0.08693462
148	0xbd804213	-0.06262603
149	0x3c82bc21	0.015958847
150	0x3e091608	0.1338731
151	0x3c3922b7	0.011299781
152	0x3e86e1ec	0.2634424
153	0x3d94573c	0.07243201
154	0x3dae1e9c	0.08501932
155	0x3dd736ec	0.105085224
156	0xbdca3a90	-0.09874451
157	0x3e306e82	0.17229655
158	0x3e23fe10	0.16014886
159	0x3decb001	0.115570076
160	0xbc7a6543	-0.015282932
161	0xbdaa912b	-0.0832847
162	0x3d1cff2d	0.038329292
163	0xbe05ffa8	-0.13085806
164	0x3dda6b9b	0.10665055
165	0xbe144b94	-0.14481956
166	0xbd9946d3	-0.07484212
167	0x3d76a158	0.060212463
168	0xbdc21895	-0.09477345
169	0x3de1377a	0.109969094
170	0xbde435ba	-0.1114306
171	0x3d36fccf	0.04467469
172	0xbe2c370a	-0.1681787
173	0xbe2ef896	-0.17087016
174	0x3da64703	0.08119013
175	0x3d627fc6	0.055297635
176	0xbd541896	-0.05178126
177	0x3d0aaac5	0.033854265
178	0xbdb7759a	-0.089579776
179	0x3c2ff29d	0.010738996
180	0x3e1c2fb9	0.1525258
181	0x3e15f1e5	0.14643057
182	0x3dcc92cb	0.09988936
183	0xbb9c2683	-0.004765333
184	0xbe0d11fe	-0.13776395
185	0x3dc7e30a	0.09760101
186	0xbccf4b4d	-0.02530446
187	0xbbaabc64	-0.005210446
188	0xbdd4e27a	-0.103947595
189	0xbdda49eb	-0.1065863
190	0x3dbda525	0.092600144
191	0xbdf1ffb9	-0.11816353
192	0x3d8a05ed	0.067394115
193	0x3bcf027d	0.0063174353
194	0x3d94896e	0.07252775
195	0x3e0ed0f8	0.13946903
196	0x3da4c58f	0.08045494
197	0x3e96cf6d	0.29455128
198	0x3d0b666b	0.03403322
199	0xbdb9e011	-0.090759404
200	0xbcf912de	-0.030404504
201	0x3cce33d2	0.025171194
202	0xbcdd5d37	-0.027021987
203	0xbe076550	-0.13222241
204	0x3db9a1fe	0.09064101
205	0x3e836d6b	0.25669417
206	0xbd1fd8d5	-0.039025147
207	0x3e0edfc4	0.13952547
208	0xbd2fa135	-0.04287835
209	0x3e973e36	0.2953965
210	0xbca6bc3c	-0.020353429
211	0xbe24db44	-0.16099268
212	0xbe08a557	-0.13344322
213	0x3d9c4e50	0.076321244
214	0x3ccb2c14	0.024801292
215	0x3e25b11c	0.16180843
216	0x3e80972e	0.2511534
217	0xbd6b9529	-0.057515297
218	0x3c61cd55	0.013781865
219	0x3e5e088c	0.21682948
220	0x3d2a6963	0.04160441
221	0x3e7c1aac	0.2461955
222	0xbd9a1f00	-0.07525444
223	0xbcf639b0	-0.030056804
224	0x3e33d149	0.17560305
225	0xbe101345	-0.1406985
226	0x3ca6c39e	0.02035695
227	0xbe3371b8	-0.17523849
228	0x3d96e69d	0.07368205
229	0xbcc462fd	-0.023972983
230	0xbc4035e1	-0.011731596
231	0x3cf6e610	0.030139
232	0x3e13759d	0.14400335
233	0x3da189a3	0.0788758
234	0x3ddf3275	0.10898296
235	0x3a8dcb53	0.0010818042
236	0x3d2fef80	0.042953014
237	0xbe3b7c8b	-0.18309228
238	0x3e008c9d	0.1255364
239	0xb9ef0743	-0.00045591043
240	0xbd97baa2	-0.07408644
241	0xbe48f6bb	-0.1962537
242	0xbdad2480	-0.084542274
243	0xbd900859	-0.07032842
244	0x3dd5d752	0.1044146
245	0xbe454490	-0.19264436
246	0x3e31ef9d	0.17376561
247	0x3d737349	0.059436116
248	0x3dfe3f67	0.12414437
249	0x3cbf8bbc	0.02338206
250	0xbdc18e44	-0.09450963
251	0x3c145111	0.009052531
252	0xbd6f64f1	-0.058445875
253	0xbd0a65eb	-0.033788603
254	0x3e015505	0.12630089
255	0x3d9d06d7	0.0766732

layer2.bias f4 [16]
0	0x3e0e649d	0.13905568
1	0xbe13cea5	-0.14434297
2	0x3de673e1	0.11252571
3	0x3db856a2	0.09000899
4	0x3e8a8a43	0.2705861
5	0xbdd7e969	-0.10542566
6	0x3e821cb4	0.25412524
7	0xbdcb6c6c	-0.09932789
8	0xbe37c6e2	-0.17946962
9	0xbe25c75b	-0.1618933
10	0x3b8fb71b	0.0043858415
11	0xbc630d0e	-0.013858093
12	0x3e12373d	0.14278884
13	0x3e3e40ad	0.1857936
14	0xbe09bae0	-0.13450193
15	0x3d929378	0.07157034

layer3.weight f4 [1, 16]
0	0xbea0cd1c	-0.31406486
1	0x3e5b246e	0.21400616
2	0xbebc1a2a	-0.36738712
3	0x3d19b0ba	0.037522055
4	0xbe81a671	-0.25322297
5	0xbd920eec	-0.07131752
6	0xbec5515c	-0.38538635
7	0x3e1b7fed	0.15185519
8	0x3d6de7a9	0.058082256
9	0x3d9ae734	0.0756363
10	0xbe8dce1b	-0.27696308
11	0x3e160e29	0.14653839
12	0xbe8379b8	-0.25678802
13	0xbe86def2	-0.2634197
14	0x3dc3709c	0.09542963
15	0xbeaec0b8	-0.34131408
