train/models/final_risk_model.pth (torch, 7745 bytes, 5 tensors)

layer1.weight f4 [32, 6]
00000000: 2c24 ba3d 71c9 f8bd 0a2f 3abd 9f28 7bbe
00000010: e849 96bd 3e44 113e a07c b83e b6aa fa3c
00000020: 56c6 013e 576d 94be 6711 8a3e 7e31 9fbe
00000030: 6762 1fbe 71bd b43e d771 9c3e 506d 07bd
00000040: ec51 c13e 954c 603d 9663 08be 42f3 ff3d
00000050: 1f22 583d a0e8 843c 0b42 b8be 5d9d ab3e
00000060: 89dc 9abe 2019 93be 5285 1b3e 3c46 0c3e
00000070: 8e86 f23d 41df 34be ef30 2e3d 2b57 8b3e
00000080: d5e6 9a3e f758 a43e 3408 1c3e 3025 0d3f
00000090: ed64 453d 9f40 3abe e544 3f3d c712 2abe
000000a0: 2bb3 92bc a776 2b3d 8800 b6be f241 86be
000000b0: aa1a c9be d73e 82bd 72b7 bbbd 8133 cb3e
000000c0: e65c 773e 24df 90be 34ec d03b afe1 ccbe
000000d0: 1760 dc3d 190d 9dbe 2746 60be 7322 5a3e
000000e0: 3be2 b0be a309 39be bdce 243e 2608 2ebe
000000f0: d9d1 b3be cffb dcbd cd94 94bc daba 52be
00000100: 38dc 593e baf2 1c3d 54d7 5fbe cb77 b1be
00000110: f93d dd3d 960e 7abe b68a bf3e 91bc cfbe
00000120: 6421 013f 926c 543e a838 a13e 9398 113f
00000130: c5ec 8abd ebc6 57be 87fa 033f 3515 7abd
00000140: 2aa4 ef3e c7e9 4c3e 6b71 57be 5fc7 c13e
00000150: 65e6 2bbe 38c4 cc3d c28b 603e 842e f23e
00000160: 877b 63be 88eb a2be e310 103f 96a0 013f
00000170: e282 db3e db77 6f3e 683a 7d3c 9fbf 5abe
00000180: 5570 20be 5728 c93e 5619 29be 0af1 9fbe
00000190: bfd5 b6bd 4c60 92be 94ff 7dbe e0b4 fd3e
000001a0: 6ec3 ea3e d152 fc3e 251f 8bbe dbc6 d63e
000001b0: 1752 92be cb0c a73e ece9 963e 87b3 5fbe
000001c0: ed12 c0be 1181 aa3e 09b6 e1bc 56f5 083e
000001d0: fb51 893d 7ba4 7dbe 4e8b fabd 6b00 583c
000001e0: a8a9 3abe 9df8 bbbd db9f 973e 24ef 84bd
000001f0: a648 063e 7908 c5be 4083 a73e 5a61 0d3f
00000200: 5f7c ef3e 0899 d1bd fcf5 17be 54cd b13e
00000210: 0f5e a13d 6cae 6abe 3fd4 4fbe d521 12be
00000220: 8143 9f3e 34ab 10be 8605 d6bd 3688 2abe
00000230: 8da3 85be e63b 983e 831d b63e 5cbe e83d
00000240: 35b6 9c3e d04f 0fbd b1e9 f5bd c92e d73c
00000250: eb08 bfbe 7e8a 0a3e 589e 14be e0dc e9bd
00000260: ac95 c93d 7857 adbe 1fb2 b5be efed 24be
00000270: 9438 c53e 9038 e63c 47f7 a53e 8a61 223e
00000280: 516d 863e 2a1f a53d 8d98 603d 0854 c63e
00000290: 66cd fa3e d045 5bbe bda2 a03e 4c3e ed3e
000002a0: 24cd 76be bd19 da3d 6ac6 083e f565 9fbe
000002b0: 2893 c1be 7eb8 dabc 6b16 0b3f c486 2fbd
000002c0: 7dff 103f f263 ea3e 73b3 73be 30d2 843d
000002d0: fc3e 77be ea78 883e 4cdf 333e 9489 b3be
000002e0: ae95 d03d 162f 58be 2f13 6d3e 9999 653e
000002f0: d6be e63e e336 edbd 395d 3bbe a8d8 3abd
0.090889305 -0.12147797 -0.045455016 -0.24527214 -0.07338315 0.14186189 0.3603258 0.03059898
0.12673315 -0.2898967 0.26966402 -0.31092447 -0.15564881 0.35300782 0.30555603 -0.033063233
0.37757814 0.054760534 -0.13319239 0.124975696 0.052766915 0.016224205 -0.35987887 0.33518496
-0.3024638 -0.28730106 0.15187576 0.13698667 0.118420705 -0.1766329 0.042527135 0.2721494
0.30254236 0.32099125 0.15237504 0.5513487 0.048191953 -0.18188713 0.046696562 -0.16608725
-0.0179077 0.041861203 -0.3554728 -0.26222187 -0.39278156 -0.06359642 -0.09165849 0.39687732
0.24156532 -0.28295243 0.006375814 -0.40015933 0.10760515 -0.30674055 -0.21901761 0.21302204
-0.345476 -0.18070082 0.1609449 -0.16995296 -0.3512104 -0.10790216 -0.01813736 -0.2057909
0.21275413 0.03831742 -0.21859485 -0.34661707 0.10802836 -0.24419627 0.37410516 -0.40573552
0.50441575 0.20744541 0.31488538 0.56873435 -0.067834415 -0.21071975 0.5155415 -0.06105538
0.46804935 0.20011054 -0.2103936 0.3784742 -0.16787107 0.09998363 0.21928313 0.47301114
-0.2221509 -0.3182032 0.5627577 0.5063566 0.42873293 0.23385565 0.01545582 -0.2136216
-0.15667851 0.3928859 -0.16513571 -0.31238586 -0.089274876 -0.28589094 -0.24804527 0.4955206
0.45852226 0.49281934 -0.271722 0.4194859 -0.28578255 0.32626948 0.29475343 -0.21845828
-0.3751444 0.33301595 -0.027552621 0.13374838 0.0670509 -0.24769776 -0.122336015 0.013183693
-0.18228781 -0.091782786 0.29614148 -0.06490925 0.1311365 -0.38483027 0.32717323 0.5522667
0.46774575 -0.102342665 -0.1483993 0.34726965 0.078792684 -0.22918099 -0.20295809 -0.14270718
0.3110619 -0.14127809 -0.10450272 -0.16653523 -0.26101342 0.297332 0.3556939 0.11364433
0.30607763 -0.034988225 -0.12007464 0.026267426 -0.3731149 0.13529393 -0.14513528 -0.11419082
0.09843001 -0.33855796 -0.35487458 -0.1610639 0.38519728 0.028103143 0.3241522 0.1585752
0.26255277 0.08062585 0.054832984 0.38735986 0.48984832 -0.2141335 0.3137416 0.4633659
-0.24101692 0.106494404 0.13356939 -0.31132475 -0.37807584 -0.0266993 0.5433108 -0.042853132
0.56639844 0.45779377 -0.23798923 0.064854026 -0.2414512 0.2665475 0.1756565 -0.350659
0.10184799 -0.21111712 0.23151849 0.22421874 0.4506747 -0.115827344 -0.1829728 -0.045616776

layer1.bias f4 [32]
00000000: c33c 78be abb0 743e a78a c4be 21c6 803e
00000010: de99 73be 9474 29bc 38de 08be 0b40 8cbe
00000020: a15c b4be dde2 c7be f531 80be 7382 09be
00000030: 97a5 303e 2402 bb3c d0e1 f03e 095e fb3b
00000040: 0992 d8bd 94a2 993d 08a2 bdbe 5b0d 83be
00000050: 62d8 71be 928f b73d 7120 c3be d7e0 65be
00000060: 2a92 fd3e f26e 1abe 47c6 db3e bcae c13e
00000070: 11df 1abd bee6 65bd f719 86be bfc6 e83e
-0.24241929 0.23895518 -0.38387033 0.2515116 -0.23789164 -0.010342736 -0.1336602 -0.2739261
-0.3522692 -0.3904027 -0.25038114 -0.13428669 0.17250668 0.02282817 0.4704728 0.007671122
-0.10574729 0.075017124 -0.37037683 -0.25596127 -0.236177 0.08962931 -0.38110688 -0.22449051
0.49525577 -0.15081385 0.4292471 0.37828624 -0.03781039 -0.056128256 -0.26191685 0.4546413

layer2.weight f4 [16, 32]
00000000: 7349 ad3c 4388 5d3d c44e bf3d 8c13 42bc
00000010: 89b6 fabd 9313 543e 92b2 823c 0e23 bebd
00000020: 6558 b63d 866f ce3d f64d 63bd f4c7 f53b
00000030: 464e 463e d154 803e 7a26 8e3e 0a21 c53e
00000040: d244 f03d a25b 6f3e 8efa cfbd 7d24 8a3c
00000050: 37ef 0f3e 4121 943e 6a81 c7bd a3de 3c3c
00000060: 9b68 903d 3132 663d 0788 573e 58a9 ba3d
00000070: 4620 17be d745 243e 1d79 31bc 5267 383e
00000080: ddc4 203e e490 13bd 7a82 34be d77e aa3d
00000090: c2eb fe3d 4221 943c 020b eb3d b11b e0bd
000000a0: b0b9 29be d85f d33d 8783 623d 8fb2 2ebe
000000b0: 2976 6aba ba39 b63c 1e6c e03b d3b9 5cbd
000000c0: 0dc2 4bbd 1b58 d3bd 70e3 8cbd 7427 17be
000000d0: c71d 0fbe a8ac 0f3e dc8d 1a3e 3dd9 e1bd
000000e0: 1470 30bd 0eba 573d ddf9 023d 5695 0abe
000000f0: 7b42 aebb 83e4 613d 3a7c 643d e8e4 2bbe
00000100: 5ed2 efbc 332d 77bd af12 bf3c 3694 a03d
00000110: 001e 9b3d fcfb 513e 9eb1 e1bd c597 81bc
00000120: a3ca 40bd f7fe c03a 3df6 763c ced2 dfbc
00000130: 1f55 953e d1e4 273e 7392 de3c 14e4 4a3e
00000140: 619a eabc 53ad 923e 1815 00be bfd9 03be
00000150: 8915 33bd 5589 933e 9425 84bc a4e6 2c3e
00000160: 2e3c 613e 9dd3 333e 324d d73d 3bb0 f33d
00000170: 4970 9dbd 191b 213e 2ea4 ee3d bfd3 f83d
00000180: 2e67 1ebd 48e2 9d3d 22f4 b03c 7b75 08bc
00000190: 4132 77bd a05e 0fbe 1939 b53b 4361 fa3d
000001a0: 47c5 4f3c 0f77 ee3d 1af2 96bd 78c3 033c
000001b0: 1c2e 2ebe 6c3e 0cbd e68b db3c b517 be3c
000001c0: c864 03be 3b6f 553c 4a2f d23b d1de 80bc
000001d0: 7f99 063d 4e9e 8f3d 48a5 b2bc 7d63 ab3d
000001e0: ade9 113b 7d1f 893d e500 733d 27b9 72be
000001f0: 4244 c5bd f461 c43b 06e8 efbc 756d 52bd
00000200: 3c82 94bd 551e 363e 8ad4 403b 014f da3c
00000210: b34c f0bc 85b8 873e 7d40 0a3e e0bb f7bd
00000220: 9e2f 18be a489 3ebd 1fea b03d ad73 7d3d
00000230: baee 5d3c 6e5e 623e dd04 3e3e 5916 c13e
00000240: c9ca 8bbd bde2 543e e7e2 f23b c70a b23d
00000250: 1342 80bd 1b8f 983c 0816 093e b722 393c
00000260: 926f 883e 3c57 943d 2670 b33d 53af db3d
00000270: 903a cabd 7cb4 333e 10fe 233e bac0 f23d
00000280: 4365 7abc 2b91 aabd 2dff 1c3d a8ff 05be
00000290: 9b6b da3d 944b 14be d346 99bd 58a1 763d
000002a0: 9518 c2bd 7a37 e13d ba35 e4bd cffc 363d
000002b0: 0a37 2cbe 96f8 2ebe 0347 a63d c67f 623d
000002c0: 9618 54bd c5aa 0a3d 9a75 b7bd 9df2 2f3c
000002d0: b92f 1c3e e5f1 153e cb92 cc3d 8326 9cbb
000002e0: fe11 0dbe 0ae3 c73d 4d4b cfbc 64bc aabb
000002f0: 7ae2 d4bd eb49 dabd 25a5 bd3d b9ff f1bd
00000300: ed05 8a3d 665d 113c 6e89 943d edf4 113e
00000310: 8fc5 a43d b7d4 9a3e 6b66 0b3d 11e0 b9bd
00000320: de12 f9bc d233 ce3c 375d ddbc 5065 07be
00000330: e2ad bd3d c5ff 833e 414d 15bd 7a85 133e
00000340: 35a1 2fbd 5c28 983e 3cbc a6bc 44db 24be
00000350: 57a5 08be f4be 9f3d 142c cb3c 1cb1 253e
00000360: 0572 813e 2995 6bbd 58d8 7c3c 4570 5f3e
00000370: 6369 2a3d a78e 7d3e 001f 9abd 96b1 e7bc
00000380: 49d1 333e 0c4c 10be 9ec3 a63c 8b9b 33be
00000390: 9de6 963d 4f3e f0bc e135 40bc 10e6 f63c
000003a0: 9d75 133e a389 a13d 7532 df3d 53cb 8d3a
000003b0: f328 2d3d 8b7c 3bbe 3732 003e bb13 4bbb
000003c0: a2ba 97bd d2f5 48be 8024 adbd 5908 90bd
000003d0: 52d7 d53d 3376 45be 9def 313e 4973 733d
000003e0: 4037 fd3d bc8b bf3c cf86 c1bd 5f51 0c3c
000003f0: f164 6fbd d9fc 0ebd 0555 013e c447 9c3d
0.021153187 0.054085027 0.09341195 -0.011845481 -0.12241847 0.20710592 0.01595429 -0.0928403
0.08903579 0.10079865 -0.05549427 0.007500643 0.19365796 0.2506471 0.2776373 0.3850177
0.117318764 0.23374799 -0.101552114 0.016863102 0.14056097 0.2893162 -0.09741481 0.01152769
0.07051202 0.05620021 0.21047984 0.09114331 -0.14758405 0.16042267 -0.010832098 0.18008164
0.15700097 -0.03602685 -0.17627898 0.08324974 0.12447311 0.018082265 0.11476709 -0.10942782
-0.1657474 0.10321015 0.055301215 -0.17060302 -0.0008943999 0.022244323 0.006848826 -0.053888153
-0.049745608 -0.10319539 -0.06879318 -0.14761144 -0.13976203 0.14030707 0.15093178 -0.11027763
-0.043075636 0.05266767 0.03197657 -0.1353353 -0.0053179837 0.055149566 0.055782534 -0.1678654
-0.029275116 -0.06034584 0.023324339 0.07840769 0.075740814 0.2050628 -0.11020206 -0.01581944
-0.04706825 0.0014724423 0.015073356 -0.0273222 0.29166505 0.1639588 0.027169442 0.19813567
-0.028638067 0.2864786 -0.12508047 -0.12876032 -0.04372171 0.28815714 -0.0161312 0.16884857
0.21995613 0.17561193 0.10512771 0.11898848 -0.07687432 0.15732993 0.116524085 0.12149762
-0.03867262 0.07709175 0.021600787 -0.008328791 -0.06035066 -0.1400094 0.005530488 0.122255825
0.012681312 0.116438024 -0.07370396 0.008042209 -0.17009777 -0.034239218 0.026800107 0.023204664
-0.12831414 0.013027008 0.0064143287 -0.015731247 0.03286123 0.07012616 -0.021807328 0.08368585
0.0022264526 0.06695459 0.059327025 -0.23703443 -0.0963216 0.0059931222 -0.029285442 -0.051373918
-0.07251403 0.17785008 0.0029423558 0.026649 -0.029333448 0.26507965 0.13501163 -0.12096381
-0.14861915 -0.046517983 0.08638405 0.061877895 0.013545686 0.22106335 0.18556543 0.37712362
-0.068257876 0.20789619 0.007412303 0.08693462 -0.06262603 0.018622926 0.1338731 0.011299781
0.2664762 0.07243201 0.08761625 0.107268 -0.09874451 0.17549318 0.16014886 0.11853166
-0.015282932 -0.0832847 0.038329292 -0.13085806 0.10665055 -0.14481956 -0.07484212 0.060212463
-0.09477345 0.109969094 -0.1114306 0.04467469 -0.1681787 -0.17087016 0.08119013 0.055297635
-0.05178126 0.033854265 -0.089579776 0.010738996 0.1525258 0.14643057 0.09988936 -0.004765333
-0.13776395 0.09760101 -0.02530446 -0.005210446 -0.103947595 -0.1065863 0.092600144 -0.11816353
0.067394115 0.008872366 0.07252775 0.14253588 0.08045494 0.30240414 0.03403322 -0.090759404
-0.030404504 0.025171194 -0.027021987 -0.13222241 0.09261681 0.25781074 -0.03645063 0.14406386
-0.04287835 0.29718292 -0.020353429 -0.16099268 -0.13344322 0.07800093 0.024801292 0.16180843
0.25282302 -0.057515297 0.01543244 0.21820171 0.04160441 0.24761449 -0.07525444 -0.028282922
0.17560305 -0.1409151 0.02035695 -0.17539804 0.07368205 -0.029326586 -0.011731596 0.030139
0.14400335 0.0788758 0.10898296 0.0010818042 0.04227538 -0.18309228 0.12519155 -0.0030987102
-0.07408644 -0.19625023 -0.084542274 -0.07032842 0.1044146 -0.1928337 0.17376561 0.059436116
0.12364054 0.02338206 -0.09449541 0.008564322 -0.058445875 -0.034909103 0.12630089 0.07630876

layer2.bias f4 [16]
00000000: e9fd 0f3e 69fe 13be a6d2 e93d 45ca b73d
00000010: c0c2 8b3e 69e9 d7bd 12de 823e a7dd cbbd
00000020: 6439 39be 5bc7 25be a14d e33b 6373 64bc
00000030: 9a82 373e 1c87 403e 6442 0cbe 01a3 993d
0.14061703 -0.14452519 0.11417131 0.08974127 0.2729702 -0.10542566 0.2556005 -0.09954386
-0.18088299 -0.1618933 0.0069367443 -0.013943526 0.17920914 0.1880154 -0.13697201 0.07501794

layer3.weight f4 [1, 16]
00000000: 7d21 a2be d916 5b3e fb83 bdbe 17f6 183d
00000010: dfac 83be ec0e 92bd 5f94 c6be 2bcd 1a3e
00000020: 59d7 693d 34e7 9a3d e5e3 8fbe 67fd 153e
00000030: 982a 96be 31c5 88be a354 b93d 5d14 b2be
-0.31666175 0.21395434 -0.37014756 0.037344065 -0.25717828 -0.07131752 -0.38785073 0.15117328
0.057090137 0.0756363 -0.28103557 0.14647447 -0.2932937 -0.26712945 0.09049346 -0.3478116
