train/models/mini_risk_model.pth (torch, 6389 bytes, 5 tensors)

layer1.weight f4 [32, 6]
00000000: 43ed 85be edc8 a43e 04d0 e83d 8bf6 c43e
00000010: 6dd2 bc3d 3812 363e 60ae cabe d330 a8bc
00000020: 9a49 0c3c 568c 2dbd e3df 8fbe b91b a93d
00000030: 77b7 c0be 0c0d 923e 0060 17be ca56 9e3e
00000040: 4770 ab3e 5dc6 723e 6995 8a3d 1abc bb3e
00000050: 9238 adbe b40f 693e fd3a 5b3e 6140 b03e
00000060: 2bce da3d 074a d13e e321 843d 6b79 813e
00000070: 0b08 d93e fb19 9a3e e4f3 683d 25d7 cc3e
00000080: a121 b0be 6099 913e 34dd bc3e bf36 a5be
00000090: 695d ca3e 04fb c13e 1601 8fbe cb61 85be
000000a0: d311 dcbe 0e79 2f3d 75fc af3e 8d3c 9f3e
000000b0: 7c09 2dbd 26ca afbe 1956 8d3e 7bd8 d73e
000000c0: 2959 903d 3c75 873d 16a0 953e e25e 523c
000000d0: 1d08 41be c877 7f3e e5f2 e7bd d8fc 89be
000000e0: eb1f 80bb 4b88 8a3e f85e a8bd 514f 11be
000000f0: ad3d 70be 2e18 6bbe fafe 643e 8abb 293e
00000100: 9b51 383e ebd4 27be 38de 9a3d bcb9 afbe
00000110: fe2e 4c3d fb93 71be 6568 0e3e bdeb 5b3e
00000120: affc 9dbd 2934 d0be 9535 cebe 58ac 823e
00000130: e674 a6be 2fbf 8cbe 318a eebb d1b7 cebe
00000140: c6b5 8dbe eac3 823e dd84 8a3e 123e 1e3c
00000150: 64c4 a13e cd84 83be 6513 7fbe d0ab 2c3e
00000160: b813 34be 9319 2bbd 5d89 863e d4d2 45be
00000170: e8ce 873e 45c5 6a3e 6e05 43bd 3d65 a73e
00000180: 9ddd 12be c29d d03e e0c5 213e 3f7f 66be
00000190: f65e ecbd 3d5c 9c3e 7ec2 17bd 359a a53e
000001a0: 12c6 92be e0d2 0cbd dae8 2f3d 6734 263d
000001b0: 532a ccbc 3a1e 34be 22fc 953d c84e e83e
000001c0: c1ff 3b3e c8d6 e3bd 8821 d23e 51a7 72be
000001d0: 09f9 cb3a 6fd2 af3e 5c14 b2be 244f 213e
000001e0: 0bce a33d 6254 47bc 8557 643e 280a 3fbe
000001f0: 5b78 69be 13a4 9ebe 18d9 a1be d53e 323e
00000200: d7a1 00bd c2fe 8bbe 51a5 b6be 032c 283d
00000210: 2d15 c9bd 04fd 75be 50ea 3fbe 82fe 5fbe
00000220: e2ca 86bc 4362 e43d d9a1 81be 5e7b 29be
00000230: 9809 b4be de1d b4be 4299 29bd 33ce 65be
00000240: c56a d7bd 8ee0 d43d 66e5 4dbd 1df8 3bbe
00000250: e0b0 c23e a680 89be 3a19 33bc c527 f0bc
00000260: bc1c 81be 9611 f8bc 41a2 a5bc e7a1 423e
00000270: 9f0e 333d 58e0 613e 74a4 09be f117 e4bc
00000280: 0b29 6d3d 94d9 483c ca1e a7be 044c a73e
00000290: 5266 863e f5a0 fd3d 6c58 9a3e 0203 253e
000002a0: 3337 5e3e a1c3 61be 8d1f 923d 62fe f83d
000002b0: b4cb ebbd 5272 a93e a0ad 5f3e 55fc 90be
000002c0: 5a33 ac3e 7afc 243e 61cc b9be 31b2 923e
000002d0: 671f 363e cf98 3a3e 236b 893d 34aa 6e3e
000002e0: a4a9 0bbe 2160 ec3d 2e01 c9bd 7838 bd3e
000002f0: b9d8 bb3c a6ed 753e 26c8 8bbe 3d1e 9e3e
-0.2615758 0.32184544 0.11367801 0.38469347 0.09219823 0.17780387 -0.39586163 -0.020531094
0.00856247 -0.042370163 -0.281005 0.08257241 -0.37639973 0.2852558 -0.14782715 0.3092559
0.33484098 0.23708482 0.06766779 0.36666948 -0.33832222 0.22759897 0.21409221 0.34424117
0.10683855 0.4087679 0.06451776 0.25287947 0.4238895 0.30097947 0.056873217 0.40007892
-0.34400657 0.28437328 0.36887515 -0.3226833 0.3952439 0.37886822 -0.27930516 -0.26051173
-0.4298235 0.042840056 0.34372297 0.31100884 -0.042245373 -0.34333915 0.2760475 0.4215735
0.07048256 0.066141576 0.29223698 0.012840005 -0.18850751 0.24948037 -0.11325625 -0.26950717
-0.003910055 0.27057108 -0.08221239 -0.14190413 -0.23461027 -0.22958443 0.22362891 0.16575447
0.1799988 -0.16389816 0.07561916 -0.34321392 0.049849503 -0.23591606 0.13907011 0.21476646
-0.07714211 -0.40664795 -0.40275255 0.25522113 -0.3251106 -0.27489612 -0.0072796573 -0.40374616
-0.27677745 0.25540096 0.27054492 0.009658353 0.31595147 -0.25687256 -0.24909742 0.16862416
-0.17585647 -0.041772436 0.26276675 -0.19318706 0.26525044 0.22926815 -0.0476126 0.32694426
-0.14342351 0.4074536 0.1579814 -0.22509478 -0.1154155 0.30539122 -0.037050717 0.32344213
-0.2866674 -0.034380794 0.042946674 0.04057732 -0.024922526 -0.17589656 0.07323481 0.45372605
0.18359281 -0.11124951 0.41041207 -0.23696639 0.0015561889 0.34340236 -0.34781158 0.15752846
0.07998284 -0.0121661145 0.22299011 -0.18656218 -0.22799818 -0.30984554 -0.31610942 0.17406781
-0.031404343 -0.27342802 -0.35673 0.041057598 -0.09818492 -0.24022299 -0.18741727 -0.21874431
-0.016454164 0.111515544 -0.25318792 -0.16550967 -0.3516357 -0.35179037 -0.041405924 -0.2244194
-0.105184115 0.10394393 -0.0502676 -0.18356366 0.3802557 -0.26855963 -0.010931307 -0.029315839
-0.25217235 -0.030281823 -0.02021897 0.19007073 0.043715116 0.22058237 -0.1344164 -0.027843447
0.05790047 0.012258906 -0.32640678 0.32675183 0.2624994 0.12384216 0.30145586 0.16114429
0.21700744 -0.22047283 0.07134924 0.12157895 -0.11513463 0.33095032 0.21843576 -0.28317514
0.33632928 0.16111937 -0.3628874 0.28651574 0.17785417 0.18222354 0.06709888 0.23307115
-0.13638932 0.11541773 -0.09814678 0.36957145 0.02293049 0.24016437 -0.2730114 0.30882445

layer1.bias f4 [32]
00000000: 38ce 0abe 4938 41be b232 10be efb7 b93e
00000010: bfeb 8a3e 316e 5ebe 0672 893e b820 d23e
00000020: 012f 553e 0070 303e 6687 fbbc 5895 4dbe
00000030: e6fa 5f3d 449f a7be 3cf7 5fbe 1c26 cb3c
00000040: dc9d a03e 2ecf bbbe e37f b03e a82e 1cbe
00000050: 5a35 97be d92f 943e f003 41be 392c 193e
00000060: 387c aabd b4cf 4f3e 145d a73e 8953 ccbe
00000070: c5be be3d af7e c3bc a062 a1be 794c c33e
-0.13555229 -0.18869127 -0.14081839 0.36273143 0.27132985 -0.21721722 0.26844805 0.41040587
0.20818712 0.17230225 -0.030704211 -0.20076501 0.054682635 -0.32738698 -0.21871656 0.024798445
0.31370437 -0.36681503 0.3447257 -0.15252173 -0.29532892 0.28942755 -0.18849158 0.14958276
-0.08324474 0.20294076 0.326882 -0.39907482 0.0931373 -0.023864118 -0.31520557 0.38144282

layer2.weight f4 [16, 32]
00000000: 6996 fe3c 0f75 333d 1545 053e d58c 06be
00000010: 28c1 983d 2b88 2a3e f863 99bd f20c a1bd
00000020: 9127 0b3d 494f cebd a3e4 bebd bbe4 323e
00000030: 2747 97bc 3feb 8bbc fc4f fe3c ff3f a3bd
00000040: 7c5f e5bc 83f1 f63c e798 f2bd 500a 463d
00000050: f868 11be 1cf7 173e d1b9 f8bd d20b b73d
00000060: e48b a7bd 058a 30be b773 113e b8df 513d
00000070: 6d07 143e 08bc 5f3d c035 af3c 74cd a43d
00000080: 149e dc3c 5ddd e6bd 1fa3 05be e6d8 303e
00000090: 78cd 363e 0548 b4bd ec4d 3a3e df37 253e
000000a0: 36e4 2d3e 3dc8 de3d 66a7 593e eb08 b7bd
000000b0: 89e9 343d e8c0 073d 522f a43d 7997 80bd
000000c0: 2a82 1d3e 52ad acbd 7014 c9bd 5205 5d3e
000000d0: 41ac 10be d019 413d 1a1b 31be c9da 2fbe
000000e0: 535e 543d 517c 593e 589a 0e3d 83be 7abd
000000f0: 6bf8 1d3e 94a3 1f3e 4ca7 0d3c d1ef ce3d
00000100: 14e8 753d 813c e73d cf58 34bd 8656 a8bc
00000110: f21f a0bc 850c d03d 80a2 e03d f9ac 22bd
00000120: a28c 5bbd 2837 363e 54b6 2a3d b25d 95bd
00000130: 9c40 5c3d e5e6 273e 5319 173e fced 12bd
00000140: 9dd3 163e 65d5 173d 7b7c c8bd 97d7 40bd
00000150: 7648 fe3d 280a 2f3d 523f 95bd 7d91 84bd
00000160: cb22 193e 403e 203e ce28 893a 47fc e0bd
00000170: 8681 3c3e 3c04 713b d907 113e c029 04be
00000180: 1054 c2bd 9378 0f3e ebcf 25bd 99fc 053d
00000190: 3404 14bd d238 8bbd 2c06 cebd df17 313d
000001a0: 009d bb3d 08a0 3dbe af17 a0bd f551 b13d
000001b0: 24fa 093e f76a e9bd 8856 573d 78a4 933d
000001c0: 016b 69bd 8dbd d23c 902f b63d c6e3 29be
000001d0: ae01 bbbd be90 b53d 6fc3 2dbe 1de0 8cbd
000001e0: c454 523c cbac efbd b668 353d 0baa 343e
000001f0: 6a61 9b3d 626d 543d 459b 0abe ae11 9abd
00000200: 88ce 1abe 862f c5bd f7ba 573d ff70 28bc
00000210: 01b8 39bd b8aa 263e 3324 5ebd e191 99bd
00000220: fc12 43bc 15c2 01be a7b3 ec3d f8f4 cc3d
00000230: 505c f83d d74e cf3b 1d9e c03d 2f3e d53c
00000240: cb0f bebc 23a4 a2bd 1348 00bd ce4b 04be
00000250: 1c53 523d b9b6 84bd bc0a 0c3e 89af 063e
00000260: df0f 1b3e ab45 a4bd e79a a73d 7d9c 27be
00000270: 10e0 cbbc 9b08 833d d8a7 a63d 2a4f 383d
00000280: 35be 203e deee 073d dfd7 bb3d 71fb 7dbd
00000290: 9988 323c 65f3 0d3e 73e0 e33c e5f8 873d
000002a0: e869 643e bcd5 cfbd f538 d6bc 1dbf 253e
000002b0: 68da 473e 2bd7 e6bd be2c a3bd 51fe 8d3d
000002c0: 5fec 353e b750 00be 3c56 df3c be08 473e
000002d0: 0622 e43d 26f6 153e 584d 45bd c119 09be
000002e0: f0c0 053c ac5a c93d 455a 913d 92b0 19bc
000002f0: 9f11 213e c119 8cbd 9e9b a8bd 73f5 61bd
00000300: a460 d23c 6d6d 043e 3cc9 483e ada8 143d
00000310: 9fe4 b3bd 926e 983b 5bfa abbd fa5d 183c
00000320: 1c78 323e bace eebc 0162 e4bd c728 d33d
00000330: 2c3d b3bd 0261 2d3e 5e22 73bb 6485 183e
00000340: 28d3 1d3e 3698 2bbe bb24 24bb 6d4a 68bd
00000350: dd44 0c3e 16b7 bd3b b23b d9bd 966b 14bd
00000360: 571b 21be ba47 e2bd 36b8 0cbc 2318 29be
00000370: 9d66 523d 7766 28bc 74b7 d2bd 84b9 dc3d
00000380: e419 eabd e913 5b3d 55c8 0cbe 1e45 09bd
00000390: b0c4 a4bd 5bc3 203e d142 b6bd aa91 b73c
000003a0: ce34 6cbd 54cc d6bd 3a2e a0bc 63ea 6b3d
000003b0: dc12 4c3d 7396 ae3b 0793 f13b 4b83 1ebe
000003c0: 2019 263d 4276 253d fec3 f3bc de03 7bbd
000003d0: 1c09 00be c0a7 5839 b01f 213e 07a8 29be
000003e0: 87a8 e0bc c00c 2f3d c5bb a43c 62c2 09be
000003f0: 71d5 5ebd 266a ad3d c2d0 11be 5690 7ebd
0.03107758 0.043812808 0.13014634 -0.1313966 0.07458717 0.16653506 -0.07489771 -0.07863797
0.03397328 -0.10073716 -0.09320953 0.17470066 -0.018466545 -0.017079948 0.031043999 -0.07971191
-0.027999632 0.030144459 -0.1184557 0.04834968 -0.14200199 0.14840358 -0.12144817 0.089378014
-0.08180979 -0.1724015 0.14204298 0.051238745 0.14455958 0.05462268 0.021387935 0.080469996
0.026930846 -0.112726904 -0.13050507 0.1727024 0.17851818 -0.08802799 0.18193787 0.16134594
0.16981587 0.10878036 0.21255264 -0.08937248 0.04416803 0.033142954 0.08016838 -0.06278891
0.15381685 -0.08431496 -0.09818351 0.21584061 -0.1412821 0.047143757 -0.17295495 -0.17173304
0.051847767 0.21238829 0.034815162 -0.061216842 0.15426795 0.15589744 0.008645844 0.10104335
0.06003578 0.11290837 -0.044030007 -0.02054907 -0.019546483 0.10158638 0.109684944 -0.03971574
-0.053600915 0.17794478 0.041677788 -0.072932616 0.053772554 0.16396673 0.14755754 -0.03587149
0.14729162 0.037068743 -0.09789368 -0.047080602 0.124161646 0.042734295 -0.07287468 -0.06473062
0.14954679 0.15648746 0.0010464431 -0.10985618 0.18408784 0.0036776206 0.1416315 -0.12906551
-0.0948869 0.14010839 -0.04048149 0.0327116 -0.03613682 -0.06797947 -0.10059771 0.043235656
0.09160805 -0.18518078 -0.07817017 0.0865821 0.13474327 -0.11397355 0.052572757 0.07209104
-0.056986813 0.02572515 0.088957906 -0.16590795 -0.0913118 0.08865498 -0.16969083 -0.06878684
0.0128375925 -0.117028795 0.044289313 0.17642991 0.0758694 0.051862128 -0.13535793 -0.075229034
-0.15117848 -0.09628205 0.052668538 -0.010280847 -0.045341495 0.16276062 -0.05423374 -0.07498527
-0.011906382 -0.12671693 0.115577035 0.100076616 0.12126982 0.006326537 0.09405158 0.026030628
-0.02320089 -0.07941463 -0.031318735 -0.12919542 0.05134879 -0.06480164 0.1367597 0.13152899
0.15142773 -0.080211006 0.08183842 -0.1636829 -0.024887115 0.06398126 0.081374824 0.04499737
0.15697558 0.033186786 0.091720335 -0.06200737 0.010896825 0.13862379 0.027816987 0.0663927
0.22306025 -0.101481885 -0.026150206 0.16186185 0.19516909 -0.11271509 -0.07967518 0.06933273
0.1776595 -0.1253079 0.0272628 0.19436929 0.11139302 0.1464468 -0.048169464 -0.1338873
0.008163676 0.098317474 0.07097296 -0.009380477 0.15729378 -0.0684085 -0.082328066 -0.05516572
0.025680847 0.12932368 0.19608015 0.036293674 -0.087838404 0.004651853 -0.08397361 0.0092997495
0.1742863 -0.02915131 -0.11151505 0.10310512 -0.08751902 0.16931537 -0.0037099342 0.14894634
0.15412581 -0.16757283 -0.0025046307 -0.056711603 0.13698144 0.005789648 -0.10607089 -0.036235414
-0.15733086 -0.11048837 -0.008588841 -0.16513114 0.05136739 -0.010278336 -0.10288897 0.10777572
-0.114307195 0.053485785 -0.13748296 -0.03351318 -0.08045328 0.15699522 -0.08899463 0.022408325
-0.057667546 -0.10488191 -0.019553293 0.057596575 0.049822673 0.0053279935 0.0073722634 -0.15479772
0.040551305 0.040395983 -0.029756542 -0.061282985 -0.12503475 0.00020661857 0.15734744 -0.16568004
-0.02742411 0.04273677 0.020109067 -0.13453057 -0.054402772 0.08467512 -0.14239791 -0.06214937

layer2.bias f4 [16]
00000000: ba54 fdbd de83 123d 2234 2a3e 758c 2bbe
00000010: 5148 70bd 68ed d1bd 9f0d a43d e24f 8d3d
00000020: b87e 39be a2f8 2d3e f5d9 37bd 9721 a6bd
00000030: 98ee 053e 5bca dabd c525 4c3d 7ebc d8bd
-0.12369676 0.03577029 0.1662145 -0.16752799 -0.058662716 -0.1025036 0.080104105 0.06900002
-0.18114746 0.16989377 -0.044885594 -0.081118755 0.13079298 -0.106831275 0.049840707 -0.10582827

layer3.weight f4 [1, 16]
00000000: 45be 553e 2c13 4bbe 8644 64bd 38cb 4d3e
00000010: 32fb 443e 7a5b 4dbe 7db8 3dbe b202 493e
00000020: 12dd 073e c12a 81be 02ca 643e a979 ba3d
00000030: 3de1 0fbe 1926 473d 6852 a13d 9016 153e
0.20873363 -0.19831532 -0.05572941 0.20097053 0.19236448 -0.20054427 -0.18527408 0.19629934
0.13267925 -0.2522793 0.22342685 0.09105236 -0.14050765 0.048620317 0.07877046 0.14559388
