train/models/trading_model_demo.pth (torch, 931709 bytes, 35 tensors)

nikkei_encoder.lstm.weight_ih_l0 f4 [256, 3]
-0.05029805 0.12244664 0.008114189 0.06696989 -0.041191906 -0.020295352 0.114866376 0.09792225
0.034594342 0.07514323 -0.013639376 0.015819699 -0.053078607 0.068861455 0.07891379 0.08873543
-0.06799863 -0.080427796 -0.008930907 -0.010095164 0.06620884 0.056407705 -0.09067573 -0.0992018
0.09975697 -0.0988152 0.12239574 0.056578934 -0.0012237132 0.005641401 -0.02360101 -0.05160618
0.12356524 -0.10802543 -0.08632563 -0.01784274 0.031547114 0.09558484 -0.06421365 -0.013623849
-0.062425286 0.115528 -0.061978057 0.009807855 -0.09537467 0.063846365 0.0024913698 -0.10977803
-0.0940561 -0.046943188 0.001583755 -0.08933219 -0.03406915 -0.08515306 0.09462497 -0.10515638
0.034891963 0.08971967 -0.033701733 -0.105000615 0.113208115 0.043385386 -0.09310354 0.08572428
-0.028945744 0.030930445 -0.06968868 -0.023670271 0.115813375 -0.007257238 -0.022833303 -0.06344728
0.0076929033 -0.064247966 -0.045776516 0.014080167 0.020727977 0.023502037 0.019625261 -0.08890398
-0.07338253 -0.04997821 0.0924997 0.015640944 -0.040774092 -0.09019132 -0.019570798 -0.020220965
-0.059651718 0.027859688 0.028851658 -0.053281114 0.047840267 -0.01129666 0.038073406 -0.09440373
0.04848303 0.074023366 -0.017978534 -0.067785144 0.042134404 -0.021218091 -0.021995291 -0.05564174
0.029776514 -0.043972284 -0.005314946 -0.048821658 -0.085696235 0.055758327 0.04770282 -0.075041085
0.025623694 0.07216625 -0.120134756 0.110280365 -0.035513952 0.031397402 -0.12044461 0.12226392
-0.035234004 -0.02618377 0.078075424 -0.11638692 -0.111912444 0.044604734 -0.105746284 -0.11127257
-0.036737606 -0.05188583 0.10702169 0.06797874 -0.07116577 -0.09432627 0.0425117 0.029528186
-0.081649765 0.0067404807 0.051602334 -0.01299721 0.07170984 -0.087979436 -0.05877459 0.09778392
0.09514949 -0.050008282 0.07536575 -0.035399184 0.07031806 0.012612313 -0.10628496 0.015813991
0.05539331 0.0348313 0.005980268 0.007714942 0.046329275 -0.115244105 0.10382798 -0.11609618
0.010716245 0.08742683 -0.011027396 -0.08378352 0.011837527 0.0842942 0.079861045 0.12012568
-0.09913421 -0.09475513 0.015645608 0.120847225 -0.08804642 0.058091477 -0.02811414 0.11098646
-0.08275095 -0.034597367 -0.036520094 -0.12394458 0.07626063 0.009554252 0.031169936 0.0045753866
0.024779946 -0.096227944 0.011908114 0.12333119 0.12141925 0.013157666 0.052215055 0.08722861
0.025489107 -0.03364326 0.08724643 0.08937411 0.03290388 0.012435809 -0.057016343 -0.043231502
0.116884395 0.124922976 0.0894441 0.010367602 0.10083595 -0.0034104437 0.09282164 -0.04930775
0.02983895 0.00270617 0.018693566 0.11518967 -0.10411924 -0.034985393 -0.08957645 0.090621814
0.0133160055 0.07612789 -0.027693048 -0.04001783 0.020756483 0.12072176 0.0009773225 0.0031425953
-0.03493592 -0.092225 0.11230253 -0.12454273 0.06417252 -0.02255775 -0.10194671 -0.0695809
0.03871703 -0.10387136 0.04814914 0.02219212 0.046043098 0.01566337 0.04103908 0.09841873
0.028839156 0.07213849 0.08117406 -0.092273444 0.09237209 -0.04760371 -0.095131114 -0.09570888
-0.055351928 0.030479267 -0.009648383 -0.0029665679 0.013509646 0.086409315 0.039425597 -0.0021361113
00000000: 5405 4ebd 4ec5 fa3d 60f1 043c 8227 893d
00000010: d8b8 28bd 7042 a6bc 103f eb3d 768b c83d
00000020: ccb2 0d3d b2e4 993d b077 5fbc 5098 813c
00000030: f468 59bd 3c07 8d3d 8e9d a13d ecba b53d
00000040: de42 8bbd 54b7 a4bd f052 12bc 3066 25bc
00000050: 8098 873d c40b 673d 32b4 b9bd 502a cbbd
00000060: 624d cc3d a05f cabd 9eaa fa3d 50bf 673d
00000070: 0065 a0ba 80db b83b e856 c1bc 0061 53bd
00000080: c60f fd3d 703c ddbd 7ecb b0bd f02a 92bc
00000090: 8c37 013d fcc1 c33d 7282 83bd 9036 5fbc
000000a0: a8b1 7fbd f299 ec3d b4dc 7dbd 20b1 203c
000000b0: cc53 c3bd e2c1 823d 4046 233b 4ed3 e0bd
000000c0: 7ca0 c0bd 8047 40bd 0096 cf3a ccf3 b6bd
000000d0: 188c 0bbd ba64 aebd bcca c13d 3a5c d7bd
000000e0: e0ea 0e3d f2be b73d d40a 0abd 900a d7bd
000000f0: a8d9 e73d e0b4 313d 12ad bebd 3690 af3d
00000100: a01f edbc d861 fd3c f0b8 8ebd 28e8 c1bc
00000110: 902f ed3d 20ce edbb e80c bbbc a6f0 81bd
00000120: c014 fc3b 7094 83bd 2880 3bbd 80b0 663c
00000130: b8cd a93c 5887 c03c 28c5 a03c 4a13 b6bd
00000140: 9449 96bd f4b5 4cbd 7c70 bd3d 7021 803c
00000150: bc02 27bd 3ab6 b8bd f052 a0bc 70a6 a5bc
00000160: 5c55 74bd 003a e43c 505a ec3c 4c3d 5abd
00000170: 28f4 433d a015 39bc dcf2 1b3d be56 c1bd
00000180: 2496 463d 9099 973d b847 93bc f0d2 8abd
00000190: 2095 2c3d 90d1 adbc 782f b4bc 98e8 63bd
000001a0: e0ed f33c 481c 34bd 0029 aebb 38f9 47bd
000001b0: 8281 afbd d862 643d 0864 433d 24af 99bd
000001c0: c8e8 d13c e6cb 933d 3609 f6bd acda e13d
000001d0: 1477 11bd 909a 003d aaab f6bd 8265 fa3d
000001e0: 8851 10bd 587f d6bc 02e6 9f3d 445c eebd
000001f0: 5a32 e5bd 74b3 363d 8291 d8bd e0e2 e3bd
00000200: 2c7a 16bd 3c86 54bd 302e db3d 7038 8b3d
00000210: 5cbf 91bd 222e c1bd c020 2e3d 18e5 f13c
00000220: fe37 a7bd 40df dc3b f85c 533d 40f2 54bc
00000230: 9cdc 923d 902e b4bd a0bd 70bd f042 c83d
00000240: bcdd c23d 7cd5 4cbd 5c59 9a3d bcfe 10bd
00000250: ea02 903d e0a3 4e3c eeab d9bd 588c 813c
00000260: 18e4 623d 44ab 0e3d 20f6 c33b a0cd fc3b
00000270: c4c3 3d3d 1a05 ecbd c4a3 d43d d6c3 edbd
00000280: 3093 2f3c d60c b33d 40ac 34bc b296 abbd
00000290: 30f2 413c 70a2 ac3d 308e a33d 7404 f63d
000002a0: e006 cbbd fa0e c2bd 382b 803c c07e f73d
000002b0: ae51 b4bd 54f1 6d3d a04f e6bc de4c e33d
000002c0: 5479 a9bd f8b5 0dbd 1896 15bd a8d6 fdbd
000002d0: 882e 9c3d 7089 1c3c 1858 ff3c 20ed 953b
000002e0: 50ff ca3c 2813 c5bd 401a 433c 1095 fc3d
000002f0: a8aa f83d 4093 573c 74df 553d eaa4 b23d
00000300: 88ce d03c 84cd 09bd 42ae b23d c609 b73d
00000310: 38c6 063d 90bf 4b3c f889 69bd 8413 31bd
00000320: 1661 ef3d 9ed7 ff3d 782e b73d e0dc 293c
00000330: 1483 ce3d c081 5fbb 4619 be3d ecf6 49bd
00000340: d070 f43c 005a 313b 4023 993c 90e8 eb3d
00000350: 783c d5bd d84c 0fbd dc73 b7bd ee97 b93d
00000360: 602b 5a3c f0e8 9b3d 88dc e2bc bce9 23bd
00000370: 8009 aa3c f83c f73d 8019 803a 00f4 4d3b
00000380: f818 0fbd 76e0 bcbd defe e53d 4210 ffbd
00000390: e26c 833d 08cb b8bc 70c9 d0bd 6e80 8ebd
000003a0: c095 1e3d 82ba d4bd 0838 453d 40cc b53c
000003b0: b097 3c3d 7850 803c 9818 283d c28f c93d
000003c0: 1840 ec3c 58bd 933d 963e a63d dcf9 bcbd
000003d0: 942d bd3d 1cfc 42bd 1ad4 c2bd 0403 c4bd
000003e0: b4b8 62bd a8af f93c 4014 1ebc c06a 42bb
000003f0: 9057 5d3c 5ef7 b03d bc7c 213d 00fe 0bbb

nikkei_encoder.lstm.weight_hh_l0 f4 [256, 64]
-0.08190961 -0.046487972 0.008914664 -0.10390891 -0.09072825 -0.098455295 0.12172137 0.041275308
0.03967589 0.11815725 -0.074302 -0.07735592 0.064680025 -0.018921703 0.12085129 0.09644917
-0.0021588653 0.036261976 -0.06643714 0.09854075 0.06774847 -0.0028972775 -0.12288214 -0.029267475
-0.08354765 0.07021071 0.1075217 -0.09322336 0.092412636 0.11101988 -0.06671509 -0.11478479
0.037671074 -0.015366435 -0.12287879 0.058239713 -0.07603864 0.06241846 -0.03862515 0.09005232
-0.038202047 -0.03958504 -0.042579547 -0.09865479 -0.12218465 -0.035388857 0.05626312 -0.05429934
0.109816834 -0.11951181 -0.05266583 0.07685985 0.0342997 0.09058598 0.06316298 -0.06147118
0.031084433 -0.03962931 -0.03404641 0.060197026 -0.12252806 -0.11322899 -0.07295583 0.02684322
-0.022649199 0.0677627 -0.008181125 -0.054502532 0.0696387 -0.043779314 -0.098127514 -0.07631713
0.07814467 0.058691487 -0.09602618 -0.10376316 -0.005650699 0.10874064 0.011324987 0.011538595
0.085941926 0.08827485 -0.07102305 -0.065510154 0.0885663 0.09252499 -0.106359124 -0.058126807
0.0009133965 -0.018006235 0.015866041 0.11108482 -0.115648285 0.03779185 -0.039309487 -0.0986961
0.013693139 -0.113062054 -0.05519052 -0.038314983 -0.116425976 -0.06600912 -0.10271631 0.032662585
-0.08204806 0.03824842 0.021606788 0.014153063 0.0049390495 0.031727374 -0.06839858 -0.05468899
0.076436475 0.070227236 0.11289084 -0.12107888 0.06835505 0.0032980442 0.07421905 -0.07925099
0.077051565 -0.00908792 -0.04359363 0.006338939 -0.014835224 0.01974596 0.04061924 -0.08322625
0.07535006 -0.060557052 -0.084083796 -0.044894695 0.109485075 0.05667685 0.019739017 0.025652826
0.11139658 -0.012308806 0.08350764 0.022715583 -0.11749685 -0.03898108 -0.036808595 -0.041241854
0.108037725 0.009171069 -0.032488227 -0.047919586 -0.03022845 -0.0612171 0.056967393 -0.026226163
0.059886843 -0.04359466 -0.09866516 -0.048330307 0.07876572 -0.030495003 -0.11769505 -0.052394196
-0.020669997 0.07555926 0.107381985 0.051717147 0.089589074 0.06269376 0.053942025 0.11639856
-0.08496982 -0.076523274 -0.10953908 -0.08952075 0.10230796 0.02252984 -0.040095225 0.07641636
0.09265661 -0.118019074 0.045027822 -0.10263975 -0.07746062 -0.05185102 -0.049520954 0.067275375
-0.07668316 -0.08469777 0.017371237 -0.0600795 0.05447784 0.12113303 0.096267134 0.11154346
-0.10064238 -0.07296078 0.08056486 0.069239706 -0.0045745075 -0.046614677 -0.06644975 -0.10140701
-0.049712688 0.037241906 -0.1135311 -0.07577826 -0.05546415 0.0016860366 -0.06365493 0.0783229
0.04456173 -0.042783096 -0.08739598 0.02331604 0.10339829 -0.01188086 -0.093727335 0.093341336
-0.1137006 -0.08724044 0.084787995 0.010294065 -0.06893121 -0.015616521 0.11727859 -0.04291685
0.029315546 0.117521584 -0.086447835 0.05552219 0.053306714 -0.016602457 0.06499182 0.018372089
0.10074061 0.0551057 -0.11009614 -0.021343514 -0.0656461 0.038447842 0.11026281 0.105544046
0.035043597 0.08082558 -0.017425612 0.004894614 0.026832417 0.05492501 -0.028869972 0.048024327
0.01998119 -0.111335576 0.0027938783 -0.10571112 0.066688254 0.0342028 -0.056671843 -0.00074227154
00000000: 3ac0 a7bd 2c6a 3ebd d00e 123c 32ce d4bd
00000010: bccf b9bd eea2 c9bd 0e49 f93d 4c10 293d
00000020: 3083 223d 6efc f13d a62b 98bd c86c 9ebd
00000030: f676 843d b001 9bbc e280 f73d 2487 c53d
00000040: c07b 0dbb 7087 143d 3210 88bd bccf c93d
00000050: b6bf 8a3d 40e0 3dbb a2a9 fbbd 58c2 efbc
00000060: 081b abbd a2ca 8f3d 5634 dc3d e4eb bebd
00000070: d642 bd3d 645e e33d eca1 88bd 4a14 ebbd
00000080: fc4c 1a3d 80c3 7bbc e0a7 fbbd c48c 6e3d
00000090: 26ba 9bbd 80aa 7f3d 6835 1ebd 5a6d b83d
000000a0: c079 1cbd ec23 22bd e467 2ebd 860b cabd
000000b0: f23b fabd e8f3 10bd 2874 663d fc68 5ebd
000000c0: a6e7 e03d 9cc2 f4bd 20b8 57bd b268 9d3d
000000d0: d87d 0c3d 2485 b93d 985b 813d 34c9 7bbd
000000e0: c8a4 fe3c 5852 22bd 4074 0bbd 2891 763d
000000f0: feef fabd 9ae4 e7bd de69 95bd 50e6 db3c
00000100: d08a b9bc 2cc7 8a3d 200a 06bc 0c3e 5fbd
00000110: bc9e 8e3d f051 33bd 14f7 c8bd 284c 9cbd
00000120: 500a a03d 7c66 703d 60a9 c4bd c881 d4bd
00000130: 8029 b9bb 6ab3 de3d 708c 393c 600c 3d3c
00000140: 5202 b03d 72c9 b43d 8874 91bd 302a 86bd
00000150: 4062 b53d be7d bd3d d0d2 d9bd 6016 6ebd
00000160: 0071 6f3a d081 93bc 80f9 813c 7080 e33d
00000170: 02d9 ecbd a0cb 1a3d fc02 21bd 2e21 cabd
00000180: 3059 603c 148d e7bd 740f 62bd 2cf0 1cbd
00000190: be70 eebd ca2f 87bd ee5c d2bd 34c9 053d
000001a0: d008 a8bd 60aa 1c3d b800 b13c 40e2 673c
000001b0: c0d7 a13b 90f4 013d 8e14 8cbd 9001 60bd
000001c0: ba8a 9c3d 4cd3 8f3d 5033 e73d 34f8 f7bd
000001d0: bcfd 8b3d 0024 583b 2800 983d 584e a2bd
000001e0: 36cd 9d3d 80e5 14bc 3c8f 32bd e0b6 cf3b
000001f0: 700f 73bc 48c2 a13c 5c60 263d 8672 aabd
00000200: 2251 9a3d ac0a 78bd 2034 acbd 80e3 37bd
00000210: b639 e03d fc25 683d b8b3 a13c e025 d23c
00000220: e423 e43d e0aa 49bc 0e06 ab3d 0816 ba3c
00000230: 30a2 f0bd a0aa 1fbd 9cc4 16bd 38ed 28bd
00000240: e242 dd3d 4042 163c 6012 05bd 5447 44bd
00000250: a8a1 f7bc c8be 7abd a456 693d 40d8 d6bc
00000260: e84b 753d 5090 32bd f610 cabd 00f6 45bd
00000270: ec4f a13d a8d0 f9bc 1a0a f1bd 4c9b 56bd
00000280: 2054 a9bc d0be 9a3d 16eb db3d 5cd5 533d
00000290: 7a7a b73d 9665 803d 50f2 5c3d 5e62 ee3d
000002a0: a804 aebd 3cb8 9cbd 0656 e0bd a856 b7bd
000002b0: d686 d13d 8090 b83c e43a 24bd 2e80 9c3d
000002c0: c0c2 bd3d fcb3 f1bd 186f 383d ca34 d2bd
000002d0: aca3 9ebd bc61 54bd 7cd6 4abd acc7 893d
000002e0: 100c 9dbd 0676 adbd 204e 8e3c ec15 76bd
000002f0: 2824 5f3d 9814 f83d b427 c53d e670 e43d
00000300: 981d cebd 766c 95bd 30ff a43d 8ccd 8d3d
00000310: c0e5 95bb 08ef 3ebd ce16 88bd 7aae cfbd
00000320: 889f 4bbd f88a 183d fe82 e8bd a231 9bbd
00000330: 602e 63bd 00fe dc3a 845d 82bd c267 a03d
00000340: 5c86 363d 543d 2fbd aafc b2bd 4801 bf3c
00000350: 7cc2 d33d f0a7 42bc 1ef4 bfbd be29 bf3d
00000360: dcdb e8bd 1eab b2bd 54a5 ad3d 70a8 283c
00000370: ce2b 8dbd 70dc 7fbc c22f f03d 94c9 2fbd
00000380: 2827 f03c 28af f03d 900b b1bd 3c6b 633d
00000390: 2458 5a3d e001 88bc 6e1a 853d 1081 963c
000003a0: 1851 ce3d 84b6 613d 167a e1bd 98d8 aebc
000003b0: 7671 86bd 7c7b 1d3d 78d1 e13d 7a27 d83d
000003c0: e089 0f3d e287 a53d 28c0 8ebc 0063 a03b
000003d0: a8cf db3c 0cf9 603d b880 ecbc 28b5 443d
000003e0: 98af a33c e803 e4bd 8019 373b 127f d8bd
000003f0: da93 883d 3c18 0c3d bc20 68bd 0095 42ba

nikkei_encoder.lstm.bias_ih_l0 f4 [256]
-0.08312236 0.006865591 -0.115884945 0.10122186 -0.105560675 -0.06205274 0.007888779 0.06717825
-0.01687193 0.07430664 -0.12363315 0.010074347 0.06310792 -0.038219705 -0.040840358 0.08848071
0.06506936 -0.061622337 0.07124545 -0.09296581 0.07822274 0.0542403 -0.079136774 0.06324503
0.12458691 0.0060454607 0.013248816 -0.024970427 0.113492936 -0.0012174249 0.030467853 0.0034260899
-0.005812913 -0.015152782 0.10627721 -0.058771938 0.10060972 0.11183782 0.072502345 0.11729491
-0.094310746 -0.013464242 -0.10982679 -0.040415928 -0.0023230165 -0.10396576 0.08861628 0.047063977
-0.05062428 0.113911405 -0.074433506 -0.034411043 0.05377899 -0.0050605834 0.05911322 -0.0027581304
0.042457387 0.012533382 0.09092671 -0.09676322 0.12377222 -0.09116927 -0.043421537 -0.062306926
0.12373617 0.0719758 -0.09336366 0.035377547 0.01603645 0.07846959 0.10027549 0.057349354
0.0038556755 -0.10646181 0.11171427 -0.047487363 0.03582345 0.04990883 -0.11481579 0.09904586
0.092098385 0.07329741 0.04107362 -0.021603063 -0.07867639 -0.090553254 -0.03390427 0.099255145
-0.08717154 -0.016847432 -0.0696978 0.045387074 0.070749074 -0.073667884 -0.023754269 0.10923594
0.07658762 0.08110972 -0.1106327 -0.037907347 -0.066518486 0.07214472 -0.12180731 0.06363045
0.03868802 -0.121937275 -0.039586037 0.057477817 0.09850648 0.108595446 -0.06916906 -0.097526655
0.018224657 -0.023865953 0.094882995 -0.04750666 -0.003299296 -0.008819759 0.06447999 -0.093774855
-0.0459352 -0.0031377971 0.06477904 -0.0053453743 0.07817358 -0.11638677 -0.08590673 0.12451765
0.0817031 0.0010644197 -0.10744813 -0.030110568 -0.012777418 -0.08560838 -0.06954302 -0.0268379
-0.072888866 0.09704526 0.019426987 0.09195684 -0.089253426 0.10651405 0.03822711 -0.0024356842
-0.028853431 0.017799363 0.03543812 -0.04691045 0.041700765 -0.05658418 0.08148669 -0.00044970214
0.022502407 -0.00039879978 -0.12429465 -0.00712502 0.09729479 -0.033672705 0.08007404 -0.0049616694
0.008139193 0.102443695 -0.014742911 -0.078786224 -0.019710526 0.011665404 -0.04809445 -0.09353058
-0.0007164031 -0.027623966 -0.040644437 -0.067628786 -0.021308407 0.08395012 0.106343776 0.07168844
0.080879465 0.044396996 -0.121266454 0.057638645 -0.04236327 -0.1021494 -0.11848095 0.078630865
0.09788574 -0.007920489 -0.029313669 -0.10883747 -0.0905942 0.0059240162 0.11324161 0.07814126
0.05449769 -0.07409553 -0.0931821 0.062201917 0.03686598 -0.075391784 -0.04202774 -0.092002556
-0.10979304 0.07701893 0.09130137 -0.120037615 -0.045310393 0.041211188 0.108435616 0.11821975
0.03905958 -0.07084589 -0.033680886 -0.044451624 -0.06507322 -0.070325345 0.071571946 0.0795567
0.04359439 0.05395642 0.024347126 -0.12015849 -0.0404865 0.06679472 0.09316188 0.02781953
-0.11308847 -0.11802074 -0.00943023 0.02556622 0.06823178 0.05197522 0.047952756 -0.038718164
0.117654115 0.071428925 -0.0296285 -0.11769429 0.09485987 0.09962267 0.09389627 0.11567889
-0.0675787 -0.112041295 -0.050627246 0.12056896 0.09620315 0.1234117 0.040115163 0.09818484
-0.12453757 -0.094713524 -0.11812909 -0.08255042 0.06496839 0.09844585 0.09846555 0.010908559
00000000: 0e3c aabd c0f8 e03b 1655 edbd 684d cf3d
00000010: 3230 d8bd 042b 7ebd f03f 013c c094 893d
00000020: 0037 8abc 142e 983d 6033 fdbd e00e 253c
00000030: ba3e 813d 448c 1cbd 3848 27bd 6035 b53d
00000040: 1643 853d b467 7cbd 22e9 913d dc64 bebd
00000050: 3e33 a03d 142b 5e3d 7612 a2bd 9c86 813d
00000060: 6c27 ff3d 0019 c63b 9011 593c c88e ccbc
00000070: fc6e e83d 0092 9fba b897 f93c 4088 603b
00000080: 407a bebb 6043 78bc dea7 d93d d8ba 70bd
00000090: 780c ce3d 3a0b e53d 1c7c 943d 5038 f03d
000000a0: fe25 c1bd 2099 5cbc deec e0bd 2c8b 25bd
000000b0: c03d 18bb 00ec d4bd 747c b53d 28c6 403d
000000c0: 685b 4fbd 624a e93d 9870 98bd 98f2 0cbd
000000d0: 5c47 5c3d 40d3 a5bb b420 723d c0c1 34bb
000000e0: cce7 2d3d d058 4d3c c837 ba3d cc2b c6bd
000000f0: 4a7c fd3d f4b6 babd c8da 31bd 8c35 7fbd
00000100: 6469 fd3d 0c68 933d 7235 bfbd 0ce8 103d
00000110: e05e 833c aab4 a03d 3c5d cd3d 28e7 6a3d
00000120: 80af 7c3b a608 dabd 74ca e43d 1c82 42bd
00000130: 9cbb 123d 346d 4c3d 8a24 ebbd 8ed8 ca3d
00000140: 149e bc3d f41c 963d d03c 283d e8f8 b0bc
00000150: 1621 a1bd fc73 b9bd 34df 0abd 4846 cb3d
00000160: fe86 b2bd a003 8abc b8bd 8ebd cce7 393d
00000170: e4e4 903d 30df 96bd 5098 c2bc 18b7 df3d
00000180: f8d9 9c3d da1c a63d 6693 e2bd bc44 1bbd
00000190: d83a 88bd 9cc0 933d 1c76 f9bd ae50 823d
000001a0: 5477 1e3d 40ba f9bd f824 22bd dc6d 6b3d
000001b0: c4bd c93d 4a67 de3d 82a8 8dbd 0ebc c7bd
000001c0: e04b 953c 8882 c3bc 0452 c23d 5896 42bd
000001d0: 0039 58bb c080 10bc 160e 843d 080d c0bd
000001e0: 8c26 3cbd 80a3 4dbb e0aa 843d 4028 afbb
000001f0: 7819 a03d 305c eebd deef afbd 1c03 ff3d
00000200: f453 a73d 0084 8b3a c40d dcbd 70aa f6bc
00000210: 6058 51bc 7253 afbd 926c 8ebd 28db dbbc
00000220: c246 95bd aabf c63d 5825 9f3c de53 bc3d
00000230: 80ca b6bd 0a24 da3d 0894 1c3d 00a0 1fbb
00000240: 085e ecbc f8cf 913c 9027 113d 2c25 40bd
00000250: 6cce 2a3d d0c4 67bd 7ee2 a63d 00c6 ebb9
00000260: f856 b83c 0016 d1b9 328e febd 0079 e9bb
00000270: 7e42 c73d 64ec 09bd dcfd a33d 8095 a2bb
00000280: 405a 053c 00ce d13d 408c 71bc ac5a a1bd
00000290: f877 a1bc 4020 3f3c b0fe 44bd f68c bfbd
000002a0: 00cd 3bba a84b e2bc c87a 26bd f680 8abd
000002b0: f88e aebc 0aee ab3d c4ca d93d 64d1 923d
000002c0: 22a4 a53d a0d9 353d 8c5a f8bd 8016 6c3d
000002d0: 1c85 2dbd b433 d1bd 24a6 f2bd 3809 a13d
000002e0: 5278 c83d f0c4 01bc 3823 f0bc 2ee6 debd
000002f0: 7489 b9bd 401e c23b 38eb e73d 8608 a03d
00000300: f838 5f3d 66bf 97bd 42d6 bebd 70c7 7e3d
00000310: c800 173d 0267 9abd 4825 2cbd d66b bcbd
00000320: 2cdb e0bd 1abc 9d3d 36fc ba3d 48d6 f5bd
00000330: 6497 39bd 10cd 283d 7e13 de3d 321d f23d
00000340: f0fc 1f3d a617 91bd f8f4 09bd e812 36bd
00000350: 1c45 85bd bc06 90bd 5094 923d a0ee a23d
00000360: 0890 323d 6801 5d3d a073 c73c a815 f6bd
00000370: 2cd5 25bd accb 883d a8cb be3d c8e5 e33c
00000380: ee9a e7bd dcb4 f1bd 4081 1abc 4070 d13c
00000390: 1abd 8b3d f8e3 543d 1c6a 443d f096 1ebd
000003a0: a4f4 f03d 5449 923d 78b7 f2bc b409 f1bd
000003b0: e445 c23d f806 cc3d b04c c03d 0ee9 ec3d
000003c0: b466 8abd e875 e5bd 845e 4fbd dcec f63d
000003d0: 2806 c53d 46bf fc3d cc4f 243d 2215 c93d
000003e0: 8e0d ffbd 2af9 c1bd aaed f1bd 3210 a9bd
000003f0: 260e 853d fa9d c93d 4ea8 c93d d0b9 323c

nikkei_encoder.lstm.bias_hh_l0 f4 [256]
-0.0049886107 0.039641514 0.09312628 0.041102886 -0.022193745 0.07912925 0.009184092 -0.11954175
0.031681567 0.10971595 -0.023436546 -0.09976588 -0.099582285 0.108039826 -0.04080735 -0.08399734
-0.050681457 -0.021572068 0.009098411 0.03989458 0.07364702 0.019745335 0.10585663 -0.11982925
0.08610545 -0.020794615 -0.02477628 -0.060155496 0.049704626 -0.047248125 0.06311484 0.0595946
-0.079470456 0.07137291 0.06402591 0.060010016 -0.097531945 -0.043748632 0.00094394386 0.016750887
0.08696148 0.053765178 -0.07870461 -0.09923412 -0.0611113 0.037840277 -0.12012693 -0.05916828
-0.096305355 0.106437236 0.065979555 0.019156903 -0.027694225 -0.034839794 0.110004425 -0.11375731
0.06631385 -0.054409802 -0.11074555 0.016370386 0.03958702 0.045097664 -0.09052786 -0.04991637
-0.0167128 0.07266994 -0.1188087 0.12277271 -0.041383103 -0.068142325 -0.080828026 0.085088745
0.076771766 -0.08982076 0.04843101 -0.020616472 0.0042945743 -0.023779795 0.08513142 0.002132848
0.0108318925 0.036763147 -0.024413183 0.07153149 0.03229274 -0.085109666 0.05274324 -0.0130678415
-0.004236743 0.03755577 -0.020818725 0.013676703 0.033554822 0.0676851 -0.019768998 0.012804583
-0.035603017 -0.04507357 0.017523289 0.038402587 -0.023553237 0.067048386 -0.09795801 0.104546756
0.058202803 0.08798735 0.06760332 0.10629837 0.11816001 0.0572201 -0.06274721 0.05854763
-0.008077741 0.090116456 -0.112827435 -0.1241311 0.0034108758 -0.008252189 0.081437096 0.04533641
-0.019920796 -0.045210704 -0.087588266 0.108677804 -0.11888923 -0.030604899 -0.039336145 -0.08041948
-0.054575846 -0.07886051 -0.01629585 -0.09997159 -0.05192505 0.07000971 -0.1032695 -0.06509325
0.036650658 0.09864612 -0.057473913 -0.036973745 0.04739985 -0.04665847 -0.025776878 0.031445295
0.018625379 0.041955426 0.08787443 0.017989531 -0.024947852 -0.056384355 0.021324664 -0.04675232
-0.10579334 0.0022654384 -0.04259385 -0.07097778 0.017776027 0.12289165 0.05775398 -0.02635999
-0.03962712 0.081134975 -0.08898367 0.12070258 0.037090197 -0.05464953 -0.057221368 0.009722188
0.028075054 -0.07490946 0.103561476 -0.011719167 -0.008407056 0.046201438 0.1202158 0.03707309
-0.04057564 -0.03214532 0.03663844 0.11592089 -0.090324715 0.04164718 0.022547022 0.084787995
0.124344975 -0.060586825 0.05538541 -0.034069598 -0.03034468 0.0023833364 0.10103686 -0.12056251
0.008180499 -0.09618126 0.07753539 -0.09778386 -0.0805794 -0.011581004 0.022185639 -0.060954496
0.0011476129 -0.0384323 0.06680454 0.07532099 0.12196396 0.11841352 -0.08644572 0.08696699
-0.0072532594 0.008717746 -0.08279154 0.09652868 0.10539992 -0.11881152 -0.010937065 0.042563766
-0.06855622 0.03526202 -0.002305746 -0.009407312 0.1137166 0.090144426 -0.054777533 -0.018917099
-0.051187158 0.024814278 -0.00480099 0.00059325993 -0.06746781 0.12168077 -0.073833376 0.06898506
0.007956892 -0.10817756 0.04803945 0.021047756 0.044269413 0.031155735 -0.07930599 -0.11075619
-0.1137864 -0.013538957 -0.0319878 0.07752283 0.008018792 -0.054054737 0.07998562 0.028139666
-0.031844065 0.052783906 0.1086607 -0.039777383 0.05328904 0.025482759 -0.11522749 -0.104916185
00000000: 8077 a3bb 245f 223d feb8 be3d 805b 283d
00000010: a8cf b5bc 840e a23d e078 163c 4ed2 f4bd
00000020: 88c4 013d c2b2 e03d 00fe bfbc 0e52 ccbd
00000030: ccf1 cbbd fc43 dd3d 9c25 27bd cc06 acbd
00000040: 5c97 4fbd e8b7 b0bc 8011 153c 8068 233d
00000050: 40d4 963d f8c0 a13c 5ccb d83d 0a69 f5bd
00000060: 0e58 b03d 7859 aabc a0f7 cabc 9c65 76bd
00000070: 1497 4b3d 4087 41bd 5a42 813d 7819 743d
00000080: 68c1 a2bd f62b 923d 0420 833d 10cd 753d
00000090: d4be c7bd c431 33bd 0073 773a 2839 893c
000000a0: dc18 b23d e038 5c3d e22f a1bd 423b cbbd
000000b0: d84f 7abd 68fe 1a3d 1c05 f6bd 705a 72bd
000000c0: be3b c5bd c4fb d93d 4a20 873d f0ee 9c3c
000000d0: 00df e2bc 2cb4 0ebd 004a e13d 98f9 e8bd
000000e0: 8ecf 873d d0dc 5ebd 90ce e2bd 301b 863c
000000f0: 0026 223d 54b8 383d ac66 b9bd 1c75 4cbd
00000100: 48e9 88bc fad3 943d fa51 f3bd 4270 fb3d
00000110: 5481 29bd 348e 8bbd 2a89 a5bd 0243 ae3d
00000120: 843a 9d3d f2f3 b7bd 985f 463d e0e3 a8bc
00000130: 80b9 8c3b d8cd c2bc 6259 ae3d 40c7 0b3b
00000140: 4078 313c f494 163d 28fe c7bc 1a7f 923d
00000150: 6445 043d fa4d aebd 4c09 583d 801a 56bc
00000160: 60d4 8abb 14d4 193d 088c aabc 4014 603c
00000170: c870 093d 7c9e 8a3d 98f2 a1bc 50ca 513c
00000180: 78d4 11bd 109f 38bd 008d 8f3c 084c 1d3d
00000190: b8f2 c0bc aa50 893d 369e c8bd 9c1c d63d
000001a0: 1066 6e3d b632 b43d 9c73 8a3d f6b2 d93d
000001b0: e0fd f13d a05f 6a3d 9c81 80bd a4cf 6f3d
000001c0: 8058 04bc fa8e b83d 1212 e7bd 7238 febd
000001d0: 0089 5f3b 3034 07bc 7ec8 a63d acb2 393d
000001e0: f030 a3bc dc2e 39bd 7a61 b3bd 7892 de3d
000001f0: 327c f3bd 20b7 fabc f01e 21bd f8b2 a4bd
00000200: ec8a 5fbd 9e81 a1bd e07e 85bc e8bd ccbd
00000210: 5caf 54bd 4061 8f3d f67e d3bd 9c4f 85bd
00000220: 001f 163d fa06 ca3d c469 6bbd c871 17bd
00000230: 5826 423d f41c 3fbd 082a d3bc c8cc 003d
00000240: 4094 983c 74d9 2b3d 82f7 b33d c85e 933c
00000250: 705f ccbc 48f3 66bd 10b1 ae3c 5c7f 3fbd
00000260: 2eaa d8bd c077 143b e476 2ebd cc5c 91bd
00000270: 089f 913c 9eae fb3d 708f 6c3d e8f0 d7bc
00000280: 0c50 22bd 182a a63d 123d b6bd ea32 f73d
00000290: e4eb 173d 30d8 5fbd f460 6abd d049 1f3c
000002a0: a8fd e53c 226a 99bd 0a18 d43d c001 40bc
000002b0: c0bd 09bc b83d 3d3d b433 f63d f4d9 173d
000002c0: a432 26bd d0aa 03bd 3012 163d ee67 ed3d
000002d0: 2afc b8bd 3c96 2a3d 88b4 b83c 54a5 ad3d
000002e0: 94a8 fe3d e429 78bd d0db 623d 908c 0bbd
000002f0: 6895 f8bc c031 1c3b 6aec ce3d 7ae9 f6bd
00000300: 8007 063c aefa c4bd e0ca 9e3d e842 c8bd
00000310: d006 a5bd 40be 3dbc a8be b53c 6cab 79bd
00000320: 806b 963a 306b 1dbd d2d0 883d e441 9a3d
00000330: 3ec8 f93d ca82 f23d 740a b1bd c01b b23d
00000340: c0ac edbb e0d4 0e3c 9c8e a9bd d4b0 c53d
00000350: eadb d73d 7453 f3bd 6031 33bc 5857 2e3d
00000360: 3467 8cbd e86e 103d 001c 17bb 2021 1abc
00000370: 40e4 e83d a49d b83d 685e 60bd 08f8 9abc
00000380: a0a9 51bd 5047 cb3c a051 9dbb 0085 1b3a
00000390: 902c 8abd c433 f93d f435 97bd 0a48 8d3d
000003a0: a05d 023c 328c ddbd 04c5 443d 586c ac3c
000003b0: d853 353d 503a ff3c 2e6b a2bd 24d4 e2bd
000003c0: d808 e9bd 80d2 5dbc a405 03bd 4ac4 9e3d
000003d0: 4061 033c 8068 5dbd 80cf a33d 2885 e63c
000003e0: ec6e 02bd f033 583d 8089 de3d 9ced 22bd
000003f0: 9c45 5a3d 38c1 d03c 64fc ebbd 4cde d6bd

nikkei_encoder.lstm.weight_ih_l1 f4 [256, 64]
0.11206202 0.02864486 0.080868945 -0.121852964 -0.12051779 -0.027055264 0.004740417 -0.08735447
0.0044920146 -0.08410221 -0.123543724 -0.028726444 -0.08400647 0.06661546 0.009318486 -0.12198122
0.013360053 -3.272295e-05 -0.052504495 -0.073733196 0.09960039 -0.060570866 -0.08353394 -0.090521336
-0.036893457 0.12161 0.10062225 -0.05972044 0.043390483 -0.006470546 0.056150794 0.11139394
0.00700064 0.026906073 0.079606846 0.08624743 -0.06039585 0.07791853 -0.1248316 0.033950135
-0.07983588 -0.109091416 0.03155023 0.015849486 -0.07722615 0.046583667 -0.06874403 0.095986426
0.04131651 -0.021606922 -0.04184793 0.028898373 -0.059972495 0.0325294 -0.004251972 -0.119118944
-0.09179975 -0.09975527 0.0589782 -0.08101849 0.07271758 0.096425414 0.083236545 0.043655425
-0.008892715 0.070350334 0.0035547018 -0.053681344 -0.06873278 0.111462325 -0.08247556 -0.0902794
0.108872324 0.006640494 0.095625594 0.11573522 0.09953667 -0.11848429 0.10976675 -0.058963463
0.122342795 -0.1190297 -0.10380407 0.05533704 0.05632168 0.09712835 0.10170178 0.059045643
0.046634004 0.06359851 0.059216917 0.048052877 0.024592802 -0.0071633607 -0.04358898 0.0070311576
-0.05090408 -0.068654716 -0.040159628 0.017520845 -0.0108195245 -0.10091744 -0.014771894 -0.10999888
0.051912278 -0.00986205 0.008558169 -0.12169474 -0.09388295 -0.10346539 -0.07369952 0.06622629
0.063454926 0.02751866 0.11645186 -0.014937386 -0.03281215 0.047528103 0.107685775 0.022759244
-0.06597549 0.045509055 0.024957955 -0.032097265 0.036643073 -0.09763995 -0.08913392 -0.1098934
-0.08573267 -0.11197662 -0.0869614 -0.053717524 0.051770806 0.085289076 0.11067344 0.078125
0.042165637 0.109294236 0.08573802 -0.0717769 0.08403574 0.013963655 -0.10377139 0.07434395
-0.023892432 -0.078502476 0.091367826 -0.092379555 -0.06882268 0.10177529 0.09580541 -0.002582088
-0.033325985 0.07703373 -0.015136808 0.02007334 0.11738317 0.115925804 0.097600594 -0.035204783
-0.011165783 0.11789629 0.04338178 0.023401767 0.02215086 0.06573084 -0.042868912 -0.0457215
-0.04021105 0.0034706593 -0.0303206 0.062461317 -0.065200284 0.029570982 0.12155044 0.057283998
-0.10446434 -0.048486784 -0.0064516515 -0.07690768 -0.03632769 -0.073484674 -0.06911363 0.11033137
0.04738173 -0.03223224 -0.013946593 0.0026972145 -0.013351113 -0.028261155 -0.011676908 0.0034882128
0.019940093 -0.015272424 -0.0432667 -0.1239907 0.096255556 0.06909534 -0.05526218 -0.07470468
0.03457533 -0.005493164 -0.09174262 0.07453315 0.044626996 0.08238277 0.018550277 0.0031546652
0.07607357 -0.004946783 0.11233261 -0.045940652 -0.098073065 -0.10211198 0.12400761 0.096944705
-0.016865492 0.005370587 0.083718225 0.11246733 0.006766781 0.09942284 0.0015939772 0.08945155
0.08151017 -0.07346016 -0.11228466 0.0404696 -0.074211925 -0.03358768 -0.057431713 0.012690932
0.1002426 -0.04920867 -0.09524593 -0.061141223 0.10114661 0.1103642 0.014446303 -0.07156235
0.016905546 0.07724126 0.08441904 -0.044669405 0.08076765 -0.06030993 -0.040745497 0.034403756
0.0029418468 -0.07525842 0.0648554 0.09162173 0.0866324 0.090537995 -0.11617577 -0.025384203
00000000: c680 e53d a0a8 ea3c 9e9e a53d 0c8e f9bd
00000010: 08d2 f6bd 00a3 ddbc 8055 9b3b e6e6 b2bd
00000020: c031 933b c83d acbd 7e04 fdbd b853 ebbc
00000030: 960b acbd b06d 883d 90ac 183c 4ad1 f9bd
00000040: 20e4 5a3c 0040 09b8 f40e 57bd 6e01 97bd
00000050: 4afb cb3d 2819 78bd d813 abbd 4063 b9bd
00000060: 981d 17bd aa0e f93d 0a13 ce3d 6c9d 74bd
00000070: 38ba 313d e006 d4bb 60fe 653d 8222 e43d
00000080: a065 e53b 206a dc3c ea08 a33d 7ea2 b03d
00000090: a461 77bd c093 9f3d b6a7 ffbd 4c0f 0b3d
000000a0: fe80 a3bd 526b dfbd d03a 013d c8d6 813c
000000b0: be28 9ebd 84ce 3e3d acc9 8cbd 8894 c43d
000000c0: 803b 293d 0001 b1bc bc68 2bbd 48bc ec3c
000000d0: b8a5 75bd 8c3d 053d 2054 8bbb a2f4 f3bd
000000e0: 8201 bcbd 7e4c ccbd 2093 713d 06ed a5bd
000000f0: f4ec 943d b07a c53d ec77 aa3d 08d0 323d
00000100: c0b2 11bc d613 903d 00f6 683b f8e0 5bbd
00000110: c6c3 8cbd 5c46 e43d f2e8 a8bd 68e4 b8bd
00000120: 74f8 de3d 8098 d93b 5ad7 c33d 9606 ed3d
00000130: e2d9 cb3d e4a7 f2bd 64cd e03d ac83 71bd
00000140: dc8e fa3d d8c5 f3bd 3a97 d4bd 18a9 623d
00000150: 90b1 663d 3aeb c63d 0649 d03d d8d9 713d
00000160: 4c03 3f3d f03f 823d 708d 723d 18d3 443d
00000170: d876 c93c a0ba eabb 5c8a 32bd a065 e63b
00000180: cc80 50bd d89a 8cbd 6c7e 24bd e087 8f3c
00000190: 6044 31bc cead cebd d005 72bc 1847 e1bd
000001a0: f8a1 543d 7094 21bc 9037 0c3c 183b f9bd
000001b0: b445 c0bd aae5 d3bd c6ef 96bd a6a1 873d
000001c0: a8f4 813d d06e e13c 507e ee3d f0bb 74bc
000001d0: 0866 06bd d4ac 423d 5c8a dc3d 9871 ba3c
000001e0: 281e 87bd b467 3a3d a074 cc3c 6c78 03bd
000001f0: 0c17 163d 74f7 c7bd d88b b6bd ca0f e1bd
00000200: 9c94 afbd 0054 e5bd d218 b2bd e806 5cbd
00000210: a00d 543d 0aac ae3d c2a8 e23d 0000 a03d
00000220: e0b5 2c3d a8d5 df3d 6a97 af3d c4ff 92bd
00000230: ee1a ac3d d0c7 643c 1886 d4bd a441 983d
00000240: 10ba c3bc e8c5 a0bd 0e1f bb3d 7e31 bdbd
00000250: e8f2 8cbd 906f d03d a035 c43d 4038 29bb
00000260: d480 08bd dcc3 9d3d 6000 78bc d870 a43c
00000270: 9666 f03d 826a ed3d d2e2 c73d e432 10bd
00000280: b0f0 36bc 9c73 f13d 18b1 313d 10b5 bf3c
00000290: b875 b53c e49d 863d 5097 2fbd 7846 3bbd
000002a0: 58b4 24bd 0074 633b e862 f8bc 70d7 7f3d
000002b0: ba87 85bd d83e f23c 70ef f83d a0a2 6a3d
000002c0: 66f1 d5bd 149a 46bd 6068 d3bb c681 9dbd
000002d0: 58cc 14bd 227f 96bd 728b 8dbd 6af5 e13d
000002e0: 5813 423d f405 04bd 4080 64bc c0c3 303b
000002f0: a0be 5abc f083 e7bc 8050 3fbc 809a 643b
00000300: 6859 a33c 3039 7abc 6c38 31bd d6ee fdbd
00000310: a221 c53d dc81 8d3d 985a 62bd c4fe 98bd
00000320: dc9e 0d3d 0000 b4bb 8ee3 bbbd d6a4 983d
00000330: ccca 363d 4cb8 a83d c0f6 973c 80be 4e3b
00000340: 76cc 9b3d a018 a2bb a40e e63d 442c 3cbd
00000350: 88da c8bd 1620 d1bd b4f7 fd3d f28a c63d
00000360: 8029 8abc c0fb af3b 7674 ab3d 4655 e63d
00000370: e0bb dd3b 349e cb3d 00ed d03a 6032 b73d
00000380: ceee a63d 4872 96bd 80f5 e5bd 74c3 253d
00000390: 6cfc 97bd 3c93 09bd 843d 6bbd a0ed 4f3c
000003a0: fe4b cd3d 088f 49bd 4c10 c3bd 386f 7abd
000003b0: f425 cf3d a006 e23d 30b0 6c3c 488f 92bd
000003c0: 807d 8a3c aa30 9e3d e4e3 ac3d 44f7 36bd
000003d0: 8269 a53d 8c07 77bd c0e4 26bd f4ea 0c3d
000003e0: 00cc 403b 1621 9abd e8d2 843d 2ca4 bb3d
000003f0: 546c b13d fc6b b93d 90ed edbd 88f2 cfbc

nikkei_encoder.lstm.weight_hh_l1 f4 [256, 64]
-0.0743058 0.11792961 0.07638615 0.0029676706 0.05118993 -0.07363412 -0.049053878 -0.017757297
-0.1221652 0.019260943 -0.0076245666 -0.04867454 0.0003785491 0.04580511 -0.014798522 -0.06999256
0.122278124 -0.042461544 0.05084659 -0.027614906 -0.0010511726 -0.00776428 -0.08530019 0.10879259
-0.06783371 0.06622684 -0.014918327 -0.014313623 0.08006123 -0.0631057 -0.07193586 -0.07668635
-0.07353018 -0.0884694 0.014656797 -0.113461465 -0.011853874 0.05801156 -0.059906736 0.0013529211
-0.11165525 -0.0033387393 0.11232394 0.03720261 -0.114309266 0.029320046 0.096408665 -0.0070649534
-0.09022386 0.12057495 -0.08091973 0.052329674 0.10718317 0.09893882 -0.06895788 -0.08480358
-0.003054276 -0.054186225 0.10018967 -0.00313209 -0.11712289 0.10827963 0.019514382 0.061128378
0.12314077 -0.0013398975 -0.06448588 -0.08806881 0.063372985 -0.065846056 0.055046767 -0.004299283
-0.124969766 0.10162604 -0.017992094 0.058409244 0.0905883 -0.0026334375 0.0063456893 -0.04749152
0.043960676 -0.07183783 0.06680697 -0.010545731 -0.07912956 -0.11004859 -0.10072 0.095225126
0.021445125 -0.12369189 0.017460734 0.10521971 -0.095382795 -0.12342338 -0.087574914 -0.07943022
-0.106040716 0.00065663457 -0.098309994 -0.07464464 -0.08170673 0.041632563 0.036983997 0.11722092
0.016578197 -0.10519184 0.03364122 0.10732739 -0.09790404 -0.016915366 0.09685631 -0.10599688
0.04846768 -0.093871206 0.05741407 0.11423519 -0.07916604 0.026651263 -0.015290067 0.07743333
0.027705416 -0.09291859 -0.06151414 0.049873054 0.11584081 -0.060074344 -0.062926665 0.074713066
-0.05042568 -0.018858671 0.107635766 0.121687084 0.021259308 0.1235974 -0.1166729 -0.12055677
0.08807871 -0.03583415 0.015579984 -0.067737654 -0.08639124 -0.013932183 0.12328352 -0.037336737
-0.030812904 -0.11021049 -0.051613256 -0.022806719 0.042059943 -0.044023544 0.073456764 0.048534453
-0.108066425 0.030122563 0.036986485 -0.009667575 0.11071986 -0.06592062 0.026587829 0.0040158927
-0.013219461 -0.022610217 0.06063035 0.048729002 -0.04002869 -0.051682383 0.07294123 0.0882459
0.043882266 0.054124653 -0.036255747 -0.038166583 0.07741657 0.047120184 -0.12211308 -0.032413945
0.118925646 -0.082229376 0.065818 0.055528775 -0.09415533 0.016121224 0.012655392 0.093201295
-0.012806028 0.1230526 0.08624503 0.10714324 0.03464821 0.0038042516 -0.11537452 -0.024067432
0.093139604 0.087953314 -0.058465466 -0.023731917 -0.0868251 -0.057427853 0.09174748 0.03260994
0.038714916 0.003725931 -0.106952265 -0.039022654 0.044228688 -0.118220225 -0.1003872 0.11352205
-0.059518114 -0.042987883 0.01888609 -0.016079098 -0.013860792 0.036272064 -0.09912677 -0.018424198
-0.077720776 0.03720221 0.116369545 -0.08287084 0.090843186 -0.027910337 -0.025776744 -0.09938115
-0.075060055 -0.05478874 -0.06666149 0.054572627 0.022225305 -0.08570434 0.047173038 0.04706645
-0.073541865 0.08711669 0.071533576 -0.10412349 -0.12294501 0.10986015 0.079334676 -0.10674843
0.0783433 -0.048138425 -0.00046513975 -0.068421975 -0.09271188 0.06232232 0.11667827 -0.070722625
0.03530407 0.035399854 0.07070002 -0.11784968 0.03719996 0.015678585 -0.096176654 0.021850303
00000000: a42d 98bd 1485 f13d 5870 9c3d 407d 423b
00000010: 88ac 513d 7ccd 96bd b8ec 48bd c077 91bc
00000020: c031 fabd 20c9 9d3c 80d7 f9bb f45e 47bd
00000030: 0078 c639 249e 3b3d 8075 72bc 4258 8fbd
00000040: f46c fa3d 28ec 2dbd 8444 503d a838 e2bc
00000050: 80c7 89ba 806b febb deb1 aebd a6ce de3d
00000060: 66ec 8abd f0a1 873d 006c 74bc b083 6abc
00000070: 24f7 a33d 903d 81bd 1c53 93bd bc0d 9dbd
00000080: fe96 96bd 722f b5bd 1023 703c 7c5e e8bd
00000090: c036 42bc 889d 6d3d c460 75bd 8054 b13a
000000a0: 82ab e4bd c0ce 5abb 180a e63d c461 183d
000000b0: fa1a eabd 9830 f03c e871 c53d 2081 e7bb
000000c0: 4ac7 b8bd 00f0 f63d 3eb9 a5bd a457 563d
000000d0: da82 db3d 70a0 ca3d ca39 8dbd 80ad adbd
000000e0: 402a 48bb 60f2 5dbd 3e30 cd3d c043 4dbb
000000f0: 20de efbd b6c1 dd3d a0dc 9f3c c061 7a3d
00000100: 3a31 fc3d 809f afba 2c11 84bd 6c5d b4bd
00000110: b2c9 813d 4cda 86bd b878 613d 00e1 8cbb
00000120: 26f0 ffbd 5021 d03d 2864 93bc 883e 6f3d
00000130: 5c86 b93d c095 2cbb 80ef cf3b 7886 42bd
00000140: 1c10 343d b61f 93bd 18d2 883d 00c8 2cbc
00000150: ae0e a2bd 2861 e1bd 4a46 cebd 6405 c33d
00000160: b0ad af3c 2c52 fdbd d009 8f3c 6e7d d73d
00000170: 0e58 c3bd 66c5 fcbd 7a5a b3bd 50ac a2bd
00000180: e02b d9bd 0022 2c3a c056 c9bd 4adf 98bd
00000190: dc55 a7bd e886 2a3d 887c 173d 8611 f03d
000001a0: 00cf 873c d26e d7bd 60cb 093d 76ce db3d
000001b0: ea81 c8bd 1892 8abc 9a5c c63d e414 d9bd
000001c0: 0c86 463d 8c3f c0bd 042b 6b3d 24f4 e93d
000001d0: ce21 a2bd c053 da3c 3083 7abc 5e95 9e3d
000001e0: 78f6 e23c 1a4c bebd 40f6 7bbd b047 4c3d
000001f0: f23d ed3d 8410 76bd b2df 80bd 2a03 993d
00000200: 288b 4ebd 807d 9abc 2470 dc3d 1437 f93d
00000210: 0028 ae3c a220 fd3d 34f2 eebd 78e6 f6bd
00000220: 9c62 b43d d4c6 12bd 3043 7f3c 0aba 8abd
00000230: e4ed b0bd d043 64bc 127c fc3d 68ee 18bd
00000240: 586b fcbc 0ab6 e1bd 6c68 53bd 28d5 babc
00000250: 0c47 2c3d 0852 34bd 8070 963d 10cc 463d
00000260: ee51 ddbd 98c3 f63c 247f 173d c064 1ebc
00000270: 18c1 e23d 6401 87bd b8ce d93c c097 833b
00000280: 7096 58bc 1039 b9bc 8857 783d 1098 473d
00000290: 20f5 23bd e8b0 53bd 3662 953d 44ba b43d
000002a0: e4bd 333d d0b1 5d3d e880 14bd 9054 1cbd
000002b0: 948c 9e3d 1801 413d 6c16 fabd 7cc4 04bd
000002c0: 4a8f f33d e067 a8bd 96cb 863d 2472 633d
000002d0: 82d4 c0bd a810 843c 9058 4f3c 52e0 be3d
000002e0: 60d0 51bc 0003 fc3d 3ca1 b03d ea6d db3d
000002f0: 48eb 0d3d c050 793b 7a49 ecbd 1029 c5bc
00000300: fabf be3d de20 b43d 7c79 6fbd 7069 c2bc
00000310: 5cd1 b1bd 7839 6bbd 1ae6 bb3d 0092 053d
00000320: 8893 1e3d c02e 743b ca09 dbbd 38d6 1fbd
00000330: 2429 353d 721d f2bd ce97 cdbd 407e e83d
00000340: 44c9 73bd 1014 30bd 00b7 9a3c 50b8 83bc
00000350: 6018 63bc 0492 143d fa02 cbbd 58ee 96bc
00000360: 122c 9fbd 5861 183d 2853 ee3d 30b8 a9bd
00000370: fe0b ba3d 38a4 e4bc c029 d3bc 5888 cbbd
00000380: 16b9 99bd 286a 60bd d285 88bd 8c87 5f3d
00000390: d811 b63c c285 afbd 8438 413d c0c8 403d
000003a0: 1e9d 96bd 3c6a b23d 3280 923d b23e d5bd
000003b0: 98ca fbbd 5cfe e03d 387a a23d ec9e dabd
000003c0: 7472 a03d cc2c 45bd 00de f3b9 d220 8cbd
000003d0: badf bdbd b045 7f3d 04f5 ee3d 06d7 90bd
000003e0: 009b 103d 70ff 103d 2ccb 903d 2c5b f1bd
000003f0: fc5e 183d 6070 803c 44f8 c4bd 68ff b23c

nikkei_encoder.lstm.bias_ih_l1 f4 [256]
0.08160502 -0.024498135 -0.07485922 0.05347061 0.016850099 0.097269386 0.11564125 0.080375314
-0.058823153 -0.042602256 -0.06420931 0.042880908 0.013076633 -0.08027315 -0.071191266 0.08201933
0.06073585 -0.04247783 0.0925982 -0.10728566 0.04310243 0.11143592 0.029910654 -0.12386751
0.10453151 -0.01146315 0.087971 -0.0041460544 -0.042356834 -0.0038806796 -0.08485691 -0.037298024
0.054668725 -0.11186734 0.07220939 -0.02361928 -0.007058829 0.06940848 -0.07996257 0.11795756
0.09517723 -0.11732599 0.08498742 -0.07949212 -0.086192995 -0.02156964 0.08070664 -0.037537232
0.09315167 0.038693443 -0.10871823 -0.03698197 0.096296296 -0.10202606 -0.08926098 0.07088378
0.05045046 0.11431193 -0.07275826 0.07299763 -0.10056509 -0.023546413 0.087604 0.12233509
-0.095516786 0.038836673 0.013665944 0.124706075 -0.07014966 0.005863622 0.086007774 0.10921787
-0.027142897 -0.118859634 0.068072066 -0.122278765 -0.050001055 0.100172445 0.10066344 0.019886777
0.0003951639 -0.06017603 -0.0047965944 -0.11276184 0.065331146 -0.06508456 -0.09576325 -0.005759895
-0.055089563 0.07812917 0.047714084 -0.054259524 0.11209385 0.06866306 0.024684072 -0.017082796
-0.009964436 0.08607198 0.07915631 -0.056826293 -0.043494403 0.06504251 -0.10489634 0.12413913
0.00228028 0.117398515 0.1157285 0.069906905 0.090709195 0.045654744 0.0005029738 0.10427895
0.07499319 -0.09296952 -0.0071151108 0.023874626 -0.08508544 -0.0012267232 -0.046577573 0.0816928
-0.005768195 0.1110888 0.05568759 -0.004678458 -0.10837373 -0.08834368 -0.059091806 0.03221418
0.0053376555 0.06240274 0.09999302 0.09297268 -0.1182487 0.05431369 -0.06867838 -0.044322476
0.00021366775 0.029228494 0.12262066 0.06428446 0.10594712 -0.053761855 0.0044741184 0.050449938
0.1028848 -0.0447018 -0.009317413 -0.104136184 -0.10206567 -0.035240665 -0.095105976 -0.124925405
-0.12058614 -0.04278472 -0.046507552 -0.06525685 -0.067241415 -0.102988124 0.11214717 -0.07272455
0.020791382 0.12167433 -0.011080012 -0.003964156 0.10332599 -0.034395292 -0.007158205 0.06398676
-0.021990329 -0.04378116 -0.01880011 -0.009778455 0.053482488 -0.07795754 0.01736711 -0.0044166
-0.018133268 0.12026852 -0.05752547 -0.0011973381 0.010376096 0.08118352 0.11906198 -0.06482132
0.06023881 -0.060007885 0.003785193 -0.03932719 -0.08867404 0.079298556 -0.11962493 0.092466235
-0.026970714 -0.0795193 -0.111097574 0.03718795 0.00043284893 -0.07819666 -0.04679936 -0.095758006
0.090140626 0.06558825 0.09603219 -0.109458864 -0.10625857 0.11004108 0.09518582 0.04889211
0.006589979 0.03569527 0.07757051 0.12416607 -0.054681376 -0.10608885 -0.056250274 -0.055874467
0.015325338 0.06277639 0.098467186 -0.024418429 0.0038739145 0.10012789 -0.04051836 -0.099665985
0.00069861114 -0.090702385 0.11966133 -0.073871315 -0.08549452 -0.04536511 -0.054355294 0.102142796
-0.07792224 -0.054667816 -0.037252262 0.0704969 0.06294908 -0.106634274 0.04825534 0.025469244
0.10827093 0.061833262 -0.03689146 0.032801673 0.013367325 -0.11291045 -0.08839099 -0.070184916
-0.016857684 -0.01745531 0.07309987 -0.09507765 0.021890387 -0.017381087 0.045275092 -0.08357863
00000000: 8820 a73d 50b0 c8bc ca4f 99bd 0004 5b3d
00000010: 3809 8a3c 2c35 c73d 52d5 ec3d d09b a43d
00000020: 8cf0 70bd b47f 2ebd 2c80 83bd e4a3 2f3d
00000030: 603f 563c 4066 a4bd bacc 91bd c0f9 a73d
00000040: 28c6 783d 3cfd 2dbd 20a4 bd3d 96b8 dbbd
00000050: 2c8c 303d 8438 e43d 3007 f53c 40ae fdbd
00000060: 9e14 d63d f0cf 3bbc 242a b43d a0db 87bb
00000070: 5c7e 2dbd 0053 7ebb 76c9 adbd d0c5 18bd
00000080: 50ec 5f3d b41a e5bd 84e2 933d 387d c1bc
00000090: c04d e7bb 0826 8e3d 6ac3 a3bd bc93 f13d
000000a0: 48ec c23d 9c48 f0bd e20d ae3d c4cc a2bd
000000b0: f485 b0bd d0b2 b0bc 8649 a53d a4c0 19bd
000000c0: 4ec6 be3d 047d 1e3d aaa7 debd 687a 17bd
000000d0: fe36 c53d 0af3 d0bd 76ce b6bd 842b 913d
000000e0: 24a5 4e3d 601c ea3d 4802 95bd c87f 953d
000000f0: 12f5 cdbd 68e4 c0bc ba69 b33d d28a fa3d
00000100: 4e9e c3bd 3413 1f3d 20e7 5f3c e665 ff3d
00000110: a0aa 8fbd a023 c03b d824 b03d 9ead df3d
00000120: c85a debc ae6c f3bd 5e69 8b3d 4a6d fabd
00000130: e8cd 4cbd 3627 cd3d a228 ce3d 98e9 a23c
00000140: 002e cf39 247b 76bd c02c 9dbb aeef e6bd
00000150: 56cc 853d 0e4b 85bd 861f c4bd 80bd bcbb
00000160: 98a5 61bd 3002 a03d d86f 433d 3c3f 5ebd
00000170: 7691 e53d 389f 8c3d 4036 ca3c 38f1 8bbc
00000180: e041 23bc 8246 b03d b41c a23d b0c2 68bd
00000190: 3027 32bd 0235 853d e4d3 d6bd a83c fe3d
000001a0: c070 153b a26e f03d 1003 ed3d 5a2b 8f3d
000001b0: bec5 b93d 7800 3b3d 00da 033a 3490 d53d
000001c0: 0896 993d ce66 bebd e025 e9bb b894 c33c
000001d0: 4641 aebd 00ca a0ba 20c8 3ebd 8e4e a73d
000001e0: 2003 bdbb 8682 e33d ac18 643d c04d 99bb
000001f0: 0cf3 ddbd 88ed b4bd 400a 72bd 04f3 033d
00000200: 80e7 ae3b 049a 7f3d 24c9 cc3d 7668 be3d
00000210: 602c f2bd 0878 5e3d 40a7 8cbd 7c8b 35bd
00000220: 000c 6039 9870 ef3c 8a20 fb3d 92a7 833d
00000230: cefa d83d 6435 5cbd a09b 923b 98a4 4e3d
00000240: 44b5 d23d 3c19 37bd 10a8 18bc 5a45 d5bd
00000250: ce07 d1bd 8458 10bd ecc6 c2bd e4d8 ffbd
00000260: def5 f6bd 083f 2fbd b47e 3ebd 62a5 85bd
00000270: deb5 89bd 70eb d2bd 6aad e53d 9cf0 94bd
00000280: b052 aa3c 6430 f93d f088 35bc c0e5 81bb
00000290: 949c d33d 14e2 0cbd 608f eabb 7e0b 833d
000002a0: 1025 b4bc e053 33bd b002 9abc d035 20bc
000002b0: 7410 5b3d 34a8 9fbd 7845 8e3c 20b9 90bb
000002c0: 388c 94bc 584f f63d d49f 6bbd 00f0 9cba
000002d0: 8000 2a3c 8c43 a63d c4d6 f33d 0ac1 84bd
000002e0: f8bc 763d d4ca 75bd 0011 783b 8c15 21bd
000002f0: bc9a b5bd 4867 a23d eafd f4bd f05e bd3d
00000300: b0f1 dcbc 04db a2bd 2087 e3bd 6452 183d
00000310: 00f0 e239 9225 a0bd b0b0 3fbd c61c c4bd
00000320: a69b b83d 2253 863d 86ac c43d f82b e0bd
00000330: 189e d9bd 385d e13d c8f0 c23d 1843 483d
00000340: c0f0 d73b 3435 123d 4add 9e3d c84a fe3d
00000350: 94f9 5fbd 1c45 d9bd b066 66bd a0dc 64bd
00000360: 2017 7b3c e890 803d 2aa9 c93d 2809 c8bc
00000370: 80e1 7d3b da0f cd3d 94f6 25bd ae1d ccbd
00000380: 0023 373a 2cc2 b9bd 0011 f53d d849 97bd
00000390: c017 afbd c4d0 39bd a8a3 5ebd 3e30 d13d
000003a0: b295 9fbd 5ceb 5fbd d495 18bd ae60 903d
000003b0: 72eb 803d 1263 dabd 64a7 453d e0a4 d03c
000003c0: 26bd dd3d e044 7d3d 801b 17bd 0c5b 063d
000003d0: a002 5b3c 983d e7bd 5606 b5bd 1cbd 8fbd
000003e0: 2019 8abc 70fe 8ebc 62b5 953d 12b8 c2bd
000003f0: 7853 b33c c862 8ebc 6072 393d 462b abbd
