models/trading_model_demo.pth (torch, 931709 bytes, 35 tensors)

nikkei_encoder.lstm.weight_ih_l0 f4 [256, 3]
0	0xbdc8f582	-0.09812452
1	0xbd628878	-0.055305928
2	0x3cdffcd0	0.02734223
3	0xbd55bf4c	-0.052184388
4	0xbd438164	-0.04773082
5	0x3da43f90	0.08019936
6	0xbdcdbada	-0.10045405
7	0xbd7c62f8	-0.06161782
8	0x3de0496c	0.10951504
9	0x3df166dc	0.11787197
10	0xbc9b8b50	-0.018987328
11	0x3df3d11c	0.11905119
12	0x3db09272	0.08621682
13	0x3ce11590	0.027476102
14	0xbd89e62a	-0.067333534
15	0x3c4c34c0	0.012463748
16	0x3c9afa78	0.018918261
17	0x3dd915b2	0.10599841
18	0xbd4f6944	-0.0506375
19	0x3dc20a9e	0.09474681
20	0x3c467500	0.012112856
21	0x3d950662	0.07276608
22	0xbc36b4b0	-0.011151478
23	0x3d91a1ac	0.071109146
24	0x3cc39498	0.023874566
25	0x3db3e8e6	0.08784656
26	0xbd89b54c	-0.06724033
27	0xbd64b750	-0.055838883
28	0xbd7f2d60	-0.062299132
29	0xbda8b61a	-0.08237858
30	0xbd7e7d38	-0.062131137
31	0xbd97cc8a	-0.074120596
32	0x3cf79ed0	0.030227095
33	0x3ca5e790	0.02025202
34	0xbd662df4	-0.056196168
35	0x3d38dbb8	0.045131415
36	0x3cbf6300	0.023362637
37	0x3db685cc	0.089122385
38	0xbdbbaef6	-0.091642305
39	0xbd984334	-0.07434693
40	0xbdf63ab2	-0.12022914
41	0x3df02142	0.117250934
42	0xbdf931d4	-0.12167707
43	0x3da494d8	0.08036202
44	0xbdbd1ca2	-0.09233977
45	0xbca91310	-0.020638973
46	0x3b023b00	0.0019871593
47	0x3d0e82e8	0.03479281
48	0xbde787c4	-0.11305192
49	0xbdad2262	-0.084538236
50	0xbd904962	-0.07045247
51	0xbddd9520	-0.10819459
52	0xbd9bc904	-0.076067
53	0x3d4024f8	0.046910256
54	0xbccd8e90	-0.025092393
55	0x3da422dc	0.080144614
56	0x3d830664	0.06397703
57	0xbd9a1378	-0.075232446
58	0x3dfc39e0	0.12315726
59	0xbd1752e4	-0.036944285
60	0x3c7da560	0.015481323
61	0xbdf5acac	-0.11995825
62	0xbdc6aad0	-0.09700549
63	0x3aa08400	0.001224637
64	0x3d3b2d80	0.04569769
65	0xbdd71998	-0.105029285
66	0x3c46ff60	0.012145847
67	0x3d7201f4	0.059083894
68	0x3d0bf260	0.034166694
69	0xbce53eb0	-0.027983993
70	0x3d941356	0.072302505
71	0xbdd21da6	-0.10259561
72	0xbdb6fd54	-0.08935037
73	0x3db1bd92	0.08678736
74	0xbd7b6d50	-0.061383545
75	0x3df13608	0.11777884
76	0xbdaa0b34	-0.08302918
77	0xbdf066a0	-0.11738324
78	0xbddf567a	-0.10905166
79	0xbdfef47c	-0.124489754
80	0x3daf2878	0.08552641
81	0x3d66a2d0	0.056307614
82	0x3c4ce1f0	0.01250504
83	0x3df10a7a	0.11769576
84	0xbdc1be04	-0.09460071
85	0x3ccf5238	0.02530776
86	0xbdc63db4	-0.09679738
87	0x3daee81e	0.085403666
88	0xbd9f40de	-0.07776044
89	0x3b255c40	0.0025231987
90	0x3db1a8ca	0.08674772
91	0x3dbd9070	0.09256065
92	0xbd567ba8	-0.05236402
93	0xbb5e3c00	-0.0033910275
94	0x3de8c2e2	0.11365296
95	0xbd44e9ec	-0.048074648
96	0xbdb5f906	-0.08885388
97	0xbd3eb234	-0.046556666
98	0x3c485490	0.0122271925
99	0x3d51e3c8	0.05124262
100	0x3ded25cc	0.11579475
101	0x3dac85e4	0.08423975
102	0xbdc5df3e	-0.09661721
103	0xbde2e95c	-0.11079666
104	0x3dc7a48a	0.0974818
105	0xbdd23e3c	-0.102657765
106	0xbbbc3360	-0.005743429
107	0xbdcef3c0	-0.101050854
108	0xbd1fae78	-0.038984746
109	0x3d324030	0.043518245
110	0xbdd8396c	-0.10557827
111	0xbcc5b8c8	-0.024135962
112	0x3cb6b228	0.022301748
113	0xbdc58af2	-0.09645642
114	0x3df0ac72	0.11751641
115	0x3cd60bc8	0.026128665
116	0xb979a800	-0.00023809075
117	0x3ddef926	0.10887365
118	0xbd744e90	-0.059645236
119	0x3c480ca0	0.012210041
120	0xbd312dec	-0.043256685
121	0xbdaec846	-0.08534293
122	0x3cb53168	0.022118285
123	0xbd6df5fc	-0.058095917
124	0x3d41891c	0.0472499
125	0xbc2bb6f0	-0.010480627
126	0xbd84bfec	-0.06481919
127	0x3db4f1f6	0.08835213
128	0xbc1260b0	-0.008934185
129	0x3dc59ffc	0.09649655
130	0x3d9c9330	0.07645261
131	0xbdd6ee22	-0.10494639
132	0x3d80842e	0.06275211
133	0xbbf652a0	-0.007517174
134	0xbdc015ce	-0.09379159
135	0xbdbffc34	-0.09374276
136	0x3db0ea1e	0.08638404
137	0xbd527e18	-0.051389784
138	0x3d2486d8	0.04016766
139	0xbcab27a8	-0.020892933
140	0xbdd8570a	-0.105634764
141	0x3d27cb04	0.040965095
142	0x3debac1e	0.11507438
143	0x3c8fd3b8	0.01755701
144	0xbd9b9f22	-0.075987116
145	0x3ded3784	0.115828544
146	0xbdee6ac4	-0.11641458
147	0x3d1166d8	0.03549847
148	0xbc9a11a8	-0.018807247
149	0xbdd5fc4e	-0.10448514
150	0x3df195ac	0.11796126
151	0x3d17c650	0.03705436
152	0x3cf60160	0.030029953
153	0x3d27aa1c	0.040933713
154	0x3db8868e	0.09010039
155	0xbd88359a	-0.06650849
156	0x3d7f7308	0.06236556
157	0x3cac3d00	0.02102518
158	0x3d4ed2e0	0.050494075
159	0x3d982e7c	0.07430741
160	0xbda573e4	-0.08078745
161	0x3d8d560e	0.06901179
162	0x3d573e00	0.052549362
163	0x3dbc9418	0.09207934
164	0xbd94ef16	-0.072721645
165	0xbde5cd5c	-0.1122081
166	0xbdcadff8	-0.09906
167	0x3d812ce4	0.0630739
168	0xbd9ab55a	-0.07554121
169	0xbdf1d9e6	-0.11809139
170	0xbd90addc	-0.07064411
171	0xbd10be28	-0.035337597
172	0xbdaf1a82	-0.08549978
173	0xbd5d7880	-0.054069996
174	0xbdd40c18	-0.10353869
175	0x3d6114dc	0.054951534
176	0x3c211fa0	0.0098342
177	0xbdcd330a	-0.100195006
178	0xbdcdbb00	-0.10045433
179	0xbd8e220c	-0.06940088
180	0xbc845080	-0.016151667
181	0xbd456034	-0.04818745
182	0x3da63f9a	0.081176
183	0xbd211bf8	-0.039333314
184	0xbd20983c	-0.039207682
185	0x3afe4280	0.0019398481
186	0xbd41a60c	-0.047277495
187	0x3d9dc550	0.0770365
188	0xbda8b6f0	-0.082380176
189	0x3dc70f04	0.09719661
190	0x3c80e740	0.015735269
191	0xbd4edac4	-0.0505016
192	0x3d520f3c	0.05128406
193	0xbd80cce0	-0.06289077
194	0xbd2b1a08	-0.041772872
195	0xbd532ff8	-0.05155942
196	0xbdb2988a	-0.08720501
197	0xbd5ad7d0	-0.05342847
198	0xbd7373b0	-0.0594365
199	0x3c8386c8	0.01605548
200	0x3cf13aa8	0.029446915
201	0x3cca8640	0.024722219
202	0xbd9a7120	-0.07541108
203	0x3d5d6908	0.054055244
204	0xbd0d3c5c	-0.03448139
205	0x3c79b010	0.0152397305
206	0x3dcc6812	0.09980787
207	0x3dc546e0	0.09632659
208	0xbd9477c2	-0.072494045
209	0x3d8249d4	0.06361738
210	0xbd30ffb8	-0.043212622
211	0xbd34de74	-0.04415746
212	0x3dac1e5e	0.084042296
213	0x3dcd7066	0.10031204
214	0x3d91c5e2	0.07117821
215	0x3d71ff9c	0.05908166
216	0xbca8e5d0	-0.020617396
217	0x3dcc6f70	0.099821925
218	0xbd516a4c	-0.051126763
219	0x3d1809c4	0.03711869
220	0xbd7d4b4c	-0.061839387
221	0xbdf47656	-0.11936633
222	0xbd804bac	-0.06264433
223	0xbcad4c50	-0.021154553
224	0xbd00770c	-0.031363532
225	0xbdfd07ee	-0.12355028
226	0xbd05580c	-0.03255467
227	0xbd0f07c8	-0.03491953
228	0xbdfb740e	-0.12277995
229	0xbdb0e450	-0.08637297
230	0xbde677ea	-0.112533405
231	0xbdad58fc	-0.08464238
232	0x3c3a3fc0	0.011367738
233	0x3bb872a0	0.0056288987
234	0x3bc9bc20	0.0061564595
235	0x3d000f40	0.031264544
236	0x3d5c5e10	0.053800642
237	0xbdd8ce48	-0.1058622
238	0xbd431c90	-0.04763466
239	0x3dcf4c78	0.10122007
240	0xbdb70c66	-0.08937912
241	0x3cd522d8	0.026017591
242	0x3dbe1494	0.09281269
243	0x3da658fe	0.08122443
244	0x3de37f9e	0.111083254
245	0x3d7db438	0.061939448
246	0x3d8186d2	0.06324543
247	0xbd404bc8	-0.04694727
248	0x3d9af270	0.075657725
249	0x3de6af76	0.11263935
250	0x3dc559dc	0.0963628
251	0xbdc77548	-0.097391665
252	0x3d9f0c00	0.07765961
253	0xbc9547d8	-0.018222734
254	0xbd46baa4	-0.048517838
255	0x3d8c67a0	0.068557024

nikkei_encoder.lstm.weight_hh_l0 f4 [256, 64]
0	0x3d0fc93c	0.03510402
1	0x3db7e374	0.0897893
2	0x3cf8c948	0.030369416
3	0x3dc790c2	0.09744407
4	0xbd7fa6e0	-0.062415004
5	0x3c3ccd40	0.011523545
6	0x3d5248a4	0.051338807
7	0x3dc05a04	0.09392169
8	0xbdbe1f1c	-0.092832774
9	0xbd996bbe	-0.07491253
10	0x3ddc4a24	0.10756329
11	0x3da0b18a	0.07846363
12	0xbdeb0532	-0.114756
13	0x3b98a7c0	0.0046586692
14	0x3da8ecd4	0.082482964
15	0x3dde66b8	0.10859436
16	0x3dc8fbf4	0.09813681
17	0xbda30448	-0.07959801
18	0x3de11b96	0.1099159
19	0xbdb63782	-0.08897306
20	0xbc0c6ef0	-0.008571371
21	0xbdc4297c	-0.09578225
22	0xbd186710	-0.037207663
23	0x3d4817ac	0.0488507
24	0xbc3ec0b0	-0.01164262
25	0x3ca41320	0.02002865
26	0x3d09b978	0.033624142
27	0xbdae6bfe	-0.085166916
28	0x3dca60a4	0.09881714
29	0xbd74fe54	-0.05981286
30	0x3df99094	0.12185779
31	0x3d1982f0	0.037478387
32	0xbcf97398	-0.030450627
33	0x3de8fd9a	0.11376496
34	0xbd95225e	-0.07281946
35	0xbde616ac	-0.11234793
36	0xbd7370f8	-0.059433907
37	0xbda6c142	-0.0814233
38	0x3d0ca818	0.034339994
39	0x3dd9a8d4	0.106279045
40	0xbd9cb3e8	-0.07651502
41	0xbd69880c	-0.05701451
42	0x3daf7ae8	0.085683644
43	0xbddf9c6e	-0.109185085
44	0x3d8be44e	0.06830655
45	0xbcc4cda0	-0.02402383
46	0x3d0bf804	0.034172073
47	0x3c431b40	0.011908352
48	0x3dc22794	0.09480205
49	0xbda7dc42	-0.08196308
50	0xbdf0b9e4	-0.11754206
51	0xbd8ee372	-0.069769755
52	0x3d027220	0.03184712
53	0xbd282838	-0.04105398
54	0xbd8433ce	-0.064551935
55	0x375b0000	1.3053417e-05
56	0x3d254c44	0.040355936
57	0x3bca67c0	0.0061769187
58	0x3de69678	0.112591684
59	0xbcf93310	-0.030419856
60	0x3dd70ed6	0.105008766
61	0xbdee1b52	-0.11626305
62	0x3dedf4ae	0.116189346
63	0xbdfa5e98	-0.122250736
64	0xbd5a0cfc	-0.05323504
65	0xbb481a80	-0.0030533373
66	0xbd675f60	-0.05648744
67	0x3b99b620	0.0046909004
68	0xbdcc7d56	-0.099848434
69	0x3df3e698	0.11909217
70	0xbda1f16c	-0.07907376
71	0xbdc2301a	-0.09481831
72	0xbd16e0f8	-0.03683564
73	0x3d88ed0a	0.066858366
74	0x3c7c75f0	0.015408978
75	0xbd094b54	-0.033519104
76	0xbdcb5e1c	-0.09930059
77	0x3ce4b348	0.02791752
78	0x3df4b20a	0.11948021
79	0x3ba983c0	0.0051731765
80	0xbdc94f84	-0.098296195
81	0x3cc57450	0.024103314
82	0x3ddc1e34	0.10747948
83	0xbd712e50	-0.058882058
84	0x3b7b5b80	0.0038354099
85	0x3bb69920	0.005572453
86	0xbca44bf8	-0.020055756
87	0x3cfeed18	0.031118914
88	0xbcbf6df8	-0.023367867
89	0x3d8ebb7c	0.069693536
90	0x3dedae14	0.116054684
91	0x3dafc814	0.08583084
92	0x3dc2b896	0.09507863
93	0x3de6f8c6	0.112779185
94	0x3ca7e7b0	0.02049622
95	0xbd9e9e3a	-0.07745023
96	0x3df18bb4	0.117942244
97	0xbd87f49a	-0.06638451
98	0x3dfc5132	0.12320174
99	0xbccb5680	-0.02482152
100	0xbd9e2f14	-0.07723823
101	0xbd0e7e58	-0.03478846
102	0x3d67a0f4	0.05654998
103	0x3dc4034c	0.09570941
104	0x3dd74146	0.10510497
105	0xbd024fa0	-0.031814218
106	0xbda66e8e	-0.081265554
107	0xbd1b1b5c	-0.03786789
108	0xbbf19180	-0.0073720813
109	0xbd2eb524	-0.042653218
110	0x3d2bd770	0.041953504
111	0x3d84e4c0	0.06488943
112	0x3dc33ed6	0.095334694
113	0xbdf5f718	-0.1201002
114	0x3dca2440	0.098701954
115	0xbdb7a9e4	-0.08967951
116	0x3d00b2d0	0.03142053
117	0x3dfd5998	0.12370604
118	0x3de3780e	0.11106883
119	0x3cde93f8	0.027170166
120	0x3de0a4b0	0.10968912
121	0xbd80a796	-0.062819645
122	0xbcb5ef40	-0.02220881
123	0xbcaf8078	-0.021423563
124	0xbd85fd92	-0.06542505
125	0x3d1c74d4	0.038197353
126	0xbdfbff3a	-0.1230454
127	0x3d686324	0.056735173
128	0x3d4cc5c4	0.04999329
129	0x3d9e7b20	0.07738328
130	0xbcacc968	-0.021092132
131	0xbdb320a8	-0.08746463
132	0x3c945240	0.018105626
133	0x3dcb10dc	0.09915325
134	0x3d255590	0.040364802
135	0x3d7e871c	0.06214057
136	0x3df8cce6	0.12148456
137	0x3da9585c	0.08268806
138	0x3b6349c0	0.003468141
139	0x3dd1c954	0.102434784
140	0x3dc9fc66	0.09862594
141	0xbd538358	-0.05163893
142	0x3d86a748	0.06574875
143	0x3d6f8e1c	0.058485135
144	0x3d6ffc5c	0.058590278
145	0xbc6222b0	-0.013802215
146	0xbcfc5670	-0.030802935
147	0xbd829a0c	-0.06377038
148	0x3d5df614	0.054189757
149	0x3bed3ea0	0.0072401315
150	0xbcceb250	-0.02523151
151	0xbd203ba4	-0.039119378
152	0x3df92df6	0.121669695
153	0x3dac3a44	0.08409551
154	0x3dab66d4	0.08369222
155	0xbc2d3de0	-0.010573834
156	0x3cb28dd8	0.021796152
157	0x3d716da8	0.058942467
158	0x3bce4320	0.006294623
159	0xbd69ddd4	-0.057096317
160	0xbd52785c	-0.051384315
161	0xbdc4c06c	-0.09607014
162	0xbd0e7cc4	-0.034786955
163	0x3d9cc2fa	0.07654376
164	0xbc5cda60	-0.013479799
165	0xbd683c2c	-0.05669801
166	0xbc2d2ba0	-0.010569483
167	0x3cc2d5b0	0.023783535
168	0x3cc69710	0.024241954
169	0xbd277d28	-0.040890843
170	0xbd4c6b18	-0.04990682
171	0xbcafc988	-0.021458402
172	0x3da07a00	0.0783577
173	0x3dcabb70	0.09899032
174	0x3dfd8b78	0.12380117
175	0xbd22dcd0	-0.039761364
176	0xbdbba5d4	-0.091624886
177	0x3da99ad0	0.08281481
178	0xbcdf8580	-0.027285337
179	0x3cea4a50	0.028599888
180	0x3d3d9be4	0.046291247
181	0xbd038858	-0.03211245
182	0x3dad298a	0.084551886
183	0xbd69e1cc	-0.057100102
184	0xbd9804e2	-0.07422806
185	0xbddce6e2	-0.10786225
186	0xbd6cc4ec	-0.057804987
187	0x3ddb5420	0.10709405
188	0xbda7a65c	-0.081860274
189	0x3d4299a4	0.047509804
190	0x3db9cc7a	0.09072204
191	0xbd8157ee	-0.063155994
192	0xbac44780	-0.0014974922
193	0xbc9ab730	-0.018886179
194	0xbdc6fa28	-0.09715682
195	0xbd8d5e3a	-0.06902738
196	0x3df13a1c	0.117786616
197	0xbdab7a2c	-0.08372912
198	0x3d8c080c	0.06837472
199	0xbd874b74	-0.066061884
200	0x3bc46440	0.005993396
201	0xbccdaef8	-0.025107846
202	0xbd2666d4	-0.04062541
203	0x3dc75686	0.097333
204	0x3dca3e14	0.09875122
205	0xbdd94b1c	-0.10610029
206	0xbc91deb0	-0.017806381
207	0x3b0f5700	0.0021871924
208	0xbdaf2fde	-0.08554052
209	0x3dad1e5e	0.08453058
210	0xbbb2bdc0	-0.005454749
211	0xbdf6e1e2	-0.120548025
212	0xbdfac888	-0.122452796
213	0x3d124acc	0.035715863
214	0x3da616ac	0.08109793
215	0x3d8cd1ee	0.068759784
216	0xbd2f645c	-0.04282032
217	0x3d2a934c	0.04164438
218	0xbcf9f898	-0.030514047
219	0xbded2b0a	-0.11580475
220	0xbd52d990	-0.051477015
221	0xbd08e5f4	-0.033422425
222	0x3d6542b4	0.055971816
223	0xbb90eba0	-0.00442262
224	0xbd0393b4	-0.032123283
225	0x3d2cd7dc	0.042198047
226	0x3d3edb98	0.04659614
227	0x3defd6b8	0.11710876
228	0xbd66184c	-0.056175515
229	0x3d155714	0.036459997
230	0x3b1bb700	0.00237602
231	0x3b4152c0	0.0029498786
232	0xbb7c7d00	-0.0038526654
233	0xbd65fec4	-0.056151167
234	0xbd9e7214	-0.077366024
235	0x3df416e2	0.11918427
236	0xbd4e4e14	-0.05036743
237	0xbdcff770	-0.10154617
238	0x3d693fb0	0.056945503
239	0x3d24d980	0.040246487
240	0x3dbd744c	0.092506975
241	0x3df66606	0.12031178
242	0xbdef7b82	-0.11693479
243	0xbc2607f0	-0.010133728
244	0x3d1dc468	0.038517386
245	0xbcb3da48	-0.02195467
246	0xbdd41134	-0.10354844
247	0x3b891440	0.004183322
248	0xbcaf6088	-0.021408334
249	0x3dd43590	0.10361779
250	0xbcfd7388	-0.030938879
251	0x3df0dfb4	0.11761418
252	0x3c2a1b60	0.010382503
253	0x3bb31640	0.005465299
254	0xbdd72e8c	-0.10506925
255	0xbdff0946	-0.12452941

nikkei_encoder.lstm.bias_ih_l0 f4 [256]
0	0x3d1fcc04	0.039012924
1	0x3c11b910	0.00889422
2	0x3d5ee34c	0.054415986
3	0x3daeb3e6	0.08530407
4	0x3ce9d298	0.028542802
5	0xbd1e1878	-0.038597554
6	0xbd5e15a8	-0.05421987
7	0x3ce7c8a0	0.028293908
8	0xbdb17904	-0.0866566
9	0xbdf68002	-0.12036134
10	0x3cdf6168	0.027268127
11	0xbd1d5da0	-0.038419366
12	0xbda2d41a	-0.079506114
13	0xbde61c18	-0.11235827
14	0x3ca0c4b8	0.019625053
15	0x3df75a76	0.12077801
16	0xbd83d490	-0.064370275
17	0xbc2f9050	-0.010715559
18	0x3d686ecc	0.05674629
19	0x3d6889cc	0.05677204
20	0xbdc627d6	-0.09675567
21	0xbd48886c	-0.048958227
22	0x3d4022f8	0.04690835
23	0xbd6598b4	-0.056053832
24	0xbb8cfe20	-0.004302755
25	0xbd6e4b90	-0.05817753
26	0x3da258de	0.07927106
27	0xbd768904	-0.060189262
28	0xbcd083d0	-0.025453478
29	0x3dfc4d48	0.12319428
30	0xbdd3bfb6	-0.103393
31	0x3d307cb0	0.04308766
32	0xbc5ce330	-0.0134819
33	0x3bb31f60	0.0054663867
34	0x3daa54ee	0.0831698
35	0x3dbd76d0	0.09251177
36	0x3d26405c	0.04058872
37	0xbcece258	-0.028916523
38	0x3ddcc0dc	0.107789725
39	0xbd990a0a	-0.07472618
40	0x3c789510	0.015172258
41	0x3d92726a	0.07150729
42	0x3bfa3be0	0.007636532
43	0xbcd0c100	-0.025482655
44	0x3dd17226	0.1022685
45	0x3cd349d0	0.025792032
46	0xbd20cfdc	-0.03926073
47	0x3de1761e	0.11008857
48	0xbd82beea	-0.0638407
49	0x3d92530c	0.07144746
50	0x3db28dc0	0.08718443
51	0xbceff948	-0.029293671
52	0x3d2a5790	0.041587412
53	0x3d2853b4	0.04109545
54	0x3c913400	0.01772499
55	0x3c5908c0	0.013246715
56	0xbdf87220	-0.121311426
57	0xbdc6adbc	-0.09701106
58	0x3da3c2c0	0.0799613
59	0x3d9d9abc	0.07695529
60	0x3d4903c4	0.049075857
61	0x3dc75898	0.09733695
62	0xbd527980	-0.051385403
63	0x3df48d50	0.11941016
64	0xbd95ac76	-0.07308285
65	0x3ddc907c	0.10769746
66	0x3dedf11a	0.11618252
67	0x3dc581b6	0.09643881
68	0xbd689d48	-0.05679062
69	0x3c1f2790	0.009714022
70	0x3d209328	0.03920284
71	0xbd010b84	-0.031505123
72	0xbc5f5720	-0.013631612
73	0xbdfc7112	-0.12326254
74	0xbddd2954	-0.10798898
75	0x3dc94206	0.09827046
76	0x3bc8ce00	0.0061280727
77	0x3d23f524	0.040028706
78	0xbdebb1b6	-0.11508505
79	0x3d6e53e8	0.058185488
80	0x3db16bf4	0.086631685
81	0x3dc7ea3e	0.09761475
82	0xbd763760	-0.060111403
83	0xbcef2e40	-0.029196858
84	0xbde8a6e8	-0.1135996
85	0xbd9c6250	-0.07635939
86	0x3d8959b0	0.0670656
87	0xbdcdaf5e	-0.10043214
88	0xbd9bb7a0	-0.07603383
89	0x3cc48010	0.023986846
90	0xbc9a8540	-0.018862367
91	0xbddeda3a	-0.10881467
92	0xbdc39b6e	-0.0955113
93	0xbdb5fb6c	-0.088858455
94	0x3dc01b40	0.093801975
95	0xbd9fe94e	-0.07808171
96	0xbd4cbf3c	-0.049987063
97	0x3debf608	0.11521536
98	0x3d0ec4e8	0.034855753
99	0x3d8281ca	0.063724115
100	0xbb1c5c00	-0.0023858547
101	0x3d7ad060	0.061233878
102	0xbdaf5ba0	-0.08562398
103	0x3d92c3a6	0.07166223
104	0x3d54a480	0.051914692
105	0xbc9718b0	-0.01844439
106	0xbde87e7e	-0.113522515
107	0x3dcb60d4	0.09930578
108	0xbd8dab10	-0.06917393
109	0x3c21bb20	0.009871274
110	0xbdb94e06	-0.09048085
111	0x3dd2260a	0.102611616
112	0x3cfb5720	0.030681193
113	0x3d8e67da	0.06953402
114	0xbd3f69d8	-0.0467318
115	0x3dec9cfc	0.1155338
116	0xbdc4bde2	-0.0960653
117	0xbc7a7750	-0.015287235
118	0x3d855042	0.065094486
119	0xbc01e9a0	-0.007929236
120	0x3dde1d92	0.10845484
121	0xbd2b8fdc	-0.041885242
122	0xbd954964	-0.07289389
123	0x3de3325e	0.11093591
124	0xbdaca048	-0.08429009
125	0x3c8a0540	0.016848207
126	0x3d325a5c	0.043543205
127	0xbd186454	-0.037205055
128	0x3de02220	0.10944009
129	0xbd9ed636	-0.07755701
130	0xbd97a230	-0.07403982
131	0x3ddde21c	0.108341426
132	0x3d214104	0.039368644
133	0x3d09a6cc	0.033606336
134	0x3dfa5ae0	0.12224364
135	0xbd004c4c	-0.031322762
136	0xbd88ecf6	-0.06685822
137	0x3cfd3058	0.030906841
138	0xbd7f46e0	-0.06232345
139	0x3dfdf180	0.12399578
140	0x3dad90e0	0.08474898
141	0xbdc454f6	-0.095865175
142	0xbd86f818	-0.06590289
143	0xbd9573a8	-0.0729745
144	0x3dc88fa8	0.09793025
145	0xbcc451e0	-0.023964822
146	0xbad2e980	-0.0016091317
147	0x3d348a24	0.044077054
148	0xbd2651c4	-0.04060532
149	0x3cb1ad08	0.021688953
150	0x3de8276a	0.11335643
151	0xbd3062b8	-0.043062896
152	0x3db5f4e8	0.08884603
153	0xbb88b1a0	-0.004171565
154	0xbdcb99fc	-0.099414796
155	0x3cd287e0	0.025699556
156	0xbd2db5bc	-0.042409644
157	0x3cdbace8	0.026815847
158	0x3cee5fa0	0.029098332
159	0x3aa30800	0.0012438297
160	0x3dacbb76	0.08434193
161	0xb95cfc00	-0.00021074712
162	0xbda9ec5e	-0.082970366
163	0x3d100728	0.035163075
164	0x3db307e0	0.087417364
165	0xbcedeca0	-0.029043496
166	0xbd8553d4	-0.065101296
167	0x3d2dd014	0.042434767
168	0x3d83c180	0.064333916
169	0xbdf6c886	-0.120499656
170	0xbd679ebc	-0.056547865
171	0x3cd0ecc8	0.025503531
172	0x3da2204a	0.07916315
173	0xbdf8fcbe	-0.12157582
174	0x3d65bce4	0.056088343
175	0x3c873e48	0.01650919
176	0x3de91fce	0.113830194
177	0x3dda1ddc	0.106502265
178	0x3d9d6964	0.07686117
179	0x3d87be40	0.06628084
180	0x3cd0d570	0.0254924
181	0x3d8c5a78	0.06853193
182	0x3d9afa30	0.07567251
183	0x3d3ba624	0.04581274
184	0x3df898d4	0.12138525
185	0xbdc59f64	-0.09649542
186	0xbc350a20	-0.011049777
187	0xbdc74c4e	-0.09731351
188	0x3de02fda	0.10946627
189	0x3de32be4	0.11092356
190	0x3de7dfb2	0.11321963
191	0xbd7ac8c4	-0.06122662
192	0x3bd8c300	0.0066150427
193	0xbbcd4940	-0.0062648356
194	0x3d837f9a	0.064208224
195	0xbdae10e6	-0.08499317
196	0xbc9fae48	-0.019492283
197	0xbdb87464	-0.09006575
198	0xbdb2dc72	-0.08733453
199	0xbc258630	-0.010102794
200	0xbd425528	-0.047444493
201	0x3dff9a58	0.124806106
202	0x3d52727c	0.051378712
203	0xbdf8b3ce	-0.1214367
204	0x3dab745e	0.08371805
205	0x3de8b148	0.11361939
206	0x3dabb03c	0.083832234
207	0xbbada160	-0.0052987784
208	0x3d64d858	0.055870384
209	0xbcc9f610	-0.024653465
210	0x3d915f3a	0.07098241
211	0x3dd8e934	0.10591355
212	0x3db0bcde	0.086297736
213	0xbda01bfe	-0.07817839
214	0x3dd40c8c	0.103539556
215	0xbde4ee7e	-0.11178301
216	0x3d187600	0.03722191
217	0xbd42cc04	-0.047557846
218	0x3dc78eb2	0.09744014
219	0x3d96ad9c	0.07357332
220	0x3d706354	0.058688477
221	0x3d833c56	0.064079925
222	0x3dd314b6	0.10306685
223	0x3d66d5dc	0.056356296
224	0x3bd72840	0.0065660775
225	0xbd0c5dd0	-0.034269154
226	0x3d0c1954	0.034203842
227	0xbcc48268	-0.023987964
228	0x3d7a1ab0	0.061060607
229	0xbd83c3e2	-0.06433846
230	0xbd046f24	-0.032332554
231	0xbddaa726	-0.10676412
232	0x3dbcfc3a	0.09227796
233	0x3db52386	0.08844666
234	0x3dcaf08a	0.099091604
235	0xbd82395c	-0.06358597
236	0x3c9e61d0	0.01933375
237	0x3d3e0b64	0.04639758
238	0x3d8a1788	0.067427695
239	0xbd9a30e2	-0.07528855
240	0x3de559e6	0.111987874
241	0x3d353548	0.044240266
242	0xbd9100f2	-0.070802584
243	0xbdf94400	-0.12171173
244	0xbda2e22c	-0.07953295
245	0xbd8b4fb6	-0.06802313
246	0xbdd6e52c	-0.1049293
247	0xbd1aaee0	-0.03776443
248	0x3d315304	0.04329206
249	0xbd5e98b4	-0.054344848
250	0xbcb86af0	-0.02251193
251	0x3bd917c0	0.0066251457
252	0xbdebca88	-0.11513239
253	0xbdece430	-0.11566961
254	0xbd359964	-0.044335738
255	0xbdb4299a	-0.08796997

nikkei_encoder.lstm.bias_hh_l0 f4 [256]
0	0xbd64fae8	-0.055903345
1	0x3c7bab80	0.015360713
2	0xbd504150	-0.050843537
3	0xbcabd9a0	-0.020977795
4	0xbd86ab08	-0.0657559
5	0x3cc534b8	0.02407299
6	0xbc0e54e0	-0.008687228
7	0xba312100	-0.00067569315
8	0x3dde618e	0.10858451
9	0x3d954fca	0.07290609
10	0xbc9f7c98	-0.01946859
11	0x3d3b59dc	0.045739993
12	0xbd824c82	-0.06362249
13	0x3ca12980	0.019673109
14	0xbcfd5318	-0.030923411
15	0x3c8383c0	0.016054034
16	0x3db293d0	0.08719599
17	0xbdf931b6	-0.12167685
18	0x3d60fc18	0.054927915
19	0x3b2f1600	0.0026715994
20	0x3db4cb34	0.088278204
21	0x3dd8e7f6	0.10591118
22	0x3d7aa660	0.061193824
23	0xbd895a4a	-0.067066744
24	0xbbe53780	-0.0069951415
25	0xbda6aa3e	-0.0813794
26	0xbbd7f2a0	-0.0065902025
27	0x3d9fa190	0.077944875
28	0x3d93fbc4	0.07225755
29	0xbdc6ad68	-0.09701043
30	0xbdc32db0	-0.095301986
31	0x3dd59038	0.10427898
32	0x3de5af72	0.11215104
33	0x3d916e24	0.07101086
34	0x3d026750	0.031836808
35	0xbc5edd70	-0.0136025995
36	0xbd61e1b4	-0.055146888
37	0xbdddb968	-0.10826379
38	0x3dd2b194	0.102877766
39	0x3d174484	0.036930576
40	0xbd865e5c	-0.06560966
41	0xbd6cb8a4	-0.057793275
42	0xbd4c4714	-0.049872473
43	0xbc2f93f0	-0.010716423
44	0x3d955010	0.07290661
45	0x3d8ec494	0.06971088
46	0x3dfa7cfc	0.1223087
47	0xbd1c0c78	-0.03809783
48	0xbd12f20c	-0.035875365
49	0x3ca1b0e8	0.019737676
50	0xbc0be150	-0.008537605
51	0xbd41950c	-0.047261283
52	0x3db0b562	0.08628346
53	0x3db3f128	0.08786231
54	0xbdc854b2	-0.09781779
55	0x3d4fd92c	0.05074422
56	0xbde2a382	-0.11066343
57	0x3c561920	0.013067514
58	0x3d4071b8	0.04698345
59	0xbde3eac8	-0.11128765
60	0xbd9198bc	-0.0710921
61	0xbd7b3640	-0.061331034
62	0xbde8835a	-0.11353178
63	0xbd5118e8	-0.051049143
64	0x3d4d3e44	0.05010821
65	0xbd2e604c	-0.042572305
66	0x3d8a8a64	0.06764677
67	0xbde77dd0	-0.11303294
68	0xbd758c1c	-0.05994807
69	0x3c73d320	0.014881879
70	0x3d5722c0	0.052523375
71	0x392d5400	0.00016529858
72	0x3beed480	0.0072885156
73	0xbd100a7c	-0.03516625
74	0xbd0247a4	-0.031806603
75	0xbc312970	-0.010813102
76	0x3c6f9c10	0.014624611
77	0x3dfdaec2	0.12386848
78	0xbccc5f58	-0.024947807
79	0xbd08d0a8	-0.033402115
80	0x3d333398	0.043750376
81	0xbde83c82	-0.11339666
82	0x3dd5b3ba	0.10434671
83	0x3d85875e	0.0651996
84	0xbdf3de78	-0.11907667
85	0x3a8b9200	0.001064837
86	0x3d0e4128	0.034730107
87	0xbd6d3be4	-0.057918444
88	0xbdadb01e	-0.08480857
89	0x3da1dc68	0.07903367
90	0xbdd643ae	-0.104621276
91	0x3d6f8ec0	0.058485746
92	0x3d9c872a	0.07642968
93	0x3de5bc86	0.112175986
94	0xbdcab80a	-0.09898384
95	0xbdba7caa	-0.09105809
96	0xbda0ef12	-0.07858099
97	0xbda50b56	-0.08058803
98	0xbd65ad28	-0.056073338
99	0xbd862bfa	-0.065513566
100	0x3d858e20	0.06521249
101	0xbca81878	-0.02051948
102	0xbd48e234	-0.04904385
103	0x3b1a3880	0.0023532212
104	0x3c76b640	0.0150581
105	0xbdd50ee6	-0.10403232
106	0x3d93e07e	0.07220553
107	0xbdc4213a	-0.0957665
108	0xbcca5240	-0.024697423
109	0xbce61430	-0.028085798
110	0x3db1820c	0.086673826
111	0x3db61026	0.08889799
112	0xbd51ba2c	-0.051202938
113	0xbbd04be0	-0.0063567013
114	0xbdcee5a0	-0.10102391
115	0xbc4df560	-0.012570709
116	0x3d2cadd8	0.042157978
117	0xbd8f88c2	-0.07008506
118	0x3d687c3c	0.056759104
119	0xbbdfd4e0	-0.0068307966
120	0xbc2ef510	-0.010678545
121	0xbdfd94aa	-0.12381871
122	0x3c6272d0	0.013821319
123	0x3df4f3f8	0.11960596
124	0xbdecc65a	-0.1156127
125	0xbd203a40	-0.03911805
126	0xbc110c50	-0.008853033
127	0xbdaec594	-0.08533779
128	0x3ddf4fe4	0.1090391
129	0xbc3de860	-0.011591047
130	0x3dfb0e3a	0.12258573
131	0x3df7a8e6	0.12092762
132	0xbdd92260	-0.1060226
133	0xbdbae168	-0.09125024
134	0x3d364d38	0.044507235
135	0xbdde5c2e	-0.10857426
136	0xbd95e7a6	-0.07319574
137	0xbdd61bc0	-0.10454512
138	0xbdcce0e8	-0.10003835
139	0xbdc4fe88	-0.096188605
140	0x3beec000	0.007286072
141	0x3dae8d5c	0.08523056
142	0x3ded2c28	0.11580688
143	0x3cd82940	0.026386857
144	0x3df2b498	0.11850852
145	0xbd0849a0	-0.03327334
146	0x3df2874e	0.118422136
147	0x3d903caa	0.07042821
148	0x3d04daa4	0.032435074
149	0xbd967876	-0.07347195
150	0xbd990c3c	-0.07473037
151	0xbd19af24	-0.037520543
152	0xbdaaf7ec	-0.083480686
153	0x3d7cab90	0.061687052
154	0x3d0307c0	0.031989813
155	0xbddf83fe	-0.109138474
156	0x3dd8ac2a	0.10579713
157	0xbd2950d8	-0.041336864
158	0xbdaf0188	-0.08545214
159	0xbd3f10f0	-0.046647012
160	0xbd63737c	-0.055530056
161	0xbbde36c0	-0.006781429
162	0xbda01ef2	-0.07818402
163	0x3d81785c	0.06321785
164	0xbde7a3fe	-0.11310576
165	0x3df1a9da	0.11799975
166	0xbd7bc660	-0.061468482
167	0x3d83bd4c	0.0643259
168	0xbbc8aa60	-0.006123826
169	0x3dfc2e90	0.123135686
170	0x3dd26b0e	0.10274325
171	0x3daa5ba4	0.0831826
172	0xbd54042c	-0.05176179
173	0x3d9796e8	0.0740183
174	0x3d927c04	0.0715256
175	0x3ded0c52	0.115746155
176	0x3daac7e2	0.08338906
177	0x3df99b7c	0.121878594
178	0xbd5d81a4	-0.054078713
179	0xbcda0160	-0.026611984
180	0xbdaefbee	-0.085441455
181	0x3d4c15b8	0.0498254
182	0xba8a4f00	-0.0010552108
183	0xbdf06d7c	-0.117396325
184	0x3da6fa02	0.08153154
185	0x3dff7648	0.12473732
186	0x3d28ac48	0.041179925
187	0xbd5acc68	-0.053417593
188	0xbd9a939e	-0.07547687
189	0x3dd34966	0.10316734
190	0x3dfeeb9e	0.12447284
191	0x3d164ff4	0.036697343
192	0x3d628d1c	0.055310354
193	0x3da8b93a	0.08238454
194	0xbd1d81a4	-0.038453713
195	0xbd8e0c1a	-0.06935902
196	0x3dfd97b8	0.12382454
197	0x3be4c460	0.0069814175
198	0x3db351ce	0.087558374
199	0x3d4bd87c	0.049767002
200	0x3dc54fa2	0.096343294
201	0xbdcf9164	-0.10135153
202	0x3d08fac4	0.033442274
203	0x3d5cd820	0.05391705
204	0x3da8cc40	0.082420826
205	0x3df02c96	0.11727254
206	0x3d88d4d0	0.06681216
207	0x3d1bc940	0.038033724
208	0x3d06cda8	0.032910973
209	0xbdd255d2	-0.10270275
210	0x3cd9e6d8	0.026599333
211	0x3a8b8300	0.00106439
212	0xbd9a3844	-0.07530263
213	0x3d351f9c	0.0442196
214	0x3ba6a840	0.005085975
215	0xbd5a266c	-0.0532593
216	0xbde3cd62	-0.11123158
217	0xbc47a390	-0.012184992
218	0x3d6c5874	0.057701543
219	0xbbec9880	-0.007220328
220	0x3cee3c28	0.02908142
221	0x3dec8aee	0.11549936
222	0xbd80c438	-0.06287426
223	0xbd2d20b8	-0.04226753
224	0x3d07a980	0.033120632
225	0x3d3b9680	0.045797825
226	0x3b3a9b80	0.0028474033
227	0x3d0a4e00	0.033765793
228	0x3da82000	0.082092285
229	0x3d877300	0.066137314
230	0xbcd70678	-0.026248202
231	0x3c9a9350	0.018869072
232	0xbd5f475c	-0.054511413
233	0xbd17c384	-0.037051693
234	0xbda35686	-0.079754874
235	0xbcb4ae68	-0.02205582
236	0xbdc73b18	-0.09728068
237	0x3deea962	0.11653401
238	0xbda61a5a	-0.08110495
239	0x3d2a03a8	0.041507393
240	0xbbab89e0	-0.005234942
241	0xbdbbfaea	-0.091787174
242	0x3dab6174	0.08368197
243	0x3d61474c	0.054999635
244	0x3d08bef0	0.033385217
245	0xbdb0238a	-0.086005285
246	0xbdf7891e	-0.120867
247	0x3ce754f8	0.028238758
248	0xbd85a10e	-0.06524859
249	0x3ddc7ec0	0.10766363
250	0x3d986492	0.07441057
251	0x3d0928a0	0.03348601
252	0x3d83ed66	0.064417645
253	0xbc9c3008	-0.019065872
254	0x3b8dab20	0.004323378
255	0xbdd52664	-0.10407713

nikkei_encoder.lstm.weight_ih_l1 f4 [256, 64]
0	0xbde554d0	-0.11197817
1	0x3d5e6354	0.054293945
2	0x3dbc1ac8	0.091847956
3	0x3ccb1db0	0.02479443
4	0xbd676dd8	-0.05650124
5	0xbda24394	-0.07923046
6	0x3d282a84	0.04105617
7	0xbda68cfc	-0.081323594
8	0x3de89a2c	0.11357531
9	0xbc551c60	-0.013007253
10	0x3dc96fd6	0.09835784
11	0x3dedd170	0.11612213
12	0xbda16ffc	-0.078826874
13	0xbd91d388	-0.071204245
14	0xbcf3d178	-0.029762968
15	0xbdbcf270	-0.09225929
16	0xbd59fa04	-0.05321695
17	0xbcaa5af8	-0.02079533
18	0xbde5c4e2	-0.11219193
19	0xbdae6130	-0.08514631
20	0xbda6d6de	-0.081464514
21	0x3df9bef6	0.12194626
22	0x3ca70cc0	0.020391822
23	0x3d319818	0.04335794
24	0xbcbf8078	-0.023376688
25	0xbd8d232c	-0.06891474
26	0xbdb85b82	-0.09001829
27	0xbc8f7440	-0.017511487
28	0x3be831e0	0.0070860237
29	0xba704800	-0.0009166002
30	0x3df6b542	0.12046291
31	0x3df0ef08	0.117643416
32	0x3c37be80	0.011214852
33	0x3d87ac7c	0.06624696
34	0xbd9b996a	-0.07597621
35	0x3c560740	0.013063252
36	0x3bd898c0	0.006610006
37	0xbc318390	-0.01083459
38	0x3ddf705a	0.10910101
39	0xbd237b88	-0.03991273
40	0xbd4a0a14	-0.049326017
41	0x3c1c8860	0.009553999
42	0x3cb34018	0.021881148
43	0xbdfe03d2	-0.124030724
44	0xbd8d705e	-0.06906198
45	0xbd5fe0c4	-0.054657713
46	0x3dccca6a	0.09999545
47	0xbdafe46a	-0.085884884
48	0xbcc3c7e0	-0.023899019
49	0xbd509504	-0.050923362
50	0xbc2087b0	-0.009797975
51	0x3d0a8c5c	0.033825263
52	0x3c1df420	0.0096407235
53	0x3ddc6514	0.107614666
54	0x3d8dadcc	0.06917915
55	0x3ba196a0	0.004931286
56	0xbca7c270	-0.020478457
57	0x3df5116a	0.11966212
58	0xbd63da7c	-0.055628285
59	0x3dcc3f7c	0.09973046
60	0x3d9a959e	0.075480685
61	0x3c48e8e0	0.012262553
62	0xbcd08c00	-0.025457382
63	0xbdfaa78a	-0.12238987
64	0x3d6234ec	0.05522625
65	0x3d8359d8	0.06413621
66	0xbdace272	-0.084416285
67	0x3d3288bc	0.04358743
68	0xbd3be178	-0.04586932
69	0xbca93bc0	-0.020658374
70	0xbd915550	-0.0709635
71	0xbc1e71e0	-0.009670705
72	0xbdf8c344	-0.12146619
73	0x3d26d098	0.040726274
74	0xbd0a98a4	-0.033836976
75	0xbc930cc0	-0.017950416
76	0xbdbafea2	-0.091305986
77	0x3d80df78	0.06292623
78	0xbd1ff07c	-0.039047703
79	0xbdf04902	-0.11732675
80	0x3d3ddeb4	0.046354964
81	0x3d890462	0.06690289
82	0xbd5480f0	-0.051880777
83	0x3d879aee	0.06621347
84	0x3df0a9a0	0.117511034
85	0x3a8ed300	0.0010896623
86	0xbde1143a	-0.10990186
87	0x3d7e34d8	0.062062114
88	0xbd7da328	-0.061923176
89	0xbd131e88	-0.03591779
90	0x3d9da2a0	0.07697034
91	0xbd130da0	-0.035901666
92	0xbd20376c	-0.039115354
93	0x3d33fbe4	0.043941393
94	0x39adee00	0.00033174455
95	0xbd95ad70	-0.07308471
96	0x3d2a8dac	0.041639015
97	0x3d2f17c0	0.04274726
98	0xbd9a33c8	-0.07529408
99	0x3dbe3446	0.09287314
100	0xbd432284	-0.04764034
101	0x3d95dc78	0.07317442
102	0xbd634b3c	-0.05549167
103	0xbd01c550	-0.031682312
104	0xbde860e8	-0.113466084
105	0xbcbd2278	-0.023087725
106	0x3db12670	0.086499095
107	0x3d166480	0.036716938
108	0x3dc8d61c	0.09806463
109	0xbde3e80c	-0.11128244
110	0x3dc0bd66	0.09411125
111	0x3d96dd9c	0.073664874
112	0x3defe27e	0.11713122
113	0xbd090060	-0.033447623
114	0xbde7c7f2	-0.113174334
115	0x3d1d6420	0.038425565
116	0x3d82f498	0.06394309
117	0xbd31a3e8	-0.043369204
118	0x3debb054	0.11508241
119	0x3d8f3656	0.06992786
120	0x3dd3ddda	0.10345049
121	0x3ce4d860	0.027935207
122	0x3cf72f08	0.030173793
123	0xbda8e7d4	-0.08247343
124	0xbc9c8fa8	-0.01911147
125	0xbd89cd74	-0.0672864
126	0x3de64024	0.112427026
127	0x3d46a640	0.048498392
128	0x3d113494	0.035450533
129	0xbc039540	-0.008031189
130	0x3bfc86c0	0.007706493
131	0x3d74ffd8	0.059814304
132	0x3c720450	0.014771536
133	0xbdb38836	-0.087662145
134	0xbdb37bc2	-0.08763839
135	0x3d09da2c	0.03365533
136	0x3db77146	0.08957152
137	0x3dd0e6cc	0.10200271
138	0xbd97de36	-0.0741543
139	0xbdd7440e	-0.10511027
140	0x3de5031e	0.11182235
141	0x3d8be22a	0.06830247
142	0x3d8b9178	0.06814855
143	0x3de418b4	0.11137524
144	0x3df1d278	0.11807722
145	0x3dd35956	0.10319774
146	0x3d969a00	0.07353592
147	0x3d5b3cdc	0.053524837
148	0x3dfd8510	0.12378895
149	0x3d1d06bc	0.0383365
150	0xbda0ec98	-0.07857627
151	0x3c322d80	0.010875106
152	0xbdc981e4	-0.09839228
153	0x3dcfafa4	0.10140923
154	0x3c893bd8	0.016752169
155	0x3c2c62a0	0.010521561
156	0x3cee1490	0.02906254
157	0xbd829a0e	-0.0637704
158	0xbd3ddfc0	-0.046355963
159	0x3d2c23f0	0.04202646
160	0x3cbdd4f8	0.02317284
161	0xbd1a7af0	-0.0377149
162	0x3dd49680	0.10380268
163	0xbda992a6	-0.08279924
164	0xbd162c8c	-0.036663577
165	0x3c54dd90	0.012992278
166	0x3c518290	0.012787476
167	0x3dc998d6	0.09843604
168	0xbd8bbf04	-0.06823543
169	0x3cdfeda0	0.027334988
170	0xbd64e9b0	-0.055886924
171	0xbd862070	-0.06549156
172	0xbcf740e8	-0.030182317
173	0x3db3262c	0.08747515
174	0xbdd56caa	-0.10421117
175	0x3d9dc184	0.07702926
176	0x3d27ba50	0.040949166
177	0xbded7ffa	-0.11596675
178	0xbd90ca76	-0.07069866
179	0x3db83d54	0.089960724
180	0x3bc767c0	0.006085366
181	0x3dd192bc	0.102330655
182	0xbd824ca6	-0.06362276
183	0xbd1ee2f0	-0.038790643
184	0x3daeafd6	0.08529632
185	0x3d9842a0	0.07434583
186	0x3d91ab22	0.07112719
187	0x3dd95fec	0.10613999
188	0x3dd4a032	0.10382117
189	0xbd759e9c	-0.059965715
190	0xbd8b3db4	-0.06798878
191	0xbcfb1e20	-0.030654013
192	0x3dcd2b00	0.10017967
193	0x3d6afa64	0.057367697
194	0x3d900498	0.07032126
195	0x3dd55478	0.10416502
196	0xbdc2fa22	-0.09520365
197	0xbd6bfa78	-0.057611912
198	0xbd248e84	-0.040174976
199	0x3de4a26e	0.111637935
200	0xbda29fee	-0.079406604
201	0x3d0c9004	0.03431703
202	0xbcfe73d8	-0.031061098
203	0xbdbc9d46	-0.09209685
204	0xbd858ee4	-0.06521395
205	0x3db080d8	0.08618325
206	0x3d932ff0	0.07186878
207	0xbcc35770	-0.023845404
208	0x3c9ecda0	0.019385159
209	0x3b958b20	0.004563704
210	0xbc2cfe90	-0.010558739
211	0xbdcac772	-0.099013224
212	0xbd8f1a94	-0.06987491
213	0x3990b600	0.0002760142
214	0x3dcd9968	0.100390255
215	0x3dec710c	0.115449995
216	0x3d7c9c14	0.061672285
217	0x3d98f796	0.07469098
218	0xbdbff70e	-0.09373294
219	0xbc989550	-0.018625885
220	0x3c093f80	0.008376956
221	0x3db59c2c	0.08867678
222	0xbdb74542	-0.08948757
223	0xbce06568	-0.027392104
224	0xbdd5cf74	-0.10439959
225	0xbd4d3e4c	-0.05010824
226	0x3c1dd210	0.009632602
227	0xbde72e16	-0.11288087
228	0x3d95f382	0.07321836
229	0xbde99ace	-0.1140648
230	0xbd3380c0	-0.043823957
231	0x3db0aa7a	0.08626266
232	0x3cb442f8	0.02200459
233	0xbcc43c30	-0.02395448
234	0xbdbfe270	-0.093693614
235	0xbddf7166	-0.10910301
236	0x3ccb2f30	0.024802774
237	0x3b022140	0.0019856244
238	0x3d8a2614	0.06745544
239	0xbd796168	-0.06088391
240	0xbdb15b68	-0.086600125
241	0x3d9e7c02	0.07738496
242	0x3db87e08	0.090084136
243	0xbbf2c220	-0.0074083954
244	0x3dc0934e	0.09403096
245	0x3c869578	0.016428694
246	0x3de20ac6	0.11037211
247	0xbc985d98	-0.018599316
248	0xbdf0210c	-0.11725053
249	0xbdd55d46	-0.10418181
250	0x3d0e58cc	0.034752652
251	0xbdabde3a	-0.08391996
252	0xbd16da98	-0.03682956
253	0xbcdfb630	-0.027308553
254	0x3db27698	0.08714026
255	0x3da7ff8a	0.08203037

nikkei_encoder.lstm.weight_hh_l1 f4 [256, 64]
0	0x3d90c436	0.07068674
1	0x3c7a4560	0.015275329
2	0xbcc98ae8	-0.024602368
3	0x3d915430	0.070961356
4	0xbd91358c	-0.070902914
5	0x3de4a99e	0.111651644
6	0x3d47cc54	0.048778847
7	0x3db3c528	0.08777839
8	0x3d534b2c	0.05158536
9	0x3d2be784	0.041968837
10	0xbddc8fbe	-0.10769604
11	0x3de58426	0.11206846
12	0xbd31ddb8	-0.043424338
13	0xbdfbb418	-0.122902095
14	0x3dbe1098	0.09280509
15	0xba1aa600	-0.000589937
16	0x3b830f60	0.0039996356
17	0xbdae773e	-0.085188374
18	0x3dc6cc80	0.09706974
19	0xbde33c00	-0.110954285
20	0x3dbcaa9c	0.09212229
21	0x3d8ebe9c	0.069699496
22	0x3db49ace	0.08818589
23	0xbcbc0928	-0.022953585
24	0x3dea4f08	0.11440855
25	0x3dc2bfc8	0.095092356
26	0xbd9352ec	-0.071935505
27	0x3d5d856c	0.05408232
28	0xbd774ea0	-0.060377717
29	0xbc6bd440	-0.014393866
30	0x3dceba94	0.10094181
31	0xbd430f84	-0.04762222
32	0xbc6f6740	-0.014612019
33	0x3ccf8338	0.025331125
34	0x3dfaa29c	0.122380465
35	0xbdfe74ee	-0.12424646
36	0x3dcfc8dc	0.10145733
37	0x3dc98b1c	0.09840986
38	0x3c8d92c8	0.017281905
39	0x3df64658	0.12025136
40	0xbda0dbdc	-0.07854435
41	0x3da804b6	0.082040235
42	0x3d61b62c	0.055105373
43	0xbd314be4	-0.043285266
44	0x3d2ba898	0.04190883
45	0xbd87a028	-0.06622344
46	0xbdd552f6	-0.10416214
47	0xbd951d70	-0.072810054
48	0x3d696dc0	0.05698943
49	0xbde0e25a	-0.10980673
50	0x3de39b56	0.11113612
51	0xbdae2fae	-0.08505188
52	0x3d4bc8f4	0.04975219
53	0xbdd5dcb6	-0.10442488
54	0x3d419600	0.04726219
55	0x3d9a43a6	0.07532434
56	0xbc96c5c0	-0.018404841
57	0x3d069778	0.032859296
58	0x3dd66926	0.10469274
59	0x3d6b2644	0.05740954
60	0xbd0ad964	-0.033898726
61	0xbdeabeba	-0.114621595
62	0x3cb4d030	0.022071928
63	0xbdec7f0c	-0.1154767
64	0x3dc12c08	0.094322264
65	0xbd2216c0	-0.039572477
66	0x3d23a61c	0.039953336
67	0x3d672148	0.056428224
68	0x3dd39f98	0.103331745
69	0xbd4347a4	-0.047675744
70	0xbd530d4c	-0.051526353
71	0xbdeed63c	-0.11661956
72	0xbdb87058	-0.09005803
73	0x3d351a30	0.044214427
74	0x3d98816a	0.07446559
75	0x3dc3d3e4	0.09561899
76	0xbd683458	-0.056690544
77	0xbdb4076e	-0.087904796
78	0xbdadce76	-0.08486645
79	0xbdd60598	-0.10450286
80	0x3d981090	0.07425034
81	0x3c31fdc0	0.010863721
82	0x3deb8e2c	0.115017265
83	0xbda01914	-0.07817283
84	0xbd5e4a28	-0.05426994
85	0x3ca4c4f8	0.020113453
86	0xbd8e942e	-0.06961857
87	0x3d6b2ce0	0.057415843
88	0x3d48239c	0.048862085
89	0xbdf319f4	-0.118701845
90	0x3c28c300	0.010300398
91	0x3d870602	0.06592943
92	0x3cb4cce0	0.022070348
93	0x3cfac1a0	0.030609906
94	0x3d72a91c	0.059243307
95	0x3dd15474	0.10221186
96	0x3dadd344	0.08487561
97	0x3dc48538	0.09595722
98	0x3dde6c52	0.10860504
99	0x3de6c5a0	0.11268163
100	0x3d05be38	0.03265211
101	0xbdbb7f2a	-0.09155114
102	0xbd774790	-0.06037098
103	0xbda849de	-0.08217214
104	0x3c9165e0	0.017748773
105	0xbca99300	-0.020699978
106	0x3bc712e0	0.006075248
107	0x3c69b9a0	0.014265448
108	0x3db6f4f8	0.08933443
109	0x3dfa90ac	0.12234625
110	0x3c6ccc50	0.014453009
111	0xbd922934	-0.07136765
112	0x3cf68728	0.030093744
113	0x3dfe722c	0.1242412
114	0xbda842f0	-0.08215892
115	0x3d7a0870	0.061043203
116	0xbdc04024	-0.09387234
117	0x3d777ed4	0.060423687
118	0xbd09435c	-0.033511505
119	0x3dcedb90	0.10100472
120	0xbbf237a0	-0.007391885
121	0xbd5228f8	-0.051308602
122	0xbd76b7e0	-0.06023395
123	0x3d83d35c	0.06436798
124	0x3d0e5b04	0.034754768
125	0xbcb4e080	-0.022079706
126	0xbd787d20	-0.060666203
127	0xbd3ca090	-0.04605156
128	0xbdca4022	-0.098755136
129	0x3de5b7c4	0.11216691
130	0xbd076c00	-0.03306198
131	0x3cd486f0	0.02594325
132	0xbdaf8568	-0.08570367
133	0x3da4572c	0.08024439
134	0xbdb21694	-0.08695713
135	0xbda34464	-0.07972029
136	0x3cddb6b8	0.027064666
137	0xbd2048a8	-0.03913179
138	0x3dd258e4	0.10270861
139	0x3d790aa0	0.06080115
140	0xbde395c8	-0.11112553
141	0xbd601f84	-0.054717556
142	0xbd0b8b74	-0.03406854
143	0x3d83fdf0	0.06444919
144	0x3d94b03a	0.07260175
145	0x3d3875e8	0.04503432
146	0xbd800696	-0.06251256
147	0xbc14f780	-0.009092212
148	0xbc270920	-0.010195047
149	0x3aeb0980	0.0017931908
150	0xbce6f7e0	-0.028194368
151	0x3c3ad6c0	0.011403739
152	0x3cfdf948	0.031002656
153	0xbd561300	-0.052264214
154	0x3c3ccbe0	0.011523217
155	0x3de041e6	0.10950069
156	0xbddd7940	-0.10814142
157	0x3d99874a	0.074965075
158	0xbbecb640	-0.0072238743
159	0xbdd107da	-0.10206576
160	0xbdf333f4	-0.11875144
161	0xbdfdef42	-0.123991504
162	0x3d9282b2	0.071538344
163	0xbdabd0b4	-0.08389416
164	0x3d1780d4	0.036988094
165	0x3ae30e80	0.0017323047
166	0x3da73450	0.08164275
167	0x3d84a99c	0.06477663
168	0x3de17c58	0.11010045
169	0x3d031814	0.032005385
170	0xbd4710dc	-0.048600063
171	0x3d43853c	0.047734484
172	0x3dd50bc6	0.10402636
173	0xbd8422cc	-0.064519495
174	0xbd988ec6	-0.07449107
175	0x3cd69ef8	0.02619885
176	0xbd9b8bd8	-0.075950325
177	0xbddbb778	-0.10728353
178	0x3d697fc8	0.057006627
179	0x3d55cc84	0.052196994
180	0xbd766858	-0.060158104
181	0x3d0aedd4	0.033918217
182	0xbdbf59a8	-0.093432724
183	0xbd465dc4	-0.048429266
184	0xbda9e56e	-0.08295713
185	0xbceb73d0	-0.028741747
186	0xbc34e060	-0.011039823
187	0x3b97ed60	0.0046364516
188	0xbd39d688	-0.04537061
189	0xbdc0351c	-0.0938513
190	0x3d4b02a4	0.049563065
191	0x3d4b3d44	0.049618974
192	0xbd67e6e4	-0.05661668
193	0xbd498f88	-0.049209148
194	0x3cb39bd0	0.021924883
195	0x3dac4e80	0.0841341
196	0x3d7e92d0	0.06215173
197	0x3ca34878	0.019932017
198	0xbdafa8ae	-0.08577095
199	0xbddab338	-0.106787145
200	0x3dd28746	0.102797076
201	0x3df1d586	0.118083045
202	0x3d80abd6	0.06282775
203	0xbd45ad3c	-0.048260912
204	0xbda059ce	-0.07829629
205	0xbb0f1bc0	-0.0021836609
206	0xbda6682e	-0.081253394
207	0x3d830358	0.06397122
208	0xbdd051aa	-0.10171826
209	0xbdcac12a	-0.09900124
210	0xbda8299a	-0.0821106
211	0xbdc0b43e	-0.094093785
212	0x3d95b2c0	0.073094845
213	0x3d09f15c	0.033677444
214	0xbdf7cd54	-0.1209971
215	0xbdaa5922	-0.08317782
216	0x3d90da94	0.070729405
217	0x3de5738c	0.112036794
218	0xbdb0ea52	-0.08638443
219	0x3c6cbc40	0.014449179
220	0x3d3d3df8	0.046201676
221	0x3dddd226	0.10831098
222	0x3daf4722	0.085584894
223	0x3de9032c	0.11377558
224	0x3d7c0c9c	0.061535463
225	0x3dfc78ce	0.12327729
226	0x3d5f81ac	0.054567024
227	0xbd4e0eac	-0.05030696
228	0x3d4ce794	0.050025538
229	0xbd85416e	-0.0650662
230	0x3a284600	0.0006419122
231	0x3dc2b046	0.09506278
232	0x3dd59e9c	0.10430643
233	0x3da8f8c0	0.0825057
234	0xbdadbdec	-0.0848349
235	0xbdd15df6	-0.10223
236	0x3d92fe10	0.07177365
237	0xbded9bc0	-0.116019726
238	0x3d3d467c	0.046209797
239	0xbd4912ec	-0.04909031
240	0xbdbd06dc	-0.09229824
241	0x3d0b1614	0.033956602
242	0xbddc46f4	-0.10755721
243	0x3c400aa0	0.011721283
244	0x3d52551c	0.051350698
245	0x3dcc0208	0.09961325
246	0xbd6148e8	-0.05500117
247	0xbd219720	-0.039450765
248	0xbd256418	-0.04037866
249	0xbbfe26a0	-0.0077560693
250	0x3d2a846c	0.041630194
251	0xbdcf3c90	-0.10118973
252	0x3dcda69c	0.10041544
253	0x3d2d65c0	0.042333364
254	0xbd2e8590	-0.042607844
255	0xbca393c8	-0.019967929

nikkei_encoder.lstm.bias_ih_l1 f4 [256]
0	0xbc3d4570	-0.0115522
1	0xbd2b9210	-0.041887343
2	0xbdf3fb66	-0.11913185
3	0xbd9b9a56	-0.075977966
4	0x3dfc0c4a	0.123070315
5	0xbd5ac678	-0.05341193
6	0xbd750658	-0.059820503
7	0x3dae0242	0.084965244
8	0x3da88970	0.08229339
9	0x3dc56db0	0.09640062
10	0x3d36d22c	0.04463403
11	0xbc30e070	-0.010795698
12	0xbd811f34	-0.0630478
13	0x3d0bab4c	0.03409891
14	0xbd8f16ac	-0.06986746
15	0x3b640bc0	0.0034797043
16	0xbd4cc59c	-0.049993142
17	0x3ca9eb30	0.020742029
18	0x3c3ba3b0	0.0114526
19	0xbc939f28	-0.018020228
20	0x3aa83b80	0.0012835115
21	0xbd582104	-0.05276586
22	0xbd208478	-0.039188832
23	0xbc73b0e0	-0.014873713
24	0xbc7ea950	-0.015543297
25	0xbde6f46e	-0.1127709
26	0xbd4bb354	-0.049731568
27	0x3df4e7a2	0.11958243
28	0xbd6d8c64	-0.057995215
29	0xbd15cb74	-0.03657098
30	0x3da72db8	0.08163017
31	0xbd3d67a0	-0.046241403
32	0x3cb54958	0.0221297
33	0x3d41426c	0.047182485
34	0x3d3573d4	0.044299915
35	0x3df4d756	0.119551346
36	0xbd9de094	-0.077088505
37	0xbde64854	-0.11244264
38	0x3c354620	0.011064082
39	0xbde95c80	-0.11394596
40	0xbdbc1960	-0.091845274
41	0xbce728f8	-0.028217778
42	0x3db2722e	0.08713184
43	0x3d1d7b0c	0.038447425
44	0x3cbeae10	0.023276359
45	0xbd371eec	-0.044707224
46	0x3d3c06e8	0.045905024
47	0x3d1ab030	0.03776568
48	0x3d84c668	0.064831555
49	0xbd7de85c	-0.061989173
50	0xbba7a820	-0.0051164776
51	0x3da7fafe	0.0820217
52	0x3dd1923c	0.1023297
53	0x3ddddde8	0.10833341
54	0xbdbe2716	-0.09284799
55	0x3d91425e	0.07092737
56	0xbd84cca6	-0.06484346
57	0x3df6ebe0	0.12056708
58	0xbcf74800	-0.0301857
59	0x3a8bea00	0.0010674596
60	0xbd9befb4	-0.07614079
61	0xbc3233e0	-0.010876626
62	0xbdc1e540	-0.09467554
63	0xbd885056	-0.06655948
64	0xbdecb1b0	-0.11557329
65	0x3d7d235c	0.0618013
66	0x3d93fefa	0.07226367
67	0xbdc748a2	-0.097306505
68	0xbdaf2bee	-0.08553301
69	0x3df9381a	0.12168904
70	0x3d96369e	0.07334636
71	0xbdd02be0	-0.101646185
72	0xbc0c4a40	-0.008562624
73	0xbc999c48	-0.018751279
74	0x3d4b40d0	0.049622357
75	0xbd22d7c8	-0.039756566
76	0xbd9726ce	-0.07380448
77	0xbc109c00	-0.008826256
78	0x3d85728a	0.06515987
79	0x3dc75f6c	0.09734997
80	0x3da4429e	0.08020519
81	0x3d99a88c	0.07502851
82	0x3b5a4bc0	0.003330931
83	0x3dfdfe8a	0.12402065
84	0x3db515c6	0.088420436
85	0x3d383e64	0.044981375
86	0x3dda0b5c	0.10646698
87	0xbdd04038	-0.10168499
88	0x3da2ead6	0.07954948
89	0x3cc0fe00	0.023558617
90	0x3d1ca8ac	0.038246796
91	0xba37e800	-0.00070154667
92	0x3d2fd680	0.042929173
93	0x3d31969c	0.043356523
94	0x3c0fc330	0.008774564
95	0x3d88273c	0.06648108
96	0x3d619b24	0.055079594
97	0x3dab654c	0.0836893
98	0xbde820f6	-0.11334412
99	0x3d0c71a8	0.03428808
100	0xbdb98d92	-0.090602055
101	0x3c66eba0	0.014094263
102	0x3da03dc6	0.07824282
103	0xbdd7be6a	-0.105343655
104	0x3dd7d1f8	0.10538095
105	0xbdd86c0a	-0.10567482
106	0xbd8cce98	-0.06875342
107	0xbdbe02d8	-0.09277886
108	0x3d334380	0.043765545
109	0x3de259de	0.11052297
110	0x3d516210	0.05111891
111	0x3d893496	0.06699483
112	0x3cfe9e38	0.031081304
113	0x3d751818	0.05983743
114	0xbde73ece	-0.11291276
115	0xbdd1ca88	-0.10243708
116	0x3bc9ce60	0.006158635
117	0xbdec51ec	-0.11539063
118	0x3b22fc40	0.002486959
119	0xbd6f15c0	-0.05837035
120	0xbdf94076	-0.12170498
121	0x3beca2c0	0.0072215497
122	0xbdceabd0	-0.100913644
123	0xbd0bdfec	-0.034149095
124	0xbdd4b212	-0.10385527
125	0xbdec3332	-0.11533202
126	0xbde20e32	-0.11037864
127	0xbd9c28ee	-0.07624994
128	0xbdccfc72	-0.100090876
129	0x3d885cb8	0.0665831
130	0xbd0da524	-0.03458132
131	0x3ddb2d4e	0.107020006
132	0x3d8ff8f0	0.07029903
133	0x3debea86	0.11519341
134	0xbd3fa51c	-0.04678832
135	0xbd2f3d84	-0.042783275
136	0x3da1b88c	0.07896528
137	0xbdfdf088	-0.12399393
138	0x3df7164a	0.12064798
139	0x3d8f42e6	0.06995182
140	0x3dad059e	0.08448337
141	0xbd1e17b0	-0.03859681
142	0xbd640038	-0.05566427
143	0x3dc5c06e	0.09655844
144	0xbdecc220	-0.11560464
145	0xbdc1b198	-0.094577014
146	0xbbff1520	-0.0077845007
147	0x3d7b1888	0.06130269
148	0x3dc59de4	0.09649256
149	0xbde8fa46	-0.11375861
150	0x3def35ea	0.11680205
151	0xbd38db34	-0.045130923
152	0x3d447684	0.047964588
153	0x3d344d50	0.044019043
154	0x3d84a28a	0.06476314
155	0xbdccb610	-0.09995663
156	0xbd4131d8	-0.047166675
157	0xba080c00	-0.00051897764
158	0xbcb47ed0	-0.022033125
159	0xbdd0e6ac	-0.10200247
160	0x3dc44e4c	0.095852464
161	0xbd198d70	-0.0374884
162	0xbcfb4798	-0.030673787
163	0x3dd28d60	0.102808714
164	0x3c591c30	0.013251349
165	0xbd8b386e	-0.067978725
166	0x3dd263ec	0.10272965
167	0x3ce10b60	0.027471244
168	0x3db3dd98	0.087825
169	0xbdddbc80	-0.10826969
170	0x3dad33ba	0.08457132
171	0xbc820950	-0.015873581
172	0x3dd191c6	0.10232882
173	0x3ae29d80	0.001728937
174	0xbdd34940	-0.10316706
175	0xbdff0866	-0.12452774
176	0xbd717600	-0.058950424
177	0x3d9bde2e	0.07610737
178	0x3d9c4318	0.076299846
179	0xbc9762b8	-0.01847969
180	0xbdf35908	-0.11882216
181	0xbdbfefb8	-0.093718946
182	0x3da4eb3a	0.080526784
183	0xbd2707d4	-0.04077895
184	0xbd502bf4	-0.050823167
185	0x3dcab9cc	0.09898719
186	0xbdb30d5e	-0.08742784
187	0x3cfc1170	0.030770034
188	0xbd8d5e86	-0.069027945
189	0x3d25355c	0.04033409
190	0xbc709d40	-0.014685929
191	0x3bc273c0	0.0059342086
192	0x3d9e592c	0.07731852
193	0xbdd1e494	-0.10248676
194	0xbde173d4	-0.110084206
195	0xbc6c1e10	-0.014411464
196	0xbd9142c4	-0.07092813
197	0x3d842c3e	0.06453751
198	0x3deca84c	0.115555376
199	0x3d0e3e54	0.03472741
200	0xbdf41c40	-0.11919451
201	0x3c94dcc8	0.018171683
202	0x3de4323a	0.111423925
203	0xbd58c0a0	-0.052918077
204	0x3d89ffea	0.06738265
205	0x3d825762	0.06364323
206	0x3df1f452	0.118141785
207	0x3d9be412	0.0761186
208	0xbc2cdaf0	-0.010550246
209	0x3af56c00	0.0018724203
210	0x3daa9c7c	0.08330628
211	0xbded9ca2	-0.11602141
212	0x3cd1eaa8	0.025624588
213	0xbda2e190	-0.07953179
214	0xbd153d70	-0.036435544
215	0xbd7cbf70	-0.061706007
216	0xbd1a49f8	-0.0376682
217	0xbdb0c138	-0.086306036
218	0x3da2ef1a	0.07955761
219	0x3d4236ac	0.04741542
220	0xbd88fc9a	-0.06688805
221	0xbd854d7a	-0.06508918
222	0x3d41548c	0.04719977
223	0xbdecb248	-0.11557442
224	0xbd7539c4	-0.059869543
225	0xbde79296	-0.11307256
226	0x3dcace00	0.09902573
227	0x3d27d240	0.040971994
228	0xbd80e88e	-0.06294356
229	0x3df5ef5e	0.12008546
230	0x3cd8fd70	0.026488036
231	0x3d8194a8	0.06327182
232	0xbd7c3ae0	-0.061579585
233	0xbdaaf0cc	-0.083467096
234	0x3d9499c2	0.072558895
235	0x3de3e4c8	0.11127621
236	0xbdf13390	-0.11777413
237	0x3d4653b4	0.04841967
238	0x3d495444	0.049152628
239	0x3de7db4e	0.11321126
240	0x3d50e7a0	0.051002145
241	0xbcd23fe0	-0.025665224
242	0xbc8de9d8	-0.01732342
243	0xbd4ae5e0	-0.049535632
244	0x3d1c45bc	0.03815244
245	0xbdfe3ec8	-0.12414318
246	0xbd823c32	-0.063591376
247	0x3dbe4216	0.09289949
248	0x3c9476b8	0.018123016
249	0x3cf35f90	0.029708654
250	0x3cd6cc28	0.026220396
251	0xbc9af110	-0.018913776
252	0x3d782ed8	0.06059155
253	0xbdca672e	-0.09882961
254	0xbdae5b50	-0.0851351
255	0xbbdb6c60	-0.006696269
