models/trading_model_demo.pth (torch, 931709 bytes, 35 tensors)

nikkei_encoder.lstm.weight_ih_l0 f4 [256, 3]
000000 4a f4 86 3d e4 7e ec bd 06 14 a0 3d 14 03 a8 bd
       0.06589563 -0.1154764 0.07816319 -0.08203712
000010 00 0b 27 3b e0 af 35 bc 4a 71 b6 3d 00 c6 82 b9
       0.0025488734 -0.011089295 0.08908327 -0.00024943054
000020 06 6e 95 3d 18 e5 cf 3c 28 b2 12 3d 10 12 81 bc
       0.07296376 0.025377795 0.035814434 -0.015755683
000030 02 57 cf bd c8 31 a9 3c 90 2c c0 bd 26 d7 ca 3d
       -0.10124017 0.02065362 -0.093834996 0.099043176
000040 0c f2 d3 3d 60 b4 ff 3d 4c a3 38 bd 5e 46 fd bd
       0.10348901 0.12485576 -0.045077607 -0.12366937
000050 ec 14 8a 3d 1a 54 a1 bd ee 1e 93 3d 3c 3c 29 bd
       0.06742272 -0.07877369 0.07183634 -0.04131721
000060 3e 15 81 bd fc 34 96 3d 52 6e a1 3d 68 14 1a 3d
       -0.0630288 0.07334325 0.0788237 0.037617117
000070 30 b5 41 3d 76 70 c1 bd b0 90 c4 bc 40 c3 dd 3d
       0.047291934 -0.09445278 -0.023994774 0.108282566
000080 fc 10 7a 3d c0 ab 54 bb 28 eb a7 bd 12 a7 d1 bd
       0.061051354 -0.0032451004 -0.08199149 -0.10236944
000090 78 6c f8 3c 90 5a 92 3d 5c 8e 87 3d b0 7e 9b bd
       0.03032516 0.0714618 0.0661895 -0.07592523
0000a0 e6 db cf 3d 3c 98 1a 3d 38 4c 69 3d 70 33 16 bc
       0.10149364 0.03774284 0.056957453 -0.009167537
0000b0 7c 21 d2 bd 3a 16 ef 3d 00 31 47 bc 18 cb da 3d
       -0.10260293 0.11674161 -0.012157679 0.10683268
0000c0 0e 93 bf 3d 30 ea cc bc 6c 3f c3 bd 2a aa de 3d
       0.0935422 -0.025014013 -0.09533581 0.108723
0000d0 00 d4 5a 3c b0 e8 bc bc 98 fa fe 3d 2a f3 85 bd
       0.013356209 -0.023060173 0.12450141 -0.065405205
0000e0 68 32 d9 bd 50 02 f9 bd ea dc cd bd aa 0f c3 bd
       -0.10605317 -0.12158644 -0.10051902 -0.09524472
0000f0 64 1a d6 3d 4a 59 d1 3d 5c 14 cf 3d 3e f2 c7 3d
       0.10454252 0.10222109 0.10111305 0.09763001
000100 56 85 fd bd b8 e3 b0 3d a8 70 15 3d e2 5b e4 3d
       -0.123789474 0.08637184 0.03648439 0.11150338
000110 00 d5 26 3d d8 70 a5 3c 30 2f 57 bc 34 0a 69 3d
       0.040730476 0.02019541 -0.013133809 0.056894496
000120 9c b4 aa 3d 12 29 9e bd fa 97 e8 3d 4e ec 90 bd
       0.0833523 -0.07722677 0.11357112 -0.070763215
000130 08 29 bd 3c 28 89 6f bd 0c ec 22 3d 44 c6 a3 3d
       0.023090854 -0.05848041 0.039775893 0.079968005
000140 08 7c 19 3d 3c 48 30 3d a0 7b 91 bc 00 aa 82 3c
       0.0374718 0.043037638 -0.017759144 0.015950203
000150 be 72 f7 bd 08 c8 ce bd 84 03 4c bd 90 33 b4 bc
       -0.12082432 -0.10096747 -0.04980804 -0.021997243
000160 50 20 cd 3d 10 b5 17 3d d6 57 95 bd ec 8d 8c bd
       0.10015929 0.03703791 -0.07292144 -0.06863007
000170 48 cc e7 bd a0 ed 87 3c 0a e0 b4 3d a0 2b 67 3d
       -0.113182604 0.0165928 0.088317946 0.05643809
000180 40 39 53 3c 02 e0 a7 3d 60 1e c2 3d b8 e5 9e bc
       0.012892067 0.08197023 0.0947845 -0.019396648
000190 e8 f7 4d 3d ac 7b 75 bd 5e ac ce 3d 10 d0 1c 3c
       0.05028525 -0.059932396 0.1009147 0.00957109
0001a0 90 64 4d bc 9c 60 5d 3d 48 96 e5 3d c0 9c 03 bb
       -0.012536183 0.054047212 0.112103045 -0.0020082444
0001b0 c0 08 3b 3d 70 06 2f 3d 6e f0 89 bd 80 e7 b5 3b
       0.04566264 0.04273075 -0.067353114 0.0055512786
0001c0 0c d2 c9 bd c4 92 35 3d 1a e6 c3 bd 00 db 15 bc
       -0.098545164 0.04432942 -0.09565373 -0.009146452
0001d0 2c 04 f9 3d f4 b1 78 3d bc 92 fe bd fa dc e0 bd
       0.12158999 0.060716584 -0.12430331 -0.10979648
0001e0 dc cb e4 3d 40 28 27 3b ba c2 db bd a8 18 b5 bd
       0.111716956 0.0025506169 -0.107305005 -0.088425934
0001f0 a8 6c f1 bd 00 23 08 3d 80 87 b1 bb 50 c1 55 3c
       -0.11788303 0.033236504 -0.005417764 0.013046578
000200 f0 0c e5 bd a4 73 6d bd a4 4a 35 3d 82 93 c7 bd
       -0.11184108 -0.05797161 0.044260636 -0.09744932
000210 48 d5 fe bd 98 2b df 3d 30 0f 80 bc 10 eb 70 3d
       -0.12443024 0.10896987 -0.015632242 0.058817923
000220 20 67 54 bc be 0a cd 3d c0 20 fe bb 78 1d 58 3d
       -0.01296404 0.100118145 -0.007755369 0.05276248
000230 1c 15 7d 3d f2 4d 9e 3d d8 86 fa 3c 88 ca 78 bd
       0.06178771 0.07729711 0.030581877 -0.060740024
000240 8c 9e 05 bd 82 76 96 bd 80 12 43 3b 7a 9f cf 3d
       -0.032621905 -0.07346822 0.0029765666 0.101378396
000250 7e e5 e9 3d e0 bc 2c 3d 28 cd e4 bd a0 a6 19 bd
       0.11420725 0.042172313 -0.11171943 -0.03751242
000260 b0 c7 60 3c 72 e8 a9 3d 8c 8e d3 3d 12 71 d8 bd
       0.013719484 0.082962885 0.10329923 -0.105684415
000270 00 86 e7 bb 30 6c 5a 3d f8 13 9d 3c 10 60 e8 bc
       -0.0070655346 0.053325832 0.01917456 -0.028366119
000280 50 05 5b bc 86 31 8f bd d4 e4 b0 3d e0 14 f7 3d
       -0.013367966 -0.06991868 0.086373955 0.120645285
000290 d2 85 e9 3d 50 49 a8 3d 48 c2 c4 3d d8 1f 9e 3c
       0.11402477 0.08217108 0.09607369 0.019302294
0002a0 c8 44 6a bd 0a 73 a8 3d a6 1f d6 3d 48 40 0e 3d
       -0.0571945 0.08225067 0.10455255 0.034729272
0002b0 54 1e b5 bd c0 2b 25 bd b8 a6 8d bc 04 f4 41 3d
       -0.08843675 -0.040324926 -0.017291412 0.047351852
0002c0 78 44 eb bc 58 cc d9 3d 58 23 2f bd 88 7f 8f bd
       -0.028719172 0.106346786 -0.042758316 -0.070067465
0002d0 d8 af c5 3c 68 ae 90 3d 7c 9b 2f 3d 40 8e 12 bb
       0.0241317 0.07064515 0.04287289 -0.002236262
0002e0 7c 12 f0 3d 12 44 e1 bd a0 cf 7d 3c 20 0a 30 bc
       0.117222756 -0.109993115 0.015491396 -0.0107446015
0002f0 ec 9c 9e bd f0 e7 82 3d 80 59 80 bd a8 5a f5 3d
       -0.07744774 0.06391895 -0.06267071 0.11980182
000300 3c 54 26 bd aa 32 bd bd c4 5c 18 bd 30 ff ca 3c
       -0.040607676 -0.09238179 -0.037197843 0.024779886
000310 76 1a ed 3d cc ca f1 3d 8a d8 8c 3d 08 04 ac bd
       0.11577313 0.118062586 0.06877239 -0.083992064
000320 6c fb 9f 3d d6 b5 de 3d cc 45 16 bd 38 60 cd bc
       0.07811627 0.10874526 -0.036687657 -0.025070295
000330 22 28 da 3d a0 df 6c bc ee 66 98 bd 70 33 7e bc
       0.10652186 -0.014457613 -0.07441507 -0.015515193
000340 f0 7a f3 3d a8 1e fe bd 3c 9d 1c 3d 80 1c a5 3c
       0.11888683 -0.12408191 0.038235888 0.020155191
000350 50 e2 56 bd 5a be 99 bd f8 8d df bd 48 a2 ac bd
       -0.052461922 -0.0750701 -0.1091575 -0.0842939
000360 9c bd e7 3d 2c 86 8f 3d 1c 13 1a bd 88 86 6b 3d
       0.11315462 0.07008013 -0.03761588 0.057501346
000370 34 03 d5 bd f0 b0 1a bd a8 cc a9 bc 00 f0 d3 3c
       -0.104010016 -0.037766397 -0.02072747 0.025871277
000380 d8 27 6e 3d 98 5b d2 bd 92 61 a4 3d a4 38 cf 3d
       0.058143467 -0.10271376 0.080264226 0.10118225
000390 5e 47 ff bd 6c a3 7e 3d 96 21 a8 bd 9a 03 c1 3d
       -0.12464784 0.06216757 -0.08209531 0.09424515
0003a0 e2 80 dc bd ee ed 89 3d 00 3e 0e 3a 5c f9 58 3d
       -0.1076677 0.067348346 0.0005426109 0.052972183
0003b0 50 be 69 3c 28 bf b8 3d 80 51 af bb 00 6d c5 bb
       0.014266565 0.09020835 -0.0053502917 -0.0060249567
0003c0 40 57 aa bc e0 89 d7 3c bc 5e d6 bd 26 c4 fa 3d
       -0.020793557 0.026310861 -0.10467288 0.122444436
0003d0 96 1d e7 bd b8 1e f4 bd fe 1d fd bd 40 a3 fd 3d
       -0.1128494 -0.11919922 -0.12359236 0.12384653
0003e0 d6 5d d2 bd a0 9d 9c bc 4c ef f8 bd 68 0e aa bc
       -0.10271804 -0.01911813 -0.12155017 -0.020758823
0003f0 2c ce d9 3d b6 fe 8c bd fc 0b 12 3d 20 c9 e5 bb
       0.10635027 -0.0688452 0.03565596 -0.0070125014

nikkei_encoder.lstm.weight_hh_l0 f4 [256, 64]
000000 1e 2c a9 3d 30 bd a6 3d 7c 5f 09 bd f2 93 a7 bd
       0.08260368 0.081415534 -0.033538327 -0.08182515
000010 04 ac 67 3d 60 5e b5 bc 7e a6 c1 3d bc f6 19 3d
       0.05656053 -0.022139728 0.09455584 0.03758882
000020 88 ba b0 bd 20 61 ca 3b 48 bf f5 bd f0 4d 4c 3c
       -0.08629328 0.006176129 -0.11999375 0.012469754
000030 20 92 dd bd 00 1b 6a bd 80 4a 73 bc 08 90 32 3d
       -0.10818887 -0.057154655 -0.014849305 0.04359439
000040 0c ec 28 bd d0 59 7a bd d2 22 f1 bd ca d8 87 bd
       -0.041240737 -0.061120808 -0.117742196 -0.06633146
000050 cc db 67 3d b0 5f 23 bc 38 5c e5 bc 88 ad 9c bc
       0.0566061 -0.009971544 -0.027998075 -0.019125715
000060 9a f0 97 bd 80 eb 10 bd f4 d5 a4 3d 00 82 c3 bd
       -0.07418938 -0.03538084 0.08048621 -0.0954628
000070 92 9a d0 3d a0 db 1f 3c 74 ba 4b bd 86 e3 e8 3d
       0.10185732 0.0097569525 -0.049738362 0.11371522
000080 58 7c 24 bd bc c4 d2 3d f2 68 8f 3d 00 c8 31 bc
       -0.040157646 0.1029143 0.070024386 -0.010850906
000090 a0 54 e6 3c 88 8c 58 3d 04 e7 be bd 00 26 f4 bc
       0.028116524 0.052868396 -0.093214065 -0.029803276
0000a0 c0 71 6a bd ec ad 8f bd c8 bf a8 bd 70 f2 f4 bc
       -0.057237387 -0.07015595 -0.08239704 -0.02990076
0000b0 58 a4 d8 3c 4c f3 bf 3d f6 59 e3 bd bc 5c d2 3d
       0.026445553 0.09372577 -0.11101143 0.10271594
0000c0 20 d7 1b bc 0c c2 4a bd 96 38 cc bd b0 28 90 bc
       -0.009511739 -0.049501464 -0.099717304 -0.017597526
0000d0 58 44 77 3d a0 68 c7 3b 04 34 ac 3d ba 8f b7 3d
       0.060367912 0.0060854703 0.08408359 0.089629605
0000e0 26 af be 3d 30 ed 84 3c c0 58 ac bc 20 05 ac bd
       0.09310751 0.016226381 -0.021038413 -0.08399415
0000f0 5c df 47 3d 6e a1 9b 3d 18 18 d5 bd 10 aa 92 3c
       0.048796996 0.0759915 -0.10404986 0.017903358
000100 00 ed 6f bd 44 58 f8 bd 80 ef 59 3b 60 c6 8f 3c
       -0.05857563 -0.1212621 0.0033254325 0.017550647
000110 72 5d df 3d a4 9a 88 3d 34 43 c5 3d de 4b ff bd
       0.10906495 0.0667012 0.096319586 -0.124656424
000120 20 76 06 3c 10 da 2f 3c 54 42 1b 3d 68 14 b3 3c
       0.008206874 0.0107331425 0.037905052 0.021860316
000130 70 f1 27 3d a0 8c 1d bc 20 78 52 bc 1a e6 dd 3d
       0.041001737 -0.009616047 -0.012846023 0.10834904
000140 c2 33 d1 3d b6 5a c8 3d 80 2e 29 bd 98 84 f4 3d
       0.1021495 0.09782927 -0.04130411 0.11939353
000150 bc ed 13 3d b8 8e a6 3d 5c f9 49 3d 2a 1b d2 3d
       0.036115393 0.0813269 0.049310073 0.102590874
000160 44 81 17 bd e4 bd 6b bd 6a c7 c2 bd 0c 4e 1f bd
       -0.03698851 -0.05755414 -0.095106915 -0.03889279
000170 fa c1 b1 3d e6 76 d4 bd 48 7e c3 3c d8 ae fe 3d
       0.08679576 -0.103742406 0.023863927 0.124356925
000180 48 b8 0c 3d 00 d5 09 ba 80 9f c0 ba ae 6c c1 bd
       0.03435543 -0.0005257875 -0.0014695972 -0.09444557
000190 ce 3d fd bd 68 cc aa 3d 88 67 d5 3d 54 85 75 bd
       -0.12365304 0.08339769 0.10420138 -0.059941605
0001a0 ca d6 e9 bd 38 cf b0 bc 58 fd ad 3c 0e 70 91 bd
       -0.11417921 -0.021583185 0.021238968 -0.07101451
0001b0 3c 65 bc bd 74 1a b7 3d 1a c6 da 3d f0 26 56 3d
       -0.091989964 0.089405924 0.10682316 0.052283227
0001c0 20 da 1f bc cc 06 17 bd 20 6d 30 bc c8 a7 cf 3c
       -0.009756595 -0.036871716 -0.010768205 0.025348559
0001d0 2c c3 7c bd 40 96 6b bc 00 e8 a1 3b 98 c9 df 3d
       -0.061709568 -0.014379084 0.0049409866 0.10927123
0001e0 40 94 2c 3b 5a a1 e5 3d 20 83 8e bd c8 8a ba 3d
       0.002633348 0.11212416 -0.06958604 0.09108502
0001f0 98 52 9a 3c 80 8e 58 3c 1a 7e f5 bd 48 2c 58 3d
       0.018838212 0.013217568 -0.119869426 0.052776605
000200 4e 26 c2 bd c4 44 7d 3d a8 ec 87 3c 2c 49 02 bd
       -0.09479962 0.061833158 0.016592339 -0.031808063
000210 7c 15 1c 3d a0 6a 8e bc f8 0e 05 bd e0 51 b1 3d
       0.038106427 -0.017384827 -0.03248498 0.086581945
000220 d8 db f4 3d f8 f4 d2 3d 40 e2 31 3c 7c af c1 bd
       0.11955994 0.1030063 0.010857165 -0.09457299
000230 e6 45 cf bd 70 33 07 bd c0 0a 90 bb a6 c4 ef 3d
       -0.10120754 -0.03300804 -0.0043958127 0.117074296
000240 c4 32 3b bd e6 b6 b5 3d ea 03 c1 3d 88 0e 82 bd
       -0.04570271 0.08872776 0.09424575 -0.06350428
000250 30 10 fd bd 5a 9c ea bd 00 20 a5 3d a0 20 e5 bd
       -0.12356603 -0.11455603 0.08062744 -0.11187863
000260 ac 0d 7b bd 18 c3 f5 bd b0 fa 03 bc ac 3c bf 3d
       -0.061292335 -0.12000102 -0.008055374 0.09337744
000270 28 94 08 bd 28 ba 48 bd 90 ff 07 3c 28 99 30 bd
       -0.033344418 -0.049005657 0.008300677 -0.04311481
000280 a4 63 a5 3d 50 b9 79 bd a0 c0 91 bd f0 70 62 3d
       0.080756456 -0.060967743 -0.071168184 0.055283487
000290 6c 12 e3 3d 40 70 f9 bd a0 ee ea bb 62 c3 c3 bd
       0.11087498 -0.12179613 -0.0071695596 -0.09558751
0002a0 50 b7 b5 bc 0c fa bf 3d 4c 31 a2 bd 84 65 79 bd
       -0.022182137 0.093738645 -0.07919559 -0.06088783
0002b0 5a 0f 8f bd dc 9a 4a 3d a6 b5 da 3d 48 19 80 bd
       -0.0698535 0.04946409 0.10679178 -0.06254822
0002c0 18 e5 b4 bc d0 24 c3 3d 0e c5 82 bd 14 a6 0d bd
       -0.022081897 0.09528506 -0.063852414 -0.034582213
0002d0 8c c7 a5 bd 20 e3 d8 3b c0 d0 47 bc 68 32 63 3d
       -0.08094701 0.0066188723 -0.012195766 0.055467993
0002e0 00 21 80 bb 30 7d eb bc c0 96 22 3b bc 31 bf 3d
       -0.003910184 -0.028746217 0.0024809092 0.09335658
0002f0 5c 7c d4 bd 7c 81 cc 3d 08 38 86 bc 9e bc dd bd
       -0.10375282 0.09985635 -0.01638414 -0.108269915
000300 60 49 ae bb a0 eb 98 3c 80 cf 8f bb c0 17 54 bc
       -0.0053188056 0.018667042 -0.0043887496 -0.012945116
000310 80 b7 b2 3d 80 7d 7f bc c2 99 cf bd f6 e5 b4 3d
       0.08726406 -0.015593886 -0.10136749 0.08832924
000320 ba d8 b4 3d 68 df 91 3c c0 33 54 3d c0 08 f2 3c
       0.088304 0.017806724 0.051807165 0.029545188
000330 e0 0d f1 3b 40 63 56 3b e4 3f 41 3d c0 14 cb bc
       0.0073563904 0.0032712966 0.04718007 -0.024790168
000340 20 20 19 3c f2 02 f1 3d a0 88 ca 3d f0 fa 16 bc
       0.009346038 0.1176814 0.098893404 -0.009215102
000350 60 5f f3 3b 18 ef e2 3c 20 a0 48 3c 1a 03 cc 3d
       0.007427141 0.0277019 0.012245208 0.09961529
000360 98 0b 81 bc dc 7a 0c bd ec 63 59 bd 40 65 b7 bd
       -0.015752599 -0.034296855 -0.05307381 -0.08954859
000370 80 d1 0b 3d 68 b6 f5 bc a2 cf cb 3d 64 66 4f 3d
       0.03413534 -0.029994205 0.09951712 0.050634757
000380 6a 5c a4 3d a0 d7 da 3b a0 47 06 3c 90 57 f7 3d
       0.08025439 0.0066785365 0.008195788 0.12077248
000390 8c 65 3b 3d dc 0c ca 3d bc 2b 49 3d ac 68 10 3d
       0.04575114 0.09865734 0.049113974 0.035256073
0003a0 00 97 27 3b a0 c4 a9 bd 74 77 d8 3d d8 03 ff 3d
       0.002557218 -0.08289456 0.10569659 0.12451905
0003b0 5c dd b5 3d fe cb d7 bd 42 ac f7 3d 36 7d f0 3d
       0.088801116 -0.10536955 0.120934024 0.11742632
0003c0 3a 9b ba 3d a0 59 11 3c 7e d2 fd bd 44 dd 8a bd
       0.09111638 0.008871466 -0.12393664 -0.06780484
0003d0 f0 9a 7e bd 62 4d c6 bd 3a 7a bb 3d 34 78 2c 3d
       -0.06215948 -0.09682728 0.09154172 0.042106822
0003e0 f8 ac a6 3c c0 1f 1f bd a8 78 f1 bc 68 ad cb 3c
       0.02034615 -0.03884864 -0.029476479 0.02486296
0003f0 78 c0 02 bd 32 fa c2 bd 5a 4f b1 bd 30 11 8e 3d
       -0.031921834 -0.09520377 -0.08657713 0.06936872

nikkei_encoder.lstm.bias_ih_l0 f4 [256]
000000 c8 1f f4 3c c8 b3 39 bd e0 2c 7c 3c 6c 1e 5e 3d
       0.02980031 -0.04533747 0.015391558 0.05422823
000010 54 0c 43 bd 42 8f 8c 3d a0 d8 c5 3d ea 59 ec bd
       -0.04761918 0.06863262 0.096604586 -0.11540587
000020 1c 31 3f 3d c8 b8 45 3d f8 66 a0 3c 00 b6 a5 bd
       0.046677694 0.048271924 0.01958035 -0.08091354
000030 92 9a f0 bd 7c 47 44 bd b2 c0 e4 bd c0 41 7c 3c
       -0.11748232 -0.047919735 -0.11169566 0.015396535
000040 58 1b 75 bd 5c c8 00 bd 4c 41 27 3d f4 7c e1 bd
       -0.05984053 -0.031441078 0.040833756 -0.11010161
000050 14 70 77 3d 00 c3 e6 bd e4 dd 0d bd 36 da ce bd
       0.06040962 -0.11267662 -0.03463544 -0.10100214
000060 7c 8b 5f bd 60 a4 c9 bd 84 1b 44 3d 02 d6 b2 bd
       -0.054576382 -0.09845805 0.047877803 -0.08732225
000070 2c 05 8a bd fe 72 a7 bd e6 c4 c1 bd f4 57 67 bd
       -0.06739268 -0.0817623 -0.094613835 -0.056480363
000080 08 be 94 3d e0 56 fd 3c f0 91 51 bc 60 07 d2 bd
       0.07262808 0.030925214 -0.012791142 -0.10255313
000090 b4 b4 d6 3d 4c 36 ed bd 54 2e fb bd 08 62 fc 3c
       0.10483685 -0.11582622 -0.12264696 0.030808464
0000a0 2e f7 89 bd 5c b8 c4 3d e0 61 c3 3c e8 7f 23 bd
       -0.06736599 0.09605476 0.023850381 -0.039916903
0000b0 f8 73 b7 bd d8 b4 df 3c 60 25 8e bd ee 01 91 3d
       -0.08957666 0.027307913 -0.069407225 0.07080446
0000c0 70 a5 b4 3d c0 ac de 3c 60 4f 88 bd e0 4b b5 bc
       0.08820617 0.027181983 -0.066557646 -0.022130907
0000d0 48 5e db 3c 50 f4 84 bd 60 85 e0 3b 3c 65 46 bd
       0.026778355 -0.064919114 0.006851837 -0.04843639
0000e0 0a d4 e4 3d 8e cd d6 3d 66 88 cc 3d 58 a6 47 bd
       0.11173256 0.10488425 0.099869534 -0.048742622
0000f0 0e 2a d7 3d 0e ed ff bd 18 6e 85 3c fa 5b d0 3d
       0.10506068 -0.124963865 0.016287848 0.10173793
000100 cc 18 a5 bd 1c 84 27 3d ba 35 c3 3d 2c 07 68 bd
       -0.0806137 0.040897474 0.09531732 -0.056647465
000110 0c 41 5a 3d 24 f2 fe bd 2a c5 ba 3d 90 7a b0 3d
       0.05328469 -0.124485284 0.09119637 0.08617127
000120 a0 74 1a bc d0 a0 1a bd f2 84 c6 bd de 65 d2 bd
       -0.00942722 -0.03775102 -0.09693326 -0.10273336
000130 b8 f7 8e bd 44 21 60 3d c2 70 dd bd e4 d8 26 3d
       -0.06980842 0.054719225 -0.108125225 0.040734187
000140 20 ed 91 3b 50 c3 0c 3d cc 1f 07 bd f4 3e 2b bd
       0.0044533163 0.034365952 -0.03298931 -0.041808084
000150 98 ad 43 bd 1c 2d 18 3d bc ce dc bd 90 da f8 bd
       -0.047772974 0.037152395 -0.10781619 -0.121510625
000160 90 9b 3b bc 60 b3 c6 bc 10 bb b3 bd 14 7d 67 bd
       -0.011450663 -0.024255455 -0.08775914 -0.05651577
000170 f0 d6 03 3c e0 ed f1 3b c0 7c bb 3b c4 d9 b6 3d
       0.008046851 0.0073830932 0.0057216585 0.08928254
000180 ec 52 1a 3d e4 f8 95 bd ec 49 bf 3d 68 31 fc 3d
       0.037676737 -0.07322863 0.09340271 0.12314111
000190 c0 70 b6 bb f8 61 d2 3c 22 d7 c7 bd ee ed b3 bd
       -0.00556764 0.02568148 -0.0975783 -0.08785616
0001a0 00 c0 15 3b da f8 92 3d 0c a2 78 3d 30 33 1f bc
       0.0022850037 0.07176371 0.060701415 -0.009716794
0001b0 20 c1 1e 3c 84 20 8d bd 9a 03 a1 bd ea 16 f7 bd
       0.009689599 -0.068909675 -0.07862015 -0.120649174
0001c0 72 35 86 3d 18 f8 ee bc 30 90 57 bc c0 68 b8 3b
       0.06553163 -0.029171035 -0.013156936 0.0056277215
0001d0 70 82 38 bc 1c 51 a6 3d 78 dd aa bd a0 c3 44 bd
       -0.0112615675 0.08120939 -0.08343023 -0.048038125
0001e0 3a 10 fc 3d 42 7f ed bd e0 fd c5 bb 74 a9 ce 3d
       0.123077825 -0.11596538 -0.006042227 0.10090914
0001f0 90 97 a8 bc 60 97 50 3d 6c 13 60 bd f2 b7 b3 bd
       -0.020580083 0.050925612 -0.054706022 -0.08775319
000200 18 2c ea 3d f8 3b d9 bd 38 af bb bc 6c ed 0d 3d
       0.114341915 -0.10607141 -0.0229107 0.03465025
000210 ca af ff bd 08 34 4e bd 70 f6 bb 3d 7c df 5d 3d
       -0.12484701 -0.05034259 0.091778636 0.05416821
000220 fc 76 6e 3d 70 89 97 3d 70 f7 91 bd e0 13 e6 bc
       0.05821894 0.07399261 -0.07127273 -0.028085649
000230 88 8e b0 bd 94 c3 34 3d 98 8c a7 bd 26 93 ac bd
       -0.08620936 0.04413183 -0.08181113 -0.08426504
000240 08 df 18 3d 9a 47 99 3d 48 0d 22 bd f0 c0 df bc
       0.037322074 0.0748436 -0.039563447 -0.02731368
000250 9a db 9a bd dc 5e 13 3d 8c 9d 3e 3d a8 5b c1 3d
       -0.07561417 0.035979137 0.046536967 0.0944131
000260 80 c0 44 bb 1a fa ac 3d 4a b0 cf bd 08 fa 1e bd
       -0.0030021966 0.084461406 -0.10141046 -0.038812667
000270 00 15 40 bc 94 cc 77 bd 88 9c 98 3c 00 78 1a 39
       -0.011723757 -0.060497835 0.018629327 0.00014731288
000280 5c df dd 3d 76 06 fe 3d a2 fd fa 3d 60 04 a7 bd
       0.10833618 0.12403576 0.12255408 -0.08155131
000290 24 d0 40 3d 38 9a 89 bc 14 8f e3 bd 6a da e6 bd
       0.0470735 -0.01679717 -0.11111274 -0.11272128
0002a0 b8 fd 3a 3d 00 fb 01 bb b0 a8 49 bd 9e d3 b3 3d
       0.04565212 -0.0019833446 -0.04923314 0.08780597
0002b0 64 5b 52 bd 00 37 fe 3b 58 15 39 3d 00 22 98 bc
       -0.05135669 0.0077580214 0.04518637 -0.0185709
0002c0 bc cc 4d bd 82 34 a4 bd 80 74 95 3c 60 50 a4 bd
       -0.050244078 -0.080178276 0.018244028 -0.08023143
0002d0 c0 a2 97 bc 98 d9 c0 3d 60 ec e1 3b f0 72 3a 3d
       -0.018510222 0.09416503 0.006894633 0.04551977
0002e0 64 f4 e6 bd 96 26 f8 3d 96 b9 de bd 2a 58 b9 3d
       -0.112770826 0.12116735 -0.108752415 0.09050019
0002f0 2a fa cf bd f8 50 19 bd 64 21 4e 3d 9c d3 1f bd
       -0.10155137 -0.037430733 0.050324813 -0.039020166
000300 70 25 9f bd 20 8d 45 3c d0 0d 72 3c 1c 11 a3 bd
       -0.077708125 0.012057573 0.014773801 -0.07962248
000310 70 6c ba 3c bc e1 d9 bd 70 b4 03 bd ba b5 f2 3d
       0.022756785 -0.106387585 -0.0321545 0.11851068
000320 20 bb 9f bc cc 71 ea 3d 36 75 dd 3d 30 c1 97 3c
       -0.019498408 0.11447486 0.10813372 0.018524736
000330 10 9c 40 bd 00 8f 83 3a ac f7 f3 3d 20 bc 8e bd
       -0.047023833 0.0010037124 0.11912474 -0.06969476
000340 b8 fb d1 3d 38 70 d5 3c 82 06 c5 3d ec 21 25 3d
       0.1025309 0.026054487 0.09620382 0.040315554
000350 e8 c1 2e 3d 9c 71 01 bd 50 e1 49 bd 02 88 df 3d
       0.042665392 -0.031602487 -0.04928714 0.10914613
000360 3c 46 23 bd 4e 5a bd bd ea f3 e8 3d fc d3 1f bd
       -0.039861903 -0.0924574 0.11374648 -0.039020523
000370 64 bc a9 3d 78 74 2e 3d 52 18 e5 bd e4 ad d8 3d
       0.08287886 0.042591542 -0.11186279 0.10580042
000380 ac af 1f bd 3c 0c 63 3d 64 20 6f bd b0 1d d9 3c
       -0.038985893 0.05543159 -0.0583805 0.026503414
000390 98 fa cf bd 04 92 b3 bd 62 30 d1 bd 40 a3 3a 3b
       -0.10155219 -0.08768085 -0.102143064 0.0028478652
0003a0 c2 68 dc 3d a0 cd 59 bd 9c 51 4d 3d b4 5d 51 3d
       0.107621685 -0.053174615 0.050126657 0.051114753
0003b0 2e 9f ef bd 80 f0 5a bc c0 e3 23 3c d0 b3 ec 3d
       -0.11700283 -0.013363004 0.01000303 0.11557734
0003c0 4e 6b d0 3d e0 b7 e4 bd 96 d9 c5 3d c0 29 07 3b
       0.10176717 -0.11167884 0.09660642 0.002062425
0003d0 00 58 d5 3a 2c 5d 77 bd aa c8 be bd 00 20 e5 3d
       0.0016276836 -0.06039159 -0.093156174 0.11187744
0003e0 00 f0 34 3b 40 e5 e6 bd 70 7d 42 3c 68 2b 4d 3d
       0.0027608871 -0.11274195 0.011870727 0.050090224
0003f0 3e 32 a3 bd 18 a6 86 3c f2 8d d2 3d 48 1b b9 bc
       -0.07968567 0.016436622 0.1028098 -0.022596017

nikkei_encoder.lstm.bias_hh_l0 f4 [256]
000000 98 4a 8b 3c d8 fd 94 bd 84 7f 3e bd 60 54 b0 bb
       0.017003343 -0.07274979 -0.046508327 -0.005381152
000010 64 28 5a bd b4 98 4d 3d 78 8c b8 3c ac e6 e2 3d
       -0.053261176 0.050194457 0.022527918 0.110791534
000020 a4 ca 9c 3d 46 3f cc bd 44 d5 5b 3d 0c aa 64 bd
       0.07655838 -0.09973006 0.053670183 -0.05582623
000030 0c 94 d9 3d 18 25 98 bc 18 76 fd bc 50 7f 88 bc
       0.10623941 -0.018572375 -0.0309401 -0.01666227
000040 a0 0d 8a 3c 84 0d 5b bd 60 ff 02 bc 18 5a f2 3d
       0.0168522 -0.053479686 -0.007995456 0.1183359
000050 e4 89 50 3d 40 e5 65 bc b0 64 1e bd b4 57 5a 3d
       0.050912753 -0.014031708 -0.03867024 0.053306296
000060 6c 15 7b 3d 9c 9f 6f bd 00 7e ad 3b 94 fc 58 bd
       0.061299726 -0.058501825 0.0052945614 -0.052975252
000070 d0 d9 91 3c ea d0 d2 3d c4 2b af 3d 40 16 d6 bd
       0.017804056 0.102937534 0.085532695 -0.104534626
000080 9c 32 57 3d 2c 31 20 bd e8 10 9a bc 10 7e 9f bc
       0.0525385 -0.039109394 -0.01880689 -0.019469291
000090 dc 97 b2 3d 9c 3f 47 3d 66 d8 88 bd 38 83 b0 3d
       0.08720371 0.048644647 -0.066819 0.08618778
0000a0 3c d0 31 bd 6c 1b ae bd 38 1b 86 bd 70 2c ba bd
       -0.04341148 -0.08501324 -0.0654816 -0.09090507
0000b0 a0 e4 4a 3d ca de ea 3d 42 a4 eb bd 24 80 6b 3d
       0.04953444 0.11468275 -0.11505939 0.05749525
0000c0 08 0e 6a bd f6 cd f9 bd fa d3 d1 bd 3c 0d c0 3d
       -0.057142287 -0.12197487 -0.102455094 0.09377524
0000d0 06 5e c2 bd 18 2c d0 bd c8 4c 0f 3d c0 07 f3 bc
       -0.0949059 -0.1016466 0.034985334 -0.029666781
0000e0 a2 e6 a3 bd 62 5b b6 3d 40 25 82 3b f8 46 9a bc
       -0.08002974 0.08904149 0.0039717257 -0.018832669
0000f0 b4 5b 44 bd f4 a6 96 3d 78 2d a3 bc da 24 84 3d
       -0.047939017 0.073560625 -0.019919142 0.064523414
000100 ca 91 9c bd 10 57 2e 3c 24 34 1e 3d 56 a8 ca bd
       -0.076449946 0.0106408745 0.038623944 -0.09895389
000110 5c 6d 18 3d 78 13 6d 3d 60 e0 c0 bd 48 64 fd bd
       0.03721367 0.057879895 -0.09417796 -0.12372643
000120 bc 34 22 bd c0 0b 20 bb d8 60 00 bd 94 9f 36 3d
       -0.039601073 -0.0024421066 -0.031342357 0.04458578
000130 3c 51 ac 3d 04 83 ba bd 8c 93 ef 3d d4 5c 43 bd
       0.08413932 -0.091070205 0.11698064 -0.04769595
000140 5e 7d e6 bd 62 ae 83 bd 10 6c 13 bc c0 27 55 bc
       -0.11254381 -0.06429745 -0.008997932 -0.013009965
000150 08 d4 88 3d 80 ca 39 bc 06 58 f0 bd 80 91 b8 bc
       0.06681067 -0.011339784 -0.11735539 -0.022530317
000160 04 d4 13 3d 38 6a b5 bd 20 91 dd 3d b8 d5 20 3d
       0.036090866 -0.0885815 0.10818696 0.039266318
000170 3e 0c 90 3d 84 00 8e bd cc e5 c9 bd b8 20 84 3c
       0.07033585 -0.06933692 -0.098582834 0.016128883
000180 08 9a 27 3d 20 62 a7 3c e6 e8 83 3d 30 6f b8 bc
       0.04091838 0.020432532 0.06440906 -0.022513956
000190 a2 01 f7 3d 88 91 2f bd 02 af a6 3d 70 a1 31 bd
       0.12060858 -0.0428634 0.08138849 -0.04336685
0001a0 d4 41 68 bd d0 25 d1 bd a6 36 aa bd 12 83 85 3d
       -0.056703404 -0.1021229 -0.083112046 0.0651914
0001b0 cc ca c8 bd e0 b3 8b bc a6 ec e5 bd 84 0c 71 3d
       -0.098043054 -0.017053545 -0.11226778 0.058849826
0001c0 30 d3 19 3c b8 34 1a 3d 40 04 4b bd c0 52 73 bd
       0.00938873 0.037647933 -0.0495646 -0.05940509
0001d0 68 4b 03 3d f8 6a 38 bd 1c 05 94 bd a0 cf 44 3c
       0.032054335 -0.04502389 -0.07227537 0.012012392
0001e0 60 e9 4d 3d a0 11 fc bc c0 91 63 bc 90 ea e4 bc
       0.050271392 -0.030770123 -0.01388973 -0.02794388
0001f0 ce 45 a6 bd ec a9 b5 3d dc 37 ac bd f8 a4 e0 3d
       -0.08118783 0.08870301 -0.08409092 0.10968965
000200 c4 20 80 bd 14 a0 46 bd d0 02 5a bd 58 4a f2 3d
       -0.062562495 -0.048492506 -0.05322534 0.11830586
000210 f4 5b 82 bd 18 1c 9b bc 1c 3f 0b bd 72 0a df 3d
       -0.06365195 -0.018934295 -0.033995733 0.10890664
000220 42 42 c2 3d 30 9b 5f bd 18 91 82 bd 00 dc 63 bd
       0.09485294 -0.054591358 -0.06375331 -0.05562973
000230 16 e6 a4 3d b6 ad ad bd 20 c9 f4 bd 60 7f 2f 3d
       0.08051698 -0.08480398 -0.11952424 0.042846084
000240 78 7a 7d 3d f0 da 4e 3d d8 fd 3c 3d 14 84 e0 3d
       0.061884373 0.050501764 0.04614052 0.10962692
000250 58 11 90 3c 00 2e 08 3a 6c 56 00 bd e4 39 df bd
       0.017586395 0.0005194843 -0.03133242 -0.10899714
000260 d8 bc e5 3c 9c ef 18 3d 60 95 84 3c 8e 47 da 3d
       0.02804415 0.037337884 0.016184509 0.10658179
000270 7e bd 9f bd 44 02 01 bd c8 09 be bc 12 fb e8 3d
       -0.07799815 -0.0314963 -0.023198023 0.11376013
000280 d0 4f f8 3d 6e 36 b9 3d 1e 74 f6 3d f2 73 fe 3d
       0.12124598 0.09043585 0.12033866 0.124244586
000290 92 a0 f6 bd 80 17 99 3a 70 91 dc bc 62 04 ba bd
       -0.12042345 0.0011679977 -0.026924819 -0.09082867
0002a0 90 60 b8 bc c0 a4 08 bd 78 83 c9 bd 7c 2c cc bd
       -0.022506982 -0.033360243 -0.09839529 -0.09969422
0002b0 7e 80 e0 3d 9c df f1 bd 54 62 a8 3d 28 e1 f8 3c
       0.10962008 -0.11810228 0.082218796 0.0303808
0002c0 00 67 bb bd e8 f7 d1 bd 62 ae c2 bd 18 82 84 bd
       -0.09150505 -0.102523625 -0.09505917 -0.06470126
0002d0 d6 5f 99 bd 84 ba 17 bd 2c fe 49 bd 78 c0 ea 3c
       -0.074889824 -0.03704311 -0.049314663 0.02865623
0002e0 18 27 f9 bd 32 12 bc 3d d8 28 82 bd ce 59 86 bd
       -0.1216566 0.09183158 -0.063554466 -0.06560098
0002f0 78 da d3 bc e2 6b fd 3d a0 74 d8 3d 10 91 17 3c
       -0.02586101 0.12374093 0.105691195 0.009250894
000300 68 0e ff bd a0 dc 4e bd 40 01 da bc c4 96 01 bd
       -0.1245392 -0.050503373 -0.026611924 -0.031637922
000310 fc 02 09 3d e8 ab 94 bd b8 ca 58 bd 0c c0 69 bd
       0.03345011 -0.07259351 -0.052927703 -0.057067916
000320 a8 50 8c bd 48 77 36 bd a6 7e a7 3d da 69 9c 3d
       -0.068513215 -0.04454735 0.08178453 0.07637377
000330 22 91 ad bd b4 be 4f bd da ea dc bd 24 55 fd 3d
       -0.084749475 -0.050718978 -0.10786982 0.12369755
000340 60 fa 8b bd d6 d0 ac 3d 54 39 87 bd 40 20 76 3c
       -0.068348646 0.0843827 -0.06602731 0.015022337
000350 e0 ee 0a 3d 1c a2 2f bd 5a b8 a1 bd bc 48 f9 bd
       0.033919215 -0.04287921 -0.078964904 -0.12172076
000360 90 49 ac 3d b8 43 c5 bc 8c 4b 8f 3d c6 75 dc bd
       0.084124684 -0.024080142 0.06996831 -0.10764651
000370 88 52 a6 3d 68 f5 f8 3c d0 9a 04 bc 78 07 91 3d
       0.0812121 0.030390456 -0.008093551 0.07081503
000380 b0 ef e1 bd 78 53 c4 bc 80 31 eb bb 44 ce 67 3d
       -0.11032045 -0.023965582 -0.0071775317 0.056593195
000390 00 ed 8f 3c 22 16 97 bd 2c a1 7b 3d c0 7c b9 3d
       0.017569065 -0.073772684 0.061433002 0.09056997
0003a0 4a d9 f0 bd 68 ab 80 3d 18 b7 8f bc 94 d9 80 3d
       -0.117601946 0.06282693 -0.01754336 0.062915
0003b0 22 bf ab 3d e8 59 fa bd 00 05 4d 3a 14 56 9f bd
       0.08386065 -0.122241795 0.00078208745 -0.0778009
0003c0 e8 8d a7 bc 30 57 3d bc ac 3c 17 3d b8 d3 3d bd
       -0.020453408 -0.011556432 0.036923096 -0.04634449
0003d0 36 fe b2 3d 1c b0 bf 3d 44 84 05 3d 88 17 85 3c
       0.08739893 0.09359762 0.03259684 0.016246572
0003e0 00 88 af 3d a8 83 a2 bc 78 c1 d2 bd 80 9f eb 3c
       0.08570862 -0.01983817 -0.102908075 0.028762579
0003f0 22 b8 eb 3d 62 69 dc bd 8a 04 8e 3d d8 07 20 3d
       0.1150973 -0.10762288 0.069344595 0.03906998

nikkei_encoder.lstm.weight_ih_l1 f4 [256, 64]
000000 fc 81 e1 3d 08 59 92 bd bc ad 96 3d e8 bd e3 3d
       0.11011121 -0.071458876 0.07357356 0.11120206
000010 f0 b9 78 3d 24 12 e6 3d b4 b8 d7 3d 70 49 9f 3c
       0.0607242 0.11233929 0.10533276 0.019444197
000020 8c 4a 8f 3d 6a 6b ff bd 08 0a ea 3c 10 95 11 3c
       0.069966406 -0.124716595 0.028569236 0.008885637
000030 72 3e ae bd d6 c8 c8 bd ac c3 aa 3d 06 20 90 bd
       -0.08508004 -0.098039314 0.08338103 -0.07037358
000040 24 20 cc 3d e8 87 87 bc 20 94 5c 3d 1c dd ae 3d
       0.09967068 -0.016544297 0.0538522 0.08538267
000050 fa d1 e8 bd 24 49 5a 3d 64 64 47 bd dc ae 3c bd
       -0.11368175 0.05329241 -0.048679724 -0.046065196
000060 92 e9 81 3d 00 a8 e8 3b ea a8 bf 3d 78 a2 86 bc
       0.06343378 0.0071001053 0.0935839 -0.016434893
000070 a0 7e 38 bd e8 6a 93 bd e6 7f c7 bd 40 e0 7f 3c
       -0.045042634 -0.07198125 -0.097411916 0.01561743
000080 fc 60 ca 3d 48 24 f4 3c da e7 ac bd 3c df 86 bd
       0.098817796 0.029802456 -0.0844266 -0.06585547
000090 5a 97 c6 3d 16 d2 bf 3d 68 ab 71 3d 1a 84 b6 3d
       0.09696837 0.093662426 0.059001356 0.08911915
0000a0 28 fd c1 bc 08 53 7b 3d b4 4d bb 3d 20 45 e6 3c
       -0.023680285 0.06135848 0.0914568 0.028109133
0000b0 58 97 f2 3d 20 4e 19 bd c8 d9 f5 3c 54 20 77 bd
       0.11845273 -0.03742802 0.030011073 -0.060333565
0000c0 58 a0 f7 bd 08 d9 9b 3c 9c 19 e8 3d e0 66 ef 3c
       -0.1209113 0.019024387 0.113330096 0.02922386
0000d0 c6 99 b5 3d ca ab d4 bd d0 15 19 bc 82 1e a1 bd
       0.088672206 -0.10384329 -0.009343579 -0.07867147
0000e0 d0 56 f8 3d 20 42 d7 bb de 0a c8 3d 4a ad d8 3d
       0.12125933 -0.006569162 0.09767698 0.10579927
0000f0 48 11 17 bd 00 82 4f 3d 1c 42 ee 3d e0 d2 77 bd
       -0.036881715 0.050661087 0.11633703 -0.06050384
000100 38 68 23 3d fa fe a8 3d a8 ba 2f 3d 8e 51 94 bd
       0.039894313 0.08251758 0.04290262 -0.07242118
000110 e0 28 cc bc e4 b0 c6 bd a4 d6 08 bd ec 32 9c bd
       -0.024921834 -0.09701708 -0.033407822 -0.076269
000120 00 3b 2d bd 10 72 de 3c 20 8d 51 3d 80 d1 87 3b
       -0.042292595 0.027153999 0.051159978 0.0041448474
000130 d8 05 d1 bc ce 3f 95 3d 28 c7 a2 3c 04 5f e8 3d
       -0.025515482 0.072875604 0.019870356 0.11346248
000140 5a 93 df bd 90 96 63 bc 30 b2 6d 3d 70 01 3d bc
       -0.10916777 -0.013890877 0.05803126 -0.011535987
000150 c2 64 f6 3d 48 3c 00 3d c0 47 9a bd 70 d1 d9 3c
       0.12030937 0.03130749 -0.075332165 0.026589125
000160 e0 33 76 3c 96 70 ec bd 9c 86 d2 bd d4 37 9b 3d
       0.015027016 -0.115449116 -0.10279581 0.07579008
000170 e8 bb 2e 3d d4 d4 8a 3d 00 ad 16 ba 80 13 d2 bc
       0.04265967 0.06778875 -0.0005747825 -0.025644064
000180 b0 31 9c 3d 3c 8f ee 3d ac b9 42 bd d6 10 80 bd
       0.07626665 0.116484135 -0.04754035 -0.06253211
000190 1c a7 83 bd 24 ff 11 3d a0 51 ce 3b f8 61 df bc
       -0.06428358 0.03564371 0.0062963516 -0.027268395
0001a0 70 aa 69 bc 48 b3 e8 bc 40 4a 9a bb 00 f3 b1 3b
       -0.014261827 -0.0284058 -0.0047085583 0.005430579
0001b0 7a a0 cf 3d 44 a7 38 3d 90 fa 17 bc 00 12 76 bd
       0.1013803 0.045081392 -0.009276047 -0.06007576
0001c0 38 32 83 bc 3c fc 12 bd 30 34 4b 3d b8 6b f9 bd
       -0.016015157 -0.03588508 0.049610317 -0.12178749
0001d0 0a 49 e9 3d b8 e5 e3 3d 54 44 73 bd b0 a7 b4 bc
       0.11390884 0.111278 -0.059391335 -0.022052616
0001e0 08 c4 2b 3d 80 43 e9 ba a0 fd 0c bd e0 d8 b8 bb
       0.041934997 -0.0017796606 -0.034421563 -0.005641088
0001f0 f0 81 4b bd 0a a9 f5 bd 90 9a 1e bd c4 b3 1c bd
       -0.049684465 -0.11995132 -0.03872162 -0.038257375
000200 6c a2 da bd ea 63 e1 bd e0 77 97 bc 40 fe b9 bc
       -0.10675511 -0.11005385 -0.018489778 -0.022704244
000210 a4 16 03 3d 4a d4 a9 3d d2 4c fd bd bc c4 c2 3d
       0.032004014 0.08292444 -0.12368168 0.0951018
000220 98 d0 0e bd 60 80 07 3c 56 7f f6 3d 2a 2b d6 3d
       -0.0348669 0.008270353 0.12036006 0.10457452
000230 30 d0 9d 3c 90 f1 5b bd 08 75 45 bd 0c c9 f0 3d
       0.01926431 -0.05369717 -0.048207313 0.11757097
000240 34 2b 2d 3d e6 0b 90 3d 70 ed b2 bd dc 30 69 bd
       0.04227753 0.070335194 -0.08736694 -0.05693136
000250 f0 07 db bd 7e eb ae 3d 38 9d 73 3d 2e b4 eb 3d
       -0.10694873 0.0854101 0.059476107 0.11508976
000260 8c 20 10 bd 80 a4 80 bc 76 06 d5 3d 90 d6 af bd
       -0.03518729 -0.01570344 0.10401623 -0.085858464
000270 20 8e d0 3b 02 57 e0 3d c0 d6 a7 3d 2e 12 c3 3d
       0.006364599 0.109540954 0.08195257 0.09524952
000280 50 2e 30 bd 70 d0 49 3c d0 c9 a9 bc 50 70 72 3d
       -0.043012917 0.012317762 -0.020726115 0.05918914
000290 ee cd fb bd 84 bb 5c bd 78 7b c7 3c 38 b7 75 bd
       -0.12295137 -0.053889766 0.024350867 -0.059989184
0002a0 58 b2 d5 3d 26 9e fa 3d 5e eb fd 3d d0 1a 72 bd
       0.10434407 0.12237196 0.12398408 -0.0591076
0002b0 f2 05 b3 3d 04 c0 fa 3d 16 f2 b2 3d 8c 5d 67 3d
       0.08741368 0.12243655 0.087375805 0.056485698
0002c0 10 de c7 bd fe bd d4 3d 50 fa f5 3d 1c fa 68 3d
       -0.09759152 0.10387801 0.12010634 0.056879148
0002d0 b4 94 ce bd 74 b3 8a bd e8 4b b1 3c ba 73 c7 3d
       -0.100869566 -0.06772509 0.02164264 0.0973887
0002e0 b4 ab 89 bd d4 98 89 bd 1c f1 74 3d a4 43 80 bd
       -0.06722203 -0.06718603 0.059800252 -0.062629014
0002f0 60 0a 60 bc d4 9c 99 bd 00 a8 ab 3a e8 15 64 3d
       -0.013674349 -0.07500616 0.0013096333 0.055684954
000300 14 a4 bc 3d 18 f3 44 3d 30 4c 15 3d a6 f7 a5 bd
       0.09210983 0.048083395 0.03644961 -0.08103876
000310 00 d1 fa 3d 1a 71 a9 bd 74 fc 98 bd 40 a0 fc bc
       0.12246895 -0.082735255 -0.074700266 -0.030838132
000320 08 ea b5 3c dc 14 88 bd 3c a1 57 3d f0 65 6a bd
       0.022206321 -0.066446036 0.052644 -0.05722612
000330 28 2e e8 bc 6c 54 9f 3d 20 89 0d 3c 36 42 fe 3d
       -0.028342322 0.07779774 0.00863865 0.124149725
000340 18 9c d3 bc 10 93 97 bc 50 42 34 3d 40 14 a9 bc
       -0.025831267 -0.018502742 0.044008553 -0.020639539
000350 da 1a ce bd 70 9a 2e 3d e8 3c 97 3d de 49 d4 bd
       -0.10063715 0.04262775 0.07384664 -0.103656515
000360 0e 37 c7 3d b8 3d 3d bd 58 bf fb bd b0 ec 9a bd
       0.09727298 -0.046201438 -0.12292355 -0.07564676
000370 3a 48 a2 3d 10 7e d5 bd cc e1 15 bd 72 c1 cc bd
       0.079239324 -0.10424435 -0.03659229 -0.09997834
000380 0e 56 b7 bd 32 42 e8 3d 08 35 e0 3c a8 b7 19 bd
       -0.089519605 0.11340751 0.027369037 -0.037528664
000390 b4 61 e6 bd a8 1a 0b 3d b8 a8 2c 3d 28 f5 c2 bd
       -0.11249104 0.03396097 0.04215309 -0.09519416
0003a0 90 01 23 bd f8 2a e7 bd 0c eb 00 3d 98 87 c4 3d
       -0.039796412 -0.112874925 0.03147416 0.09596175
0003b0 98 8c a1 3d c4 40 a3 bd d0 7c 64 bd 14 7b f8 3d
       0.07888144 -0.079713374 -0.055783093 0.1213285
0003c0 44 a1 36 3d 90 d5 7a 3d 3c ed 77 3d ac 62 d0 bd
       0.04458739 0.061238825 0.06052898 -0.1017507
0003d0 7c 59 80 3d 88 2f 15 3d a0 f0 0c bc ba 9a eb 3d
       0.06267068 0.036422282 -0.008602291 0.11504121
0003e0 f2 1a 86 bd d8 7d b7 bc 90 fc 93 3d a0 ba 65 bc
       -0.06548108 -0.022398874 0.07225907 -0.014021546
0003f0 10 b5 84 3c 00 45 55 3b 0e 27 b1 bd e8 c5 a9 bc
       0.016199619 0.0032542348 -0.08650027 -0.020724252

nikkei_encoder.lstm.weight_hh_l1 f4 [256, 64]
000000 b0 04 de bc 40 8f a2 3d 68 50 91 3d bc 52 18 bd
       -0.027101845 0.07937479 0.070954144 -0.037188277
000010 dc 1c 16 3d 72 f3 94 3d 28 72 bb bd 5e f6 9c 3d
       0.036648616 0.07272996 -0.09152633 0.07664178
000020 40 ec 1f 3b dc bf 2e 3d 62 78 8f 3d 30 db 08 3c
       0.002440229 0.04266344 0.07005383 0.00835304
000030 30 c1 fa bd 78 39 16 bd 56 d4 b0 3d e0 1f a5 bc
       -0.12243879 -0.0366759 0.0863425 -0.0201568
000040 40 e2 a6 bc cc fb b6 bd 28 4a a3 bd 22 69 d3 bd
       -0.020371556 -0.08934745 -0.079731286 -0.10322787
000050 28 47 dd 3d 80 aa c8 bb 80 c4 5c bc cc 34 57 bd
       0.108045876 -0.006123841 -0.013474584 -0.052540585
000060 e4 4b b1 3d d0 90 c6 bd 68 62 a1 3d 10 62 13 bd
       0.08657053 -0.096955895 0.07880098 -0.03598219
000070 44 e3 af bd 46 2b e3 3d 10 f9 ca 3c f8 bc 85 3d
       -0.08588269 0.11092238 0.024776965 0.065301836
000080 fc 7e 30 3d 68 fc cd 3d 9e 2f a5 bd 36 4a a0 bd
       0.04308985 0.10057908 -0.08065723 -0.078266546
000090 98 16 b3 3c 60 b4 e1 bd 48 fa 91 bd d4 d1 2f bd
       0.02186136 -0.11020732 -0.071278155 -0.042924717
0000a0 60 cf 4e 3d 10 c8 ce 3c e0 cd 97 bc d0 7f 4a bc
       0.050490737 0.025241882 -0.018530786 -0.012359574
0000b0 5c 3a 79 3d 3c a8 ef bd 3c a1 62 3d 56 46 ab 3d
       0.06084667 -0.1170201 0.055329546 0.08363025
0000c0 a0 5a ee 3d 88 e4 5a 3d c0 6e 41 bb ac dc cf bd
       0.11638379 0.0534406 -0.0029515475 -0.10149512
0000d0 04 22 15 3d be dc c0 3d 10 35 e0 3c 2c e4 00 bd
       0.036409393 0.09417103 0.027369052 -0.0314676
0000e0 3a 3b 94 bd ae c9 be 3d cc bf 07 bd 8a b4 d2 3d
       -0.07237859 0.09315811 -0.033141896 0.10288341
0000f0 3e a8 ec 3d 60 ff 32 bc 80 ff fc 3d 22 85 85 bd
       0.11555527 -0.010925144 0.1235342 -0.06519534
000100 ec fa fd bd e8 ab 71 3d d4 e3 37 3d f0 12 05 3c
       -0.12401375 0.059001833 0.04489501 0.008122191
000110 5a 05 bc bd 9c 89 3f 3d d6 ff ae bd 1a 17 fd 3d
       -0.09180708 0.046762094 -0.085448906 0.12357922
000120 e8 f5 33 3d 6c 48 08 3d 6c 74 8a 3d ae 28 d2 bd
       0.043935686 0.033272192 0.06760487 -0.10261665
000130 2a d2 dd bd 38 c7 94 3c b8 a1 9e 3d ce ee 9a 3d
       -0.10831101 0.018161401 0.07745689 0.0756508
000140 22 16 a8 3d 80 a9 17 bc 98 56 9b bd 0e ee 9f bd
       0.082073465 -0.009256721 -0.07584876 -0.07809077
000150 6a b5 c7 3d 08 dd f5 bd 94 dc ab bd d0 99 87 3c
       0.09751399 -0.12005049 -0.08391681 0.016552836
000160 6c 07 79 bd ee c4 88 3d e6 74 bf bd 74 df 64 3d
       -0.060798094 0.06678186 -0.093484685 0.055877164
000170 08 35 8d 3d b0 5f ff 3c d2 ad d7 3d ac ce 80 bd
       0.068948805 0.031173557 0.105312005 -0.062894195
000180 20 e8 87 bd 90 d2 9d 3c 78 1c e0 3d c0 9f 13 bb
       -0.06636071 0.019265443 0.1094293 -0.0022525638
000190 74 8c 62 3d e4 17 d1 bd 28 24 dc bd b8 f3 12 bd
       0.055309728 -0.10209635 -0.10749084 -0.03587696
0001a0 a8 16 55 3d 64 68 88 3d 44 82 a9 bd f0 3b 11 bd
       0.05202356 0.06660536 -0.08276799 -0.03545755
0001b0 08 3b eb bc 1c 4e ef bd 6e 25 9f 3d 1e 4c c6 bd
       -0.028714672 -0.1168482 0.07770811 -0.09682487
0001c0 30 f1 e2 3c 04 2e 28 bd 06 68 bf 3d f0 0f 20 bc
       0.027702898 -0.04105951 0.09346013 -0.009769425
0001d0 38 cf 38 bd 68 f6 5f 3d 14 78 5d 3d 40 82 38 bb
       -0.045119494 0.05467835 0.054069594 -0.0028153807
0001e0 26 e5 e5 bd c4 29 e1 3d 1c 29 c6 3d 6c 90 ea bd
       -0.11225347 0.10994294 0.0967581 -0.114533275
0001f0 70 bf 9d 3d 5c d4 b8 bd 74 8f 08 bd 26 bb f5 3d
       0.077025294 -0.09024879 -0.033339933 0.11998586
000200 30 e1 98 3c 36 0f d1 3d 5a a1 d2 3d d8 57 7c 3d
       0.018662065 0.102079794 0.102846816 0.06160721
000210 80 aa b7 ba b4 c3 24 bd d8 24 7c 3d 8c 1f a9 3d
       -0.0014012605 -0.0402257 0.061558574 0.0825797
000220 c0 58 54 3b 40 64 5d 3c f4 8c 39 3d 60 45 9e 3d
       0.0032401532 0.013512671 0.04530044 0.07728076
000230 8c 4a 97 3d b0 0d 7e bd d4 29 b9 bd 10 74 f5 3c
       0.073872656 -0.062024772 -0.09041181 0.02996257
000240 88 65 ca 3c 60 65 a6 3d 38 ad 8b 3d 6a 68 ed 3d
       0.024706617 0.081248045 0.06820148 0.11592181
000250 42 0f ba bd 60 b2 a2 3d 86 41 ad bd 98 43 d1 bc
       -0.090849414 0.079441786 -0.08459763 -0.025544927
000260 86 ca d1 bd 08 49 9a 3c d0 a4 58 3c 40 51 3d 3b
       -0.102437064 0.018833652 0.013222888 0.002888754
000270 e4 e5 9b bd a4 8e 5d bd a0 93 b4 3c 80 1e fd bd
       -0.076122075 -0.05409111 0.02204305 -0.12359333
000280 28 42 37 3d ec a6 8c 3d 6c 41 db 3d 4e 1a 9b bd
       0.044740826 0.06867775 0.107058376 -0.075733766
000290 98 b4 d7 3d 2c 8c 7b bd b2 1c ca 3d 40 37 9c 3d
       0.105324924 -0.061412975 0.098687544 0.076277256
0002a0 1c 2c 3b 3d c8 90 f2 bd 18 be 82 3d 36 84 c5 bd
       0.045696363 -0.11844021 0.06383914 -0.09644358
0002b0 c8 bd dd bd 60 74 a9 bd 3c be 8d bd 86 57 af bd
       -0.108272135 -0.0827415 -0.0692105 -0.08561616
0002c0 1a cc a3 bd 38 26 a8 3d a0 b5 07 3d 1c a1 5a bd
       -0.07997914 0.08210415 0.033132195 -0.053376302
0002d0 78 4c f3 3d 50 21 fc bd c8 6d 7d 3d 20 62 c0 3c
       0.1187982 -0.12311041 0.061872274 0.02348429
0002e0 c0 e6 bf bd 04 20 36 bd 5c e7 ac 3d 24 83 a1 bd
       -0.09370184 -0.044464126 0.08442566 -0.07886341
0002f0 00 c7 bc bc 90 dd 95 bd 3e 99 c3 3d ca a6 90 bd
       -0.02304411 -0.0731765 0.09550713 -0.070630625
000300 30 67 bf 3c 30 96 10 bc 38 90 5b bd c0 21 3a bc
       0.023364633 -0.00882487 -0.053604335 -0.011360586
000310 74 bf 94 bd 32 66 be 3d 38 5b 36 3d e0 2e 8d bd
       -0.07263079 0.09296836 0.044520587 -0.06893706
000320 ac 20 38 3d d0 30 ea bd cc ea 03 bd 64 f5 47 3d
       0.044953033 -0.114350915 -0.03220634 0.048818007
000330 0c 36 15 3d 18 3c 8c 3d f0 ee 92 3c 80 6c f2 bb
       0.036428496 0.068473995 0.0179362 -0.007398188
000340 84 1c 01 3d 90 43 ee 3c d0 12 de bd 00 d6 cd 3c
       0.031521335 0.02908495 -0.10843432 0.025126457
000350 0c 1b 7e bd 7e 7f d7 3d 4c 8d 01 3d 5c fa d0 bd
       -0.062037513 0.10522364 0.03162889 -0.10204002
000360 fc ea b0 bd 10 52 ff bd 2a 38 b1 3d 84 d4 fa 3d
       -0.0863857 -0.12466824 0.086532906 0.122475654
000370 68 6a 9f 3d 5a a5 e4 bd 0a 5c d4 bd 58 43 d3 bd
       0.07783967 -0.11164351 -0.103691176 -0.10315579
000380 20 55 e5 bd 90 0b 3e 3d c8 28 60 3d 04 66 e4 bd
       -0.11197877 0.046397746 0.054726392 -0.111522704
000390 3c ea f8 3d 3c 38 e9 bd f4 d2 27 bd d8 e5 3f bd
       0.12154052 -0.11387679 -0.040972665 -0.046850055
0003a0 fc 34 82 bd 3e 49 dd 3d 24 66 f6 3d 32 df 87 3d
       -0.06357762 0.108049855 0.120312005 0.06634368
0003b0 d0 5b c8 3d 80 fe 47 bc 14 0d aa bd 88 27 d6 3c
       0.09783137 -0.012206674 -0.08303276 0.026141897
0003c0 58 70 f3 3c 54 3d 08 3d be 19 90 bd 6a 99 89 3d
       0.029716656 0.033261612 -0.0703616 0.067187145
0003d0 04 ab 0b 3d dc 16 00 bd 68 12 ed bc f8 e0 23 bd
       0.03409864 -0.0312718 -0.02893944 -0.04000947
0003e0 52 c9 c1 3d f0 13 0a bd d8 37 27 bd 80 11 cb 3b
       0.09462227 -0.03371042 -0.04082474 0.0061971545
0003f0 34 77 72 bd ac eb 3e bd 28 0e 52 3d 80 20 57 3d
       -0.059195712 -0.046611473 0.05128303 0.05252123

nikkei_encoder.lstm.bias_ih_l1 f4 [256]
000000 16 79 fe 3d e4 42 11 bd 80 fd 9e bb 2c 51 bf 3d
       0.12425439 -0.035464182 -0.004851997 0.09341654
000010 18 55 1c bd 02 e9 b3 bd 10 12 d0 bc dc a4 e9 bd
       -0.03816709 -0.08784677 -0.025399238 -0.114083976
000020 80 d4 60 bb 1c 42 44 bd 90 83 5d bc 94 95 22 bd
       -0.0034306347 -0.04791461 -0.0135201365 -0.03969343
000030 80 4a 52 bc 74 4f 8f 3d 50 ff 19 bd 80 eb a1 bb
       -0.012835145 0.06997576 -0.037597 -0.004941404
000040 40 b5 0b 3d 20 56 ac bc c8 33 d2 bd b2 e6 ec 3d
       0.0341084 -0.021037161 -0.10263783 0.11567439
000050 f8 53 c1 3d 44 37 97 3d 8a 1a 98 3d 02 84 f3 3d
       0.09439844 0.07383588 0.07426937 0.11890413
000060 3c ce 7b bd 44 26 e4 bd c0 4d 48 bc 90 e9 a0 bc
       -0.061475977 -0.11140111 -0.012225568 -0.019642621
000070 94 70 26 3d 58 98 9f bd 16 d2 95 3d 00 76 d4 3c
       0.040634707 -0.07792729 0.07315461 0.025935173
000080 00 7f 36 bc d0 59 d3 3d f2 67 90 3d c6 03 81 3d
       -0.011138678 0.10319865 0.07051076 0.06299548
000090 3a 6d e5 3d 06 18 a5 bd 74 e3 0f 3d aa 72 ad 3d
       0.11202474 -0.08061223 0.035129026 0.08469136
0000a0 8e 8b df 3d 68 8d 0f bd 56 d5 be bd 94 11 da bd
       0.1091529 -0.035046965 -0.09318034 -0.10647884
0000b0 78 b5 e9 bd 48 a3 f1 3d f8 20 ca bd 66 d6 9c bd
       -0.114115655 0.117987216 -0.098695695 -0.07658081
0000c0 88 28 ce 3d e8 74 b7 3c a0 42 e7 3d 80 0f cf ba
       0.100663245 0.022394612 0.112920046 -0.0015797466
0000d0 68 b0 39 bd 86 23 a1 3d 4e 78 e1 3d 3c c5 a0 3d
       -0.04533425 0.07868104 0.110092744 0.078501195
0000e0 00 d0 9d b8 06 32 80 3d 54 ea cf bd 50 83 61 3c
       -7.5250864e-05 0.06259541 -0.101521164 0.0137642175
0000f0 4c 79 f8 bd 00 80 8e b8 34 40 8c bd d4 41 9c 3d
       -0.121325105 -6.7949295e-05 -0.06848183 0.07629743
000100 e4 d6 8a bd b0 18 4d bc a0 7a 7d bd e8 3d c8 bd
       -0.067792684 -0.012518093 -0.061884522 -0.09777433
000110 ce d6 af 3d 9c 7a 5b bd 26 1b 90 bd 8c 03 3c 3d
       0.085858926 -0.053583726 -0.07036428 0.04590182
000120 10 8e ec bd 78 da dc 3d e0 b0 df 3b cc d6 04 bd
       -0.11550534 0.10783857 0.006826505 -0.03243141
000130 34 0b 32 bd fa 84 9e 3d 00 73 d5 3a d4 a0 83 bd
       -0.043467715 0.07740207 0.0016284883 -0.0642716
000140 0a 42 e4 3d 26 db 94 bd f6 61 ed 3d 54 2f ac 3d
       0.111454085 -0.07268362 0.1159095 0.084074646
000150 70 68 c3 bc 88 dc b0 3c d4 01 6f 3d 6c b0 90 3d
       -0.02385351 0.021589532 0.058351353 0.070649
000160 60 91 de bd ee 4c e4 bd 08 82 86 3c 40 3a 54 3d
       -0.10867572 -0.11147486 0.016419426 0.051813364
000170 50 b3 c3 3d d0 f3 16 3c c0 e3 86 bb 08 31 f1 bc
       0.095556855 0.009213403 -0.0041165054 -0.029442325
000180 38 4f 81 3c 98 6e 92 bc 58 cd d6 bc a0 78 e9 bd
       0.015784845 -0.017875 -0.026220962 -0.113999605
000190 c8 77 04 3d b8 ca dc bd 1c 62 aa 3d 1e 9e bb bd
       0.032340795 -0.10780853 0.08319494 -0.09161018
0001a0 7e 40 cb 3d f8 ca e1 3c d0 d2 f6 bd c0 7f 7e 3d
       0.0992441 0.027562603 -0.12051928 0.06213355
0001b0 20 e5 f7 3b 68 72 e8 bc a0 23 b7 3d 70 3a 54 bc
       0.0075651556 -0.028374866 0.08942342 -0.012953386
0001c0 7c 02 83 3d b2 55 f5 3d e0 ac 7c bc ee ed f4 3d
       0.06396958 0.11979236 -0.015422076 0.11959444
0001d0 4c 36 ba bd 00 21 5c bd f2 8e d2 3d 94 5d 63 3d
       -0.090923876 -0.05374241 0.10281171 0.055509165
0001e0 c8 d3 47 bd 78 23 3f bd 14 2b e1 bd 26 e5 a2 bd
       -0.048785955 -0.046664685 -0.109945446 -0.07953863
0001f0 f8 c4 cb 3c 66 66 c9 3d a0 52 3f 3d ea c4 e3 bd
       0.024874195 0.09833984 0.046709657 -0.11121543
000200 8a 0e 88 bd 40 18 29 3d f0 a9 1a 3d f0 20 da bd
       -0.06643398 0.041282892 0.03775972 -0.106508136
000210 36 35 c1 bd ec 48 ed 3d 28 ba df bd 24 12 4b 3d
       -0.09433977 0.11586174 -0.10924178 0.049577847
000220 f0 26 0a 3d e0 09 84 3d 60 7c 92 bc c8 5e ae 3c
       0.03372854 0.06447196 -0.017881572 0.02128543
000230 22 33 cc 3d c0 1d ab bb b2 5b c9 bd ec 5b e9 bd
       0.0997069 -0.0052220523 -0.098319426 -0.11394486
000240 18 81 af 3d 6a 70 df bd 0c a3 0b 3d e8 1c 34 3d
       0.085695446 -0.10910113 0.03409104 0.04397288
000250 68 42 18 bd c4 f4 35 bd f0 96 d4 3d 00 2d 0b bb
       -0.037172705 -0.04442288 0.103803515 -0.002123654
000260 6c 10 6f 3d 6a 33 b4 3d 38 19 c4 bc 00 6c 60 bc
       0.05836527 0.08798869 -0.023937806 -0.013697624
000270 c6 a2 b8 3d 1e 91 a6 bd 80 75 e4 3c 44 2c 7e bd
       0.090154216 -0.08133148 0.02788806 -0.062053934
000280 00 9c af 3b 3c 8c f1 3d 82 30 9d bd 7c e5 c4 3d
       0.005359173 0.11794326 -0.07675268 0.09614083
000290 00 e4 48 bd da ce 8b bd e4 fa 36 3d a4 01 e9 bd
       -0.049045563 -0.06826563 0.04467286 -0.11377266
0002a0 9e 5c b7 bd 8c 33 9b bd 0a b5 ed 3d f8 5a 45 3d
       -0.08953212 -0.07578191 0.11606796 0.048182458
0002b0 b4 b6 d2 3d d8 76 d0 bc 14 3b 94 3d 56 9b ad 3d
       0.10288754 -0.025447294 0.07237831 0.084768936
0002c0 82 77 c1 3d 50 2b 3f bc 48 bb 5f bd cc a8 0d 3d
       0.094466224 -0.011668041 -0.054621965 0.034584805
0002d0 a8 fc fd bc b0 2a 56 3c d6 65 a8 bd a0 e6 c0 3d
       -0.031004265 0.013071701 -0.08222549 0.09418988
0002e0 98 88 15 3d 10 92 ce bd 10 e2 79 3d 18 6d c1 3d
       0.03650722 -0.10086453 0.061006606 0.09444636
0002f0 52 cc bc 3d 98 d3 63 bd 08 fb 51 3d e0 a2 f3 bc
       0.092186585 -0.055621713 0.051264793 -0.02974075
000300 8c 06 77 bd c2 3a d4 3d 66 91 ea bd b4 74 22 3d
       -0.060308978 0.1036277 -0.11453514 0.039662078
000310 d8 08 b1 bd fe ff 9e 3d 82 24 fb 3d 48 fe 76 3d
       -0.08644265 0.077636704 0.12262823 0.060301095
000320 7c ed ee 3d 60 f2 0c bc 64 43 9d 3d 24 13 3f bd
       0.1166639 -0.008602709 0.07678869 -0.046649113
000330 80 45 51 3b 38 9b c3 bc 88 bf 00 bd 88 44 e6 3d
       0.0031932294 -0.023877725 -0.03143266 0.1124354
000340 10 bf 5b bc a8 ca 89 bd ba 79 d2 bd 1a 62 9a 3d
       -0.013412252 -0.06728107 -0.10277124 0.07538243
000350 da af f5 bd 40 5a 82 3b ce 0f a4 bd 28 8e d3 bd
       -0.11996432 0.003978044 -0.08010827 -0.103298485
000360 78 dc 37 3d bc 8f 23 3d 84 88 c7 3d 5c 70 66 bd
       0.04488799 0.039931998 0.09742835 -0.056259498
000370 6a 64 ee 3d 68 53 48 bd 80 c8 b6 bb 30 6b 04 bc
       0.11640246 -0.048907667 -0.0055781007 -0.008082196
000380 04 0f 7c bd 24 ef 68 bd 20 3e c7 3d 04 9a 19 bd
       -0.061537758 -0.056868687 0.09728646 -0.037500396
000390 78 5e 25 bd fc 78 40 bd 58 b8 8e 3d 84 1f 8b bd
       -0.040373296 -0.04699038 0.069687545 -0.067931205
0003a0 f8 dc 38 3d d0 73 5c 3c 58 87 da bd 12 02 f7 bd
       0.045132607 0.013455346 -0.10670346 -0.12060942
0003b0 e8 8f c1 bc 24 fa d7 bd de fe f5 3d 50 43 ab 3c
       -0.02362819 -0.105457574 0.12011503 0.02090612
0003c0 04 36 80 bd 00 b6 d8 bc 40 76 30 3d 80 f3 71 3c
       -0.06260303 -0.026453972 0.043081522 0.014767528
0003d0 a0 c5 e8 3c 80 3d 42 3d a0 1a ec bc 4a 02 a8 bd
       0.028414547 0.047421932 -0.02882129 -0.082035616
0003e0 2e e8 e2 bd 06 27 90 3d 00 20 7e bd dc ea 66 3d
       -0.11079441 0.07038693 -0.062042236 0.056376323
0003f0 70 bd 26 3d 60 33 95 bd 12 63 ca bd 58 53 02 3d
       0.040708005 -0.0728519 -0.098821774 0.031817764
